Topic 2/4.2 Cross-validation methods/lightning_logs/version_5/checkpoints/epoch=9-step=1340.ckpt (torch, 8754 bytes, 9 tensors)

net.0.weight f4 [10, 10]
-0.07459012 0.04424932 0.23415287 0.19859456 -0.080300905 -0.5536335 1.5045584 1.0385172
-0.6285828 -0.4222211 2.7475135 -0.52285546 2.3380888 0.92913043 1.5237485 0.6687628
1.1712246 -0.46837717 0.76069635 3.993229 0.26209375 -0.68403274 -1.2076708 0.36773375
0.5364165 -2.1919937 -1.9950464 0.24834827 0.7981784 -0.76871544 1.4963982 1.0528947
0.028831948 0.8555264 0.657349 -0.24424684 -0.16698699 -0.14641242 2.5386417 -0.453304
-2.3276296 -1.0216156 0.3824022 0.70518446 -0.0705115 -0.10759417 0.79428875 -0.005886997
-2.915379 0.21929334 2.947175 1.9160434 1.0020665 -0.3349079 -0.6711007 2.427204
-0.6184923 -0.5172611 1.0446533 -0.13612854 0.014219301 -1.2261673 0.381001 0.5320861
0.56357414 -3.4011605 -2.0095835 0.2044029 -0.81507486 2.3258731 2.1514826 0.925948
0.86095136 1.2443999 1.2360576 -2.521459 -1.4499149 -0.23400523 1.4013045 1.2282176
1.1835632 0.50006455 0.372764 0.18447013 0.2114781 -3.1704373 -1.0994953 1.995482
-0.95173174 1.2448357 2.4281862 0.049187973 0.33611703 -0.107416995 0.10691791 0.09012133
1.9560746 2.50084 0.6351427 0.9856506
00000000: b4c2 98bd c63e 353d c5c5 6f3e 5f5c 4b3e
00000010: cd74 a4bd edba 0dbf 5f95 c03f 22ee 843f
00000020: cdea 20bf 5d2d d8be 43d7 2f40 dbd9 05bf
00000030: 3fa3 1540 7edb 6d3f 310a c33f 0a34 2b3f
00000040: b0ea 953f 22cf efbe ffbc 423f 1091 7f40
00000050: 2731 863e c51c 2fbf f594 9abf 9947 bc3e
00000060: 9752 093f a049 0cc0 ae5d ffbf 024f 7e3e
00000070: 6b55 4c3f 89ca 44bf fa89 bf3f 41c5 863f
00000080: fa30 ec3c c703 5b3f 0648 283f d81b 7abe
00000090: a3fe 2abe 23ed 15be 1b79 2240 7617 e8be
000000a0: e2f7 14c0 4dc4 82bf 39ca c33e f886 343f
000000b0: 5568 90bd 555a dcbd 8256 4b3f b6e7 c0bb
000000c0: 9295 3ac0 6f8e 603e 849e 3c40 e940 f53f
000000d0: b743 803f 0c79 abbe 41cd 2bbf 4f57 1b40
000000e0: 8355 1ebf 396b 04bf 33b7 853f 4865 0bbe
000000f0: 12f8 683c 0df3 9cbf 9012 c33e cb36 083f
00000100: 6546 103f 9dac 59c0 049d 00c0 fe4e 513e
00000110: bfa8 50bf 1bdb 1440 e4b1 0940 ee0a 6d3f
00000120: 4f67 5c3f 7f48 9f3f 2337 9e3f 965f 21c0
00000130: d096 b9bf 119f 6fbe f25d b33f 3c36 9d3f
00000140: 007f 973f 3b04 003f ecda be3e bde5 3c3e
00000150: b78d 583e 72e8 4ac0 43bc 8cbf f46b ff3f
00000160: b1a4 73bf c756 9f3f 6767 1b40 5479 493d
00000170: 8817 ac3e 71fd dbbd c7f7 da3d 8891 b83d
00000180: a760 fa3f c30d 2040 b698 223f 9953 7c3f

net.0.bias f4 [10]
-1.4933361 0.7045992 0.9723315 2.1827464 -0.39589468 0.58037364 0.36826774 0.37539414
0.23234567 -0.28993815
00000000: a325 bfbf 9d60 343f b8ea 783f 1eb2 0b40
00000010: b5b2 cabe 5e93 143f 978d bc3e a933 c03e
00000020: 06ec 6d3e c672 94be

net.2.weight f4 [1, 10]
0.738458 -0.52695423 -0.41108397 -2.0827982 0.57104284 0.1273626 -0.050144874 0.15477878
0.21337402 0.10367299
00000000: 950b 3d3f 79e6 06bf 9979 d2be 914c 05c0
00000010: dd2f 123f 576b 023e b664 4dbd 547e 1e3e
00000020: b87e 5a3e 8152 d43d

exp_avg f4 [10, 10]
0.0022433132 -0.002117201 0.0056126285 -0.0061675943 -0.005997026 0.0020545924 0.014519024 0.008403769
-0.012881936 0.0022187675 0.002058905 0.0021588304 0.0013603293 -0.0010181703 -0.00096854183 -0.002082443
-0.0009898371 -0.002033855 0.001467173 0.000116045296 0.00020889624 0.00013763296 -0.00050472666 0.0022306552
0.002411537 0.0023128323 -0.0035225532 -0.0023220684 0.0049393093 -0.0033841468 0.0010587333 0.01085782
-0.008889552 0.018062806 0.020302814 -0.004238597 -0.03454208 -0.0029759484 0.07149698 -0.024345195
0.0069474303 0.0023489369 0.007559509 -0.009571095 -0.009227643 -0.0027473439 0.008471927 0.0013308967
-0.0049653156 0.0065946495 0.00011888824 -0.0007007338 0.0004144828 -0.0012718631 -0.0012821027 -0.0009841399
0.0012601976 0.0003294237 -0.0007536691 0.00068052654 0.000436389 0.00034176873 0.00032056586 -0.00039470507
-0.0004016537 -0.0001858636 -3.7753347e-05 -0.00015550351 6.986907e-05 7.8048935e-05 -0.00029064948 -0.00034449558
-0.00023908594 0.00039813473 0.0002619397 0.00021494264 0.0004949192 0.0006083169 -0.00032323244 0.0002497838
-0.0018640377 -0.0015358893 -0.00093081145 0.0010389583 0.00096673466 0.0020281458 0.0014491112 0.0015936714
-0.0021828273 0.000964017 -0.0007459992 -0.0012210015 3.9444785e-05 -0.00020032853 -0.00018235459 0.0008130252
0.0006880864 8.790012e-06 -0.0009275721 0.0008364834
00000000: 8d04 133b bdc0 0abb 24ea b73b 8819 cabb
00000010: b382 c4bb 57a6 063b 33e1 6d3c f6af 093c
00000020: c10e 53bc be68 113b b2ee 063b 2a7b 0d3b
00000030: 144d b23a 2074 85ba bee5 7dba 9979 08bb
00000040: 6cbd 81ba 6d4a 05bb 284e c03a 585d f338
00000050: 280b 5b39 9151 1039 a24f 04ba 2f30 123b
00000060: e10a 1e3b e392 173b a3da 66bb d82d 18bb
00000070: eed9 a13b 90c8 5dbb 32c5 8a3a ffe4 313c
00000080: 7ca5 11bc 73f8 933c 1652 a63c eee3 8abb
00000090: ff7b 0dbd 2108 43bb 026d 923d 936f c7bc
000000a0: 45a7 e33b 9ff0 193b c2b5 f73b 15d0 1cbc
000000b0: 8a2f 17bc c80c 34bb d6cd 0a3c 7c71 ae3a
000000c0: 16b4 a2bb ee17 d83b a353 f938 73b1 37ba
000000d0: f14e d939 a5b4 a6ba 3a0c a8ba 41fe 80ba
000000e0: 372d a53a 80b6 ac39 e191 45ba 5d65 323a
000000f0: 24cb e439 6c2f b339 9f11 a839 6bf0 ceb9
00000100: 0c95 d2b9 61e4 42b9 5959 1eb8 a80e 23b9
00000110: ac86 9238 34ae a338 5062 98b9 6a9d b4b9
00000120: 25b3 7ab9 bdbc d039 f454 8939 3a62 6139
00000130: 77bd 013a 7577 1f3a 8677 a9b9 6af5 8239
00000140: ba52 f4ba e54f c9ba b301 74ba a82d 883a
00000150: 776c 7d3a a4ea 043b 1af0 bd3a bde2 d03a
00000160: c40d 0fbb 16b6 7c3a 298f 43ba 030a a0ba
00000170: 8471 2538 480f 52b9 7036 3fb9 3321 553a
00000180: b260 343a d078 1337 4f28 73ba 7347 5b3a

exp_avg_sq f4 [10, 10]
7.903547e-05 4.722983e-05 4.368986e-05 6.441524e-05 6.5734755e-05 2.3883169e-05 5.22556e-05 1.9069372e-05
0.00039944562 4.349899e-05 6.657428e-05 5.7436413e-05 6.114924e-05 8.484626e-05 9.215447e-05 2.8850325e-05
1.6899921e-05 1.0418579e-05 8.611577e-05 2.3943514e-05 3.3499015e-05 2.4270634e-05 3.0132915e-05 5.6729932e-05
6.040764e-05 1.639281e-05 3.7484766e-05 1.0119052e-05 0.00026452655 2.2486323e-05 0.0003779009 0.00030567564
0.00052622444 0.00053205725 0.00052762154 0.00025985154 0.00062302605 0.0002451745 0.0021147823 0.0008291324
0.00011923937 0.000109561 0.00011728506 0.00013665139 0.00013423168 6.741862e-05 9.881172e-05 6.023438e-05
0.0006217168 0.00010602734 6.8446796e-05 5.3380292e-05 8.022111e-05 0.00010130102 0.0001060263 2.5273617e-05
3.324396e-05 2.6209742e-05 0.00029331216 6.933552e-05 2.7362155e-05 2.2335422e-05 2.7381408e-05 5.5521643e-05
5.9680067e-05 7.638521e-06 4.171499e-06 5.1044294e-06 7.579052e-05 1.2213626e-05 7.487782e-05 4.7829963e-05
6.462188e-05 5.9621492e-05 5.925285e-05 1.8159573e-05 1.4337975e-05 1.2221078e-05 0.00018793393 4.898497e-05
4.029061e-05 3.885116e-05 4.430676e-05 7.450561e-05 7.774534e-05 1.6309117e-05 6.9177486e-06 7.2612656e-06
0.00011396592 2.1397904e-05 2.515156e-05 2.884515e-05 2.6361628e-05 4.2286076e-05 4.6190362e-05 1.038914e-05
2.9925328e-05 6.977749e-06 0.00012970943 2.3285913e-05
00000000: d8bf a538 a518 4638 a13f 3738 ab16 8738
00000010: 14db 8938 b758 c837 062d 5b38 2af7 9f37
00000020: af6c d139 af72 3638 cb9d 8b38 e1e7 7038
00000030: 403d 8038 7def b138 0e43 c138 9a03 f237
00000040: 4ec4 8d37 75cb 2e37 0d99 b438 4eda c837
00000050: 4b81 0c38 ca98 cb37 f1c5 fc37 4df1 6d38
00000060: 365e 7d38 4b83 8937 f638 1d38 ffc4 2937
00000070: 27b0 8a39 03a1 bc37 0021 c639 1743 a039
00000080: 53f2 093a c279 0b3a 1550 0a3a af3c 8839
00000090: 9252 233a c48a 8039 2998 0a3b 225a 593a
000000a0: 2610 fa38 1dc4 e538 f0f6 f538 144a 0f39
000000b0: 8bc0 0c39 1963 8d38 2339 cf38 2ca4 7c38
000000c0: b5fa 223a ff5a de38 188b 8f38 a7e4 5f38
000000d0: 613c a838 9271 d438 705a de38 ae02 d437
000000e0: 6e6f 0b38 fedc db37 b1c7 9939 3968 9138
000000f0: c887 e537 f45c bb37 20b1 e537 e9df 6838
00000100: fc50 7a38 3327 0037 e7f8 8b36 b746 ab36
00000110: baf1 9e38 20e9 4c37 b907 9d38 089d 4838
00000120: 9c85 8738 1712 7a38 4386 7838 6355 9837
00000130: 228d 7037 2109 4d37 2110 4539 3675 4d38
00000140: b7fd 2838 1ef4 2238 05d6 3938 e53f 9c38
00000150: 360b a338 90cf 8837 021f e836 cca5 f336
00000160: fd00 ef38 a67f b337 90fc d237 7df8 f137
00000170: 2a23 dd37 545c 3138 86bc 4138 044d 2e37
00000180: 2708 fb37 6822 ea36 9c02 0839 1e56 c337

exp_avg f4 [10]
0.042386986 -0.012518405 -0.014800405 -0.13707593 0.028250657 0.00490832 -0.0012490925 0.0024468452
0.008316077 0.006032687
00000000: fa9d 2d3d ff19 4dbc 667d 72bc a25d 0cbe
00000010: ec6d e73c f9d5 a03b 97b8 a3ba 405b 203b
00000020: 2840 083c d9ad c53b

exp_avg_sq f4 [10]
0.0010575452 0.00052286446 0.0006154498 0.011225203 0.0021545226 0.00133361 0.00032163033 0.0007922854
0.00045547902 0.0005614575
00000000: 549d 8a3a d710 093a 2356 213a eae9 373c
00000010: e432 0d3b 87cc ae3a 7ea0 a839 60b1 4f3a
00000020: 5ccd ee39 c62e 133a

exp_avg f4 [1, 10]
-0.04550598 0.031637564 0.010789565 0.041557893 0.03745305 0.010952085 0.010793124 -0.022880586
-0.00092135667 0.0066170795
00000000: 7a64 3abd 6496 013d b7c6 303c 9c38 2a3d
00000010: 5f68 193d 6070 333c a5d5 303c 1170 bbbc
00000020: 3387 71ba 16d4 d83b

exp_avg_sq f4 [1, 10]
0.006402921 0.0038573812 0.0048434692 0.0048512504 0.0057365866 0.0058822776 0.003671863 0.005729914
0.00497221 0.0041933255
00000000: 98cf d13b 1ecc 7c3b f7b5 9e3b 3df7 9e3b
00000010: faf9 bb3b 1fc0 c03b a4a3 703b 01c2 bb3b
00000020: eced a23b 2a68 893b
