Topic 2.3/Recurrent Neural Network - architectures/lstm/0/checkpoints/epoch=19-step=420-v2.ckpt (torch, 31267 bytes, 15 tensors)

lstm.weight_ih_l0 f4 [80, 1]
-0.11905682 -0.06883391 0.2011266 -0.2174296 -0.108894184 0.22419234 0.045320388 0.15277012
0.077126205 -0.0293472 0.08709365 -0.024271013 -0.07386158 -0.19292423 -0.023544902 0.10018708
-0.07799274 -0.15960984 0.2145892 -0.12452765 -0.06915867 -0.0046340413 -0.07082533 -0.32640237
0.26486394 0.095467664 0.2511638 0.20172651 -0.01781121 0.29856154 0.14552388 -0.29413274
-0.017179487 0.040673073 0.020290082 0.07316107 -0.10185399 -0.29330483 -0.20581271 -0.092166595
0.4550825 -0.2561284 0.019155143 -0.25851396 -0.37415507 0.053928427 0.030843979 0.18170913
-0.29479393 -0.04108526 0.05307235 0.3577509 0.056342218 0.319504 0.3171862 0.16828865
-0.25239086 -0.33833992 -0.26773584 -0.12097698 -0.35153356 -0.022097912 0.26042876 -0.20373727
0.15628979 0.315346 0.34166443 0.19889723 -0.0854384 0.40817207 -0.057768133 -0.15254806
-0.30461046 -0.31960443 -0.29852235 -0.07821888 0.089369066 -0.22335647 -0.107480675 -0.06308187
00000000: 10d4 f3bd cbf8 8cbd 22f4 4d3e dda5 5ebe
00000010: ea03 dfbd ad92 653e dfa1 393d c56f 1c3e
00000020: 58f4 9d3d 8a69 f0bc 285e b23d 01d4 c6bc
00000030: bd44 97bd ee8d 45be 3de1 c0bc e22e cd3d
00000040: a8ba 9fbd c370 23be 45bd 5b3e 5a08 ffbd
00000050: 10a3 8dbd 28d9 97bb df0c 91bd 361e a7be
00000060: 3f9c 873e 8d84 c33d 8b98 803e 6591 4e3e
00000070: d1e8 91bc 0fdd 983e 3604 153e 9198 96be
00000080: ffbb 8cbc cf98 263d 6337 a63c 79d5 953d
00000090: d398 d0bd 0d2c 96be 91c0 52be d7c1 bcbd
000000a0: 9300 e93e 4323 83be 3feb 9c3c f15b 84be
000000b0: 4191 bfbe 0ee4 5c3d 83ac fc3c f511 3a3e
000000c0: 3bef 96be 0549 28bd 6462 593d 202b b73e
000000d0: 19c7 663d 0796 a33e 3b66 a23e dc53 2c3e
000000e0: 6039 81be e43a adbe ac14 89be c7c2 f7bd
000000f0: 35fc b3be ae06 b5bc eb56 853e 81a0 50be
00000100: 6e0a 203e 0875 a13e a4ee ae3e b7ab 4b3e
00000110: 54fa aebd eefb d03e 479e 6cbd 8f35 1cbe
00000120: e7f5 9bbe 31a3 a3be ecd7 98be 3831 a0bd
00000130: 2107 b73d 8fb7 64be d41e dcbd 1131 81bd

lstm.weight_hh_l0 f4 [80, 20]
-0.14162882 0.30807033 -0.38202637 0.2514231 -0.24443457 0.25399533 -0.44806817 -0.14746508
0.070574775 -0.18770207 0.18284121 -0.10142999 0.26441285 0.02970032 -0.015096887 0.02999874
-0.0021122762 0.37705344 -0.013949274 0.19585504 -0.272526 0.017451912 -0.20389605 0.27746633
-0.14899263 -0.109065436 -0.07040543 -0.18097651 0.16241148 -0.1350932 -0.1303163 -0.06576794
0.10495106 -0.23062518 0.03077345 0.075162634 0.27632314 -0.08452262 0.11326191 -0.09383503
0.08446375 0.03502584 0.07600235 0.1212387 -0.024296068 0.07649915 -0.01115479 0.111708015
0.050547533 0.024315951 -0.11536337 0.0255837 0.26544762 0.0930468 0.04931384 -0.09486656
-0.13979068 0.29081672 -0.19285958 0.3392021 -0.2653256 -0.09695408 0.0021196983 -0.079863705
-0.1283473 0.29167542 0.07694698 0.16893753 0.03218455 -0.28077936 0.21699078 -0.11338831
-0.1136763 -0.0355403 -0.22580196 0.11227307 0.24192503 -0.089715585 -0.16293995 0.07260067
-0.1293191 0.2699622 -0.26348746 0.26728678 -0.21807414 0.03201589 -0.26549098 0.24553767
0.24888054 -0.1746683 0.033890124 -0.13556169 0.005150905 -0.34705368 -0.12063465 0.10242597
0.036622517 0.20742084 0.23571251 0.5097693 -0.29022807 0.46254668 -0.02346252 0.022154786
0.1976898 -0.035733573 0.14868243 -0.21566097 0.13898754 0.016590957 0.12703645 -0.053695597
-0.012443607 -0.26329377 -0.40214667 0.057208177 -0.16063471 0.17372729 -0.04880765 0.3000469
0.123940155 0.120962776 -0.122275725 -0.03987238 -0.25391313 0.24947114 -0.10585577 -0.008661372
-0.06360888 -0.20755939 0.24111338 0.053830765 0.12162882 -0.15613477 -0.14747754 0.117856145
-0.24850844 -0.077455014 -0.11797342 -0.02452136 0.014270821 -0.037680104 -0.1589903 0.0057456233
-0.30501384 0.40065917 -0.0530757 0.19926292 -0.07056332 -0.16014184 -0.14506145 -0.055681325
0.18966617 -0.27868944 -0.059768442 0.20473635 0.14314994 0.15024394 -0.061181556 0.08074563
-0.25649914 0.09030913 -0.09736419 0.13439861 -0.1371679 0.25012693 -0.34127396 -0.11916374
0.194844 -0.08623053 0.26550385 -0.3340137 0.051285677 -0.25244752 -0.3263199 -0.1265861
0.08427036 0.22340351 -0.11736074 0.060982045 -0.26061326 0.18807235 -0.109921776 0.009326994
-0.1892884 -0.053394012 -0.30292416 -0.2778193 0.0066808937 -0.050769635 0.075881734 -0.071809806
0.30287436 0.17267163 0.20518343 0.22504595 -0.08138732 0.025581146 -0.2759135 -0.2405442
0.060651604 -0.18332224 0.086880684 0.030310655 -0.23215939 -0.08431354 0.011320707 -0.33094358
-0.29230726 0.025814608 0.10399184 -0.024459032 0.21292622 0.11786374 -0.013673051 0.32992348
-0.07520989 0.027315032 -0.12214177 -0.3510391 -0.012437737 0.087485276 -0.3938553 0.3313847
-0.108876444 0.36451903 -0.3014853 -0.129888 0.111034945 -0.10986298 0.20841457 -0.24640298
0.33655113 -0.15968855 0.02315306 0.12502748 0.29320824 0.30519682 -0.14406759 0.36237907
-0.047493722 -0.3211936 -0.07312233 -0.18515638 -0.16855817 -0.09401656 0.07070349 -0.32562697
-0.1342778 0.0222239 0.2025103 -0.064731345 0.20953631 0.17128293 -0.07737918 0.33302575
00000000: 2507 11be 65bb 9d3e f698 c3be 87ba 803e
00000010: 0e4d 7abe ad0b 823e 3169 e5be 1601 17be
00000020: 8289 903d f934 40be ba3a 3b3e 87ba cfbd
00000030: 1f61 873e 164e f33c ef58 77bc ebbf f53c
00000040: 1d6e 0abb 260d c13e 7f8b 64bc 398e 483e
00000050: 8788 8bbe 50f7 8e3c 20ca 50be 1110 8e3e
00000060: 8691 18be b35d dfbd b930 90bd e851 39be
00000070: 324f 263e df55 0abe a371 05be 57b1 86bd
00000080: 95f0 d63d 0229 6cbe 9a18 fc3c deee 993d
00000090: 3a7a 8d3e 321a adbd dcf5 e73d 952c c0bd
000000a0: 55fb ac3d 4177 0f3d 1fa7 9b3d ff4b f83d
000000b0: 8c08 c7bc 96ab 9c3d 95c2 36bc 2cc7 e43d
000000c0: ee0a 4f3d 3f32 c73c a143 ecbd e894 d13c
000000d0: c0e8 873e 528f be3d 4ffd 493d 6649 c2bd
000000e0: 4a25 0fbe eee5 943e fb7c 45be e6ab ad3e
000000f0: c2d8 87be dc8f c6bd a3ea 0a3b 958f a3bd
00000100: 7a6d 03be 7b56 953e 6196 9d3d f6fd 2c3e
00000110: f2d3 033d 50c2 8fbe d532 5e3e 2138 e8bd
00000120: 1fcf e8bd b592 11bd a138 67be 6cef e53d
00000130: 32bb 773e cebc b7bd bbd9 26be a9af 943d
00000140: 3a6c 04be 7c38 8a3e d4e7 86be d0d9 883e
00000150: d44e 5fbe 1823 033d 6fee 87be 3a6e 7b3e
00000160: 8ada 7e3e 3fdc 32be 5fd0 0a3d afd0 0abe
00000170: ecc8 a83b 05b1 b1be 4d0f f7bd b5c4 d13d
00000180: 7e01 163d 2166 543e 9f5e 713e 3e80 023f
00000190: c698 94be ebd2 ec3e 7934 c0bc f47d b53c
000001a0: 326f 4a3e 5e5d 12bd 3540 183e 3bd6 5cbe
000001b0: c052 0e3e c2e9 873c d815 023e eaef 5bbd
000001c0: 45e0 4bbc 71ce 86be 2be6 cdbe 1f53 6a3d
000001d0: 6d7d 24be 91e5 313e 88ea 47bd bf9f 993e
000001e0: 56d4 fd3d 55bb f73d b26b fabd 3951 23bd
000001f0: e700 82be 5d75 7f3e e9ca d8bd 6de8 0dbc
00000200: 5f45 82bd 738a 54be 6de6 763e a67d 5c3d
00000210: 8818 f93d cbe1 1fbe 5a04 17be 905e f13d
00000220: ff78 7ebe bca0 9ebd 0c9c f1bd 05e1 c8bc
00000230: 29d0 693c 7456 1abd 5ace 22be c845 bc3b
00000240: c62a 9cbe 3323 cd3e e865 59bd 940b 4c3e
00000250: 8083 90bd 39fc 23be fd8a 14be 1a12 64bd
00000260: d937 423e 62b0 8ebe c1cf 74bd 68a6 513e
00000270: e695 123e 8cd9 193e 8399 7abd f75d a53d
00000280: db53 83be fef3 b83d e066 c7bd ca9f 093e
00000290: be75 0cbe a310 803e 76bb aebe 1e0c f4bd
000002a0: 2f85 473e a299 b0bd 1ff0 873e d803 abbe
000002b0: ee10 523d cd40 81be 6713 a7be c99f 01be
000002c0: f095 ac3d e4c3 643e d45a f0bd 4fc8 793d
000002d0: 1a6f 85be 0a96 403e ab1e e1bd 40d0 183c
000002e0: d1d4 41be aeb3 5abd e018 9bbe 553e 8ebe
000002f0: 66eb da3b d2f3 4fbd e267 9b3d 0511 93bd
00000300: 5912 9b3e d5d0 303e 9b1b 523e 7272 663e
00000310: 65ae a6bd 8d8f d13c 8944 8dbe 3851 76be
00000320: d16d 783d d3b8 3bbe 80ee b13d 0d4e f83c
00000330: 31bb 6dbe 94ac acbd 7d7a 393c 7071 a9be
00000340: 4ca9 95be 2879 d33c acf9 d43d 4f5e c8bc
00000350: 5509 5a3e 8b62 f13d ef04 60bc bbeb a83e
00000360: a507 9abd c6c3 df3c 7725 fabd 66bb b3be
00000370: a6c7 4bbc 7b2b b33d 67a7 c9be 41ab a93e
00000380: 9dfa debd 3da2 ba3e 485c 9abe 5c01 05be
00000390: 4a66 e33d d8ff e0bd a16a 553e 1051 7cbe
000003a0: 6e50 ac3e 6585 23be 7cab bd3c 3407 003e
000003b0: 641f 963e c242 9c3e 7486 13be c089 b93e
000003c0: c788 42bd 7d73 a4be 29c1 95bd a299 3dbe
000003d0: 839a 2cbe c18b c0bd fecc 903d 94b8 a6be
000003e0: 1f80 09be e50e b63c dc5e 4f3e de91 84bd
000003f0: b090 563e cb64 2f3e fa78 9ebd 5a82 aa3e

lstm.bias_ih_l0 f4 [80]
0.07357784 0.27586478 -0.06594722 -0.09301596 -0.027075376 0.11452182 0.085155234 0.23093459
0.3589803 0.15696178 0.02208283 0.4063558 -0.08786666 0.11260584 0.31522927 0.05256245
0.24235578 0.15124427 0.254854 -0.0011663559 -0.1298481 0.117216505 0.24884248 -0.17221406
-0.12830985 0.0950717 0.18742295 0.061745368 -0.07775504 0.2634413 -0.043768678 0.19525746
0.09863801 0.09076014 0.025863279 0.16764843 0.3353039 -0.004373011 0.1975066 0.12298284
-0.13122696 0.1326749 -0.21660686 0.1358265 -0.083125494 0.12730533 -0.082242705 0.042484432
-0.065642275 0.039278764 0.09757522 -0.1919797 0.2121747 -0.17923991 -0.09615497 0.11089204
0.23286076 0.068696305 -0.12458536 0.04567497 0.08719273 0.16945253 0.05174828 0.1059052
-0.0291379 0.20824032 0.2347167 -0.03986009 0.25654456 -0.042608984 -0.04285879 0.40752915
-0.20025168 0.09020956 0.2020144 0.24032784 0.052493274 -0.020510565 0.21987924 -0.14408468
00000000: fbaf 963d 263e 8d3e 560f 87bd 277f bebd
00000010: 2ecd ddbc 6a8a ea3d de65 ae3d 1e7a 6c3e
00000020: 44cc b73e 97ba 203e 0de7 b43c de0d d03e
00000030: 6ff3 b3bd e49d e63d bb65 a13e b94b 573d
00000040: 1d2c 783e c7df 1a3e 397c 823e 69e0 98ba
00000050: e6f6 04be 350f f03d 90d0 7e3e e258 30be
00000060: a863 03be f4b4 c23d cdeb 3f3e b6e8 7c3d
00000070: 093e 9fbd c7e1 863e c946 33bd 92f1 473e
00000080: ba02 ca3d 74e0 b93d 3adf d33c 08ac 2b3e
00000090: f4ac ab3e 7a4b 8fbb 2c3f 4a3e 6dde fb3d
000000a0: 5c60 06be eedb 073e 30ce 5dbe 1a16 0b3e
000000b0: b33d aabd 545c 023e dd6e a8bd 2804 2e3d
000000c0: 756f 86bd c5e2 203d 84d5 c73d 5496 44be
000000d0: 5344 593e ab8a 37be e6ec c4bd 5e1b e33d
000000e0: 0d73 6e3e a6b0 8c3d 9c26 ffbd ad15 3b3d
000000f0: 1a92 b23d f784 2d3e 01f6 533d d3e4 d83d
00000100: 9bb2 eebc f33c 553e 9359 703e 5544 23bd
00000110: cf59 833e c286 2ebd b38c 2fbd a9a7 d03e
00000120: c70e 4dbe cabf b83d dddc 4e3e 8018 763e
00000130: 3003 573d c605 a8bc 0628 613e ef8a 13be

lstm.bias_hh_l0 f4 [80]
0.24738738 -0.08202024 0.012496194 0.28648117 -0.05046348 -0.034917515 -0.13029933 0.21982342
0.363605 -0.08300211 0.13124864 0.34763175 -0.18770872 0.22811906 0.22751093 0.08792019
0.27289706 0.0894078 0.14689328 0.17540836 -0.14384334 -0.2627535 0.106280476 0.029992536
-0.007823058 -0.05141332 0.2548161 -0.04487261 -0.07861415 -0.09929319 -0.15421596 0.046177458
0.004726644 0.11023596 0.18915361 0.20091735 0.36625823 -0.14880496 0.15752903 0.17070118
-0.09591967 -0.029757682 -0.19192389 0.040941577 -0.24883719 -0.07559075 -0.24824052 -0.029933166
0.024685735 -0.23317197 -0.08895984 0.14681424 0.025857469 0.04025876 -0.0950982 -0.042902116
-0.17147924 0.20428607 0.02562026 0.109316625 0.35210618 0.26030827 -0.11391954 0.1465075
-0.05142753 0.17214021 -0.09247662 0.20233832 0.015849061 0.17431705 0.17720193 0.33248472
-0.17871651 0.27226794 -0.020292355 -0.07036975 0.28544506 0.13964091 0.09692781 -0.1359728
00000000: 1e53 7d3e 3afa a7bd d6bc 4c3c a9ad 923e
00000010: cbb2 4ebd ab05 0fbd 306d 05be 6419 613e
00000020: 6f2a ba3e 03fd a9bd 0b66 063e cafc b13e
00000030: b736 40be 0b98 693e a0f8 683e 800f b43d
00000040: 2ab9 8b3e 701b b73d 316b 163e 409e 333e
00000050: ab4b 13be a087 86be 94a9 d93d e8b2 f53c
00000060: 492c 00bc c696 52bd 4177 823e 58cc 37bd
00000070: 7500 a1bd 3a5a cbbd caea 1dbe 9324 3d3d
00000080: f7e1 9a3b 64c3 e13d 7cb1 413e 47bd 4d3e
00000090: 3386 bb3e 5460 18be 4a4f 213e 4acc 2e3e
000000a0: 8871 c4bd 62c6 f3bc b287 44be 5bb2 273d
000000b0: 2dcf 7ebe 53cf 9abd c332 7ebe 6636 f5bc
000000c0: bd39 ca3c a2c4 6ebe 9430 b6bd 7956 163e
000000d0: 0bd3 d33c 5fe6 243d d8c2 c2bd 21ba 2fbd
000000e0: 4198 2fbe 5e30 513e 94e1 d13c 65e1 df3d
000000f0: 4347 b43e 2047 853e a64e e9bd 1006 163e
00000100: aca5 52bd 8645 303e 6264 bdbd c731 4f3e
00000110: e4d5 813c 2b80 323e 6c74 353e 703b aa3e
00000120: 7601 37be b466 8b3e 273c a6bc 041e 90bd
00000130: db25 923e 07fe 0e3e 1682 c63d 743c 0bbe

linear.weight f4 [1, 20]
0.21968332 -0.18625493 -0.19590302 -0.11943218 -0.29769063 0.17199333 -0.15221943 0.113534726
-0.4177076 -0.060022496 -0.0014822409 0.27185538 -0.009260836 0.2635078 0.2941238 0.1659434
-0.17143388 -0.29219994 -0.29497504 -0.08752626
00000000: aaf4 603e 9db9 3ebe cd9a 48be dc98 f4bd
00000010: e86a 98be 051f 303e 69df 1bbe e584 e83d
00000020: c5dd d5be 26da 75bd c047 c2ba a130 8b3e
00000030: c3ba 17bc 7fea 863e 6597 963e 11ed 293e
00000040: 5d8c 2fbe 3b9b 95be f806 97be f840 b3bd

exp_avg f4 [80, 1]
0.00014553427 -0.00069934374 0.00070903625 -4.1048967e-05 -0.0014746197 0.0011157894 0.0001343464 -4.6661033e-05
-0.0024078335 -0.00018480365 -0.00072391826 0.00044924486 -0.0010077456 0.00036124254 2.6102462e-05 -0.0023615342
-0.0020090917 -0.0009096694 -0.0022783605 -0.00018686551 0.00043150803 -6.590505e-05 0.0006395053 0.00017744697
-0.001445161 0.0014199873 3.5660614e-05 -0.0012042593 0.00010775562 -0.00026455632 -0.0002467981 0.000119264114
-0.0003667471 -0.00013040379 0.00024011833 -0.0001807889 -0.0015916878 -0.00041451547 0.0010084013 0.00012630604
-0.0046754577 0.00021404489 -0.00025430854 0.0004801236 0.0040806364 0.0022969102 -0.0006144571 0.004951498
0.00046379812 -0.0006781695 0.003956405 -0.010151353 0.0024352442 -0.0021896423 -0.009332963 0.003260822
-0.00083986 0.0009829366 0.00010900699 -0.0002158655 0.001198521 -0.00037635904 -0.0013741982 0.00014245659
-0.00234003 -0.00019559289 -0.001816076 -0.0008626745 -0.0015582838 -0.00025837964 -0.00047227409 0.0004265566
0.00047833307 0.001221542 0.0008983894 -0.0010436446 -0.0008686804 -0.00017614648 -0.0015513494 -0.00010130146
00000000: 8f9a 1839 2a54 37ba 9ede 393a fe2b 2cb8
00000010: 0748 c1ba ae3f 923a 56df 0c39 e7b5 43b8
00000020: becc 1dbb dac7 41b9 55c5 3dba a088 eb39
00000030: 5516 84ba 2765 bd39 9cf6 da37 f8c3 1abb
00000040: f7aa 03bb e176 6eba 8c50 15bb 54f1 43b9
00000050: 073c e239 8136 8ab8 79a4 273a 0f11 3a39
00000060: 8e6b bdba de1e ba3a 4b92 1538 3dd8 9dba
00000070: dcfa e138 26b4 8ab9 ae64 81b9 6f1d fa38
00000080: f647 c0b9 00bd 08b9 46c8 7b39 2792 3db9
00000090: 2ea0 d0ba 5353 d9b9 552c 843a 0571 0439
000000a0: 9534 99bb 3d71 6039 b754 85b9 19b9 fb39
000000b0: dcb6 853b c287 163b 8513 21ba 2d40 a23b
000000c0: ee29 f339 2fc7 31ba bba4 813b dc51 26bc
000000d0: 9e98 1f3b 1a80 0fbb 49e9 18bc 84b3 553b
000000e0: 0d2a 5cba e1d5 803a af9a e438 f459 62b9
000000f0: b117 9d3a 0e52 c5b9 711e b4ba 6660 1539
00000100: 305b 19bb 1118 4db9 6609 eeba 1b25 62ba
00000110: 543f ccba 2177 87b9 8e9b f7b9 75a3 df39
00000120: c7c8 fa39 261c a03a e481 6b3a e7ca 88ba
00000130: 28b8 63ba f6b3 38b9 a656 cbba cf71 d4b8

exp_avg_sq f4 [80, 1]
8.008188e-06 2.6888742e-05 8.5059055e-06 5.698917e-06 1.875943e-05 1.6087754e-06 3.7741243e-06 2.3216605e-06
3.526937e-05 1.875416e-06 2.2720637e-06 1.19291935e-05 2.1912804e-06 1.5913542e-05 1.7952303e-05 1.7654169e-05
3.7421218e-05 4.0087398e-05 2.0745783e-05 4.500822e-06 8.369001e-06 1.210571e-05 9.076003e-06 6.3646844e-06
6.153215e-06 2.56225e-06 4.8367997e-06 2.5881745e-06 2.2200498e-05 9.307932e-07 2.2831787e-06 1.5650357e-05
1.4857893e-06 2.1667827e-05 1.7950164e-05 4.2605857e-06 8.486517e-06 3.5799876e-05 6.3078032e-06 3.7023747e-06
0.00017035533 0.00041009224 0.00012585899 7.5759854e-05 0.0002609275 0.00011292893 0.00015426229 0.00011266158
0.0022590496 4.3476775e-05 8.0983744e-05 0.00060930254 7.418937e-05 0.00053525355 0.00058965635 0.00042391164
0.00037117497 0.00039879553 0.00080920587 0.000107308784 8.745675e-06 3.498038e-05 3.402191e-05 1.1900922e-05
3.40761e-05 3.1143102e-06 2.306753e-05 5.2426394e-06 5.3995154e-05 2.094581e-06 3.413149e-06 2.141572e-05
2.0485882e-06 3.3384014e-05 3.9165934e-05 1.3021524e-05 3.5925685e-05 7.4823845e-05 3.103586e-05 1.3667998e-05
00000000: e85a 0637 228f e137 96b4 0e37 5339 bf36
00000010: 925d 9d37 1aed d735 f646 7d36 d3cd 1b36
00000020: 33ee 1338 ceb6 fb35 c279 1836 7f23 4837
00000030: e90d 1336 127e 8537 4798 9637 0a18 9437
00000040: baf4 1c38 8423 2838 3b07 ae37 c405 9736
00000050: 9668 0c37 a119 4b37 2345 1837 3990 d536
00000060: b777 ce36 1ff3 2b36 cb4b a236 80b0 2d36
00000070: 353b ba37 9fdb 7935 b638 1936 e348 8337
00000080: 556b c735 4ec3 b537 af93 9637 27f6 8e36
00000090: 5061 0e37 d327 1638 9ea7 d336 5076 7836
000000a0: 69a1 3239 a601 d739 04f9 0339 43e1 9e38
000000b0: 19cd 8839 42d4 ec38 78c1 2139 ba44 ec38
000000c0: 900c 143b d55a 3638 d1d5 a938 9ab9 1f3a
000000d0: 1d96 9b38 4250 0c3a 2b93 1a3a 7540 de39
000000e0: 439a c239 6e15 d139 e320 543a f70a e138
000000f0: 63ba 1237 e6b7 1238 bfb2 0e38 12aa 4737
00000100: efec 0e38 71ff 5036 2581 c137 eee9 af36
00000110: db78 6238 a190 0c36 740d 6536 e9a5 b337
00000120: 7a7a 0936 d005 0c38 1a46 2438 0577 5a37
00000130: e9ae 1638 bfea 9c38 802c 0238 9b4f 6537

exp_avg f4 [80, 20]
0.00027426088 -0.00012795303 0.00031811502 -0.00024165008 0.00017269797 -0.00020485981 0.00030005438 -6.66798e-05
-0.0001958106 0.00022908843 -3.7208218e-05 6.488812e-05 3.692164e-05 0.00024422724 0.00010812507 2.1743997e-05
-0.0003675781 -0.00025334337 -6.315058e-05 -0.00023762215 8.225043e-05 1.3657819e-05 -9.736884e-07 -4.0358376e-05
4.8000866e-06 1.5609316e-05 5.8507838e-05 8.733299e-05 -1.5749123e-05 6.379825e-05 -5.761e-05 5.0227172e-05
-5.353245e-06 4.337188e-05 2.8176577e-05 -5.5332737e-05 0.00010025431 -4.4729924e-05 1.0314715e-05 1.19200795e-05
0.0005468183 -0.00029213523 0.00049706147 -0.00061062217 -2.051818e-05 -0.00057998917 0.00036093223 -0.00012118381
-0.00017087195 0.00027847083 -0.00019053332 0.00051010755 -6.641968e-05 0.0004625593 0.0004407374 -0.000112019006
-0.00025091573 -0.0004304787 -4.732013e-05 -0.0004971565 7.287756e-05 1.22512365e-05 0.00013717024 -5.017863e-05
0.00014846153 -5.680793e-05 0.00017416906 1.6902937e-05 -1.9794234e-05 0.00015106925 -5.801169e-05 -5.293042e-05
-1.6257056e-05 6.3597785e-05 -9.669692e-06 -5.5910095e-05 -4.5189547e-05 -7.2575844e-05 5.8767808e-05 -4.595721e-05
2.2295833e-05 -7.132334e-05 0.0005554821 -0.0002839451 0.00022660753 -0.000687117 0.00044920584 -0.00022470456
0.00014460365 0.00036669848 -0.00014703073 -5.0087514e-05 8.43032e-06 2.9327266e-05 2.286712e-05 -0.00013730372
-0.00013261398 -6.0401217e-05 6.6048204e-05 -0.00037945094 0.0008316223 -0.0004126823 0.0005930062 -0.0008469024
-0.0001494767 -0.00074293267 0.00043499918 2.1784263e-05 -0.00019674932 0.00039802043 -0.00036668105 0.00080075336
-0.000252328 0.0006500332 0.00064544706 -0.00025389582 -0.00012048346 -0.0005999264 -4.6879635e-05 -0.00058811414
0.00032256 -0.00016374027 0.00038149563 -0.00038726427 8.484028e-05 -0.0004043709 0.00032719792 -2.6364933e-05
-4.353213e-05 0.00026714703 -0.00014164027 0.00024970932 -6.746686e-05 0.00025425793 0.0002327652 -8.081364e-05
-0.00018798871 -0.00025538754 1.1803705e-05 -0.00030050677 -1.8203425e-05 -3.7448608e-05 0.00016769252 -5.0461582e-05
8.18715e-05 -0.00013792489 0.00013980948 -9.765725e-05 -5.1641597e-05 0.00011325371 9.424415e-06 -8.834586e-05
6.1430736e-05 1.6932623e-05 -5.0175964e-05 3.700523e-05 -0.00021439679 -2.3871027e-05 -6.469093e-05 -0.000109275505
0.00019998934 -2.5676067e-05 0.00025657937 -0.00020590544 6.5471744e-05 -0.00022352628 0.00025778817 -7.189915e-05
-3.3644672e-05 0.0002249015 -0.00017613817 9.6356765e-05 -0.00012894279 0.00019622305 0.00016056211 -0.000215132
0.00024651785 -0.00018883907 0.00011725396 -0.0001843552 7.657906e-05 -2.9994737e-05 0.00014295583 -0.0001159373
6.7774025e-05 -0.00012974901 0.00016198665 1.5126406e-05 1.2751552e-05 0.00014212598 -8.194882e-05 2.827027e-05
-5.3318967e-05 6.253913e-05 5.9007933e-05 -5.939887e-05 3.9863273e-05 -7.108785e-05 3.4660483e-05 -7.106909e-05
-0.00011123514 9.9191486e-05 -0.00011140585 9.474737e-05 -3.5224315e-05 0.00012208526 3.20435e-05 0.00023667008
0.00016189557 0.00012089728 -0.00017263624 -0.000118262 -0.00016828088 -0.00011482898 -7.940364e-05 -0.00018197193
0.00054414774 0.000117604 9.9342295e-05 0.00023175844 0.00018909428 -5.9055907e-05 0.0003343152 -0.00020826198
0.00019212511 -0.00031063793 0.00035393244 5.4936423e-05 2.3253824e-05 0.000343656 -0.0001926316 -3.2452813e-06
-0.00012605879 0.00013874011 3.7828882e-05 -0.00017010102 -5.580011e-05 -0.00014706107 9.114966e-05 -0.00015799087
-0.000115701005 0.00017490755 5.6410627e-06 7.1781455e-05 0.00012653659 7.142359e-06 0.00023320407 0.0003162138
0.00030885253 0.00034546436 -0.00030933123 -0.00021336314 -0.00019610462 -0.00014623645 -0.00016169506 -0.000355049
00000000: acca 8f39 212b 06b9 adc8 a639 7363 7db9
00000010: 4216 3539 a3cf 56b9 9e50 9d39 72d6 8bb8
00000020: 8252 4db9 7537 7039 0510 1cb8 8b14 8838
00000030: 4fdc 1a38 a00b 8039 34c1 e238 e166 b637
00000040: 7fb7 c0b9 2cd3 84b9 b66f 84b8 362a 79b9
00000050: dd7d ac38 e323 6537 aeaf 82b5 7a46 29b8
00000060: 6e10 a136 c0f0 8237 5066 7538 8b26 b738
00000070: fc1c 84b7 6dcb 8538 44a2 71b8 04ab 5238
00000080: 06a0 b3b6 34ea 3538 bd5c ec37 1315 68b8
00000090: 9f3f d238 649c 3bb8 5d0d 2d37 5afc 4737
000000a0: 5b58 0f3a ba29 99b9 3b4d 023a 2912 20ba
000000b0: 751e acb7 6a0a 18ba 813b bd39 1024 feb8
000000c0: 172c 33b9 b9ff 9139 e6c9 47b9 bdb8 053a
000000d0: cb4a 8bb8 a983 f239 c612 e739 bfeb eab8
000000e0: 578d 83b9 e0b1 e1b9 9a79 46b8 9c53 02ba
000000f0: d8d5 9838 a98a 4d37 5bd5 0f39 e576 52b8
00000100: 57ac 1b39 0d45 6eb8 27a1 3639 c8ca 8d37
00000110: cb0b a6b7 5868 1e39 9451 73b8 9b01 5eb8
00000120: c35f 88b7 cd5f 8538 033b 22b7 0281 6ab8
00000130: e889 3db8 dc33 98b8 747d 7638 2ec2 40b8
00000140: f007 bb37 6d93 95b8 c69d 113a 77de 94b9
00000150: 7f9d 6d39 a41f 34ba 6383 eb39 ac9e 6bb9
00000160: bfa0 1739 7041 c039 432c 1ab9 0f15 52b8
00000170: f36f 0d37 d303 f637 c4d2 bf37 30f9 0fb9
00000180: 4b0e 0bb9 5057 7db8 5c83 8a38 0bf1 c6b9
00000190: 3a01 5a3a 485d d8b9 f973 1b3a a802 5eba
000001a0: d9bc 1cb9 5ec1 42ba 9a10 e439 59bd b637
000001b0: 7e4e 4eb9 66ad d039 193f c0b9 a6e9 513a
000001c0: e44a 84b9 fd66 2a3a 3833 293a 521d 85b9
000001d0: 11ac fcb8 6144 1dba a0a0 44b8 ac2b 1aba
000001e0: 451d a939 b2b1 2bb9 7a03 c839 bb09 cbb9
000001f0: 47ec b138 be01 d4b9 c38b ab39 432a ddb7
00000200: 4596 36b8 de0f 8c39 4585 14b9 6beb 8239
00000210: ff7c 8db8 ec4d 8539 6f12 7439 7e7a a9b8
00000220: d61e 45b9 89e5 85b9 8708 4637 568d 9db9
00000230: 8fb3 98b7 2312 1db8 9ed6 2f39 b6a6 53b8
00000240: 6db2 ab38 ee9f 10b9 d299 1239 56cd ccb8
00000250: be99 58b8 9f82 ed38 8e1d 1e37 5346 b9b8
00000260: 60d4 8038 880a 8e37 0874 52b8 1036 1b38
00000270: b3cf 60b9 a43e c8b7 aeaa 87b8 d72a e5b8
00000280: 3bb4 5139 ef62 d7b7 8085 8639 52e8 57b9
00000290: e04d 8938 6162 6ab9 be27 8739 90c8 96b8
000002a0: b11d 0db8 89d3 6b39 bbb1 38b9 2513 ca38
000002b0: d134 07b9 39c1 4d39 905c 2839 0e95 61b9
000002c0: 113f 8139 1a03 46b9 3ee6 f538 794f 41b9
000002d0: 1299 a038 359d fbb7 6ae6 1539 5d23 f3b8
000002e0: e721 8e38 3c0d 08b9 f6da 2939 6bc7 7d37
000002f0: 80ef 5537 a707 1539 f0db abb8 f125 ed37
00000300: cea2 5fb8 7127 8338 497f 7738 0d23 79b8
00000310: dd32 2738 0015 95b8 6960 1138 ed0a 95b8
00000320: e946 e9b8 0605 d038 8fa2 e9b8 1bb3 c638
00000330: d2bd 13b8 0304 0039 7266 0638 a42a 7839
00000340: 83c2 2939 3c8a fd38 b005 35b9 6e03 f8b8
00000350: 8e74 30b9 57d0 f0b8 8185 a6b8 b8cf 3eb9
00000360: 23a5 0e3a 2ba2 f638 fd55 d038 2f04 7339
00000370: 9c47 4639 ccb2 77b8 0747 af39 e660 5ab9
00000380: 3175 4939 1edd a2b9 0290 b939 896b 6638
00000390: 3511 c337 ba2c b439 27fd 49b9 82c9 59b6
000003a0: a62e 04b9 c47a 1139 74aa 1e38 255d 32b9
000003b0: e90a 6ab8 6834 1ab9 9a27 bf38 5aaa 25b9
000003c0: 81a4 f2b8 6367 3739 5c48 bd36 6089 9638
000003d0: e8ae 0439 66a8 ef36 3e88 7439 7fc9 a539
000003e0: 7ced a139 711f b539 bc2d a2b9 3bba 5fb9
000003f0: 6fa1 4db9 0c57 19b9 b08c 29b9 df25 bab9

exp_avg_sq f4 [80, 20]
2.7071073e-07 1.6827059e-07 2.7017566e-07 3.569426e-07 7.68276e-08 1.3816249e-07 2.231178e-07 5.5236924e-08
1.0846059e-07 1.7338704e-07 7.155826e-08 3.1836518e-07 3.0994265e-08 3.3444775e-07 2.032611e-07 8.6671385e-08
4.2606524e-07 3.2100854e-07 8.561854e-08 2.3034008e-07 5.4683056e-07 3.1232145e-07 3.752963e-07 6.567811e-07
7.14586e-08 1.4650523e-07 3.6622305e-07 5.645909e-08 1.6826117e-07 2.2601655e-07 1.2414232e-07 5.9854574e-07
4.908108e-08 6.528141e-07 3.998433e-07 1.2080339e-07 5.983888e-07 6.341776e-07 1.2929283e-07 2.9858992e-07
6.2622394e-07 1.7736625e-07 1.0289942e-06 6.832582e-07 4.68865e-07 4.5053955e-07 1.6483917e-06 2.886647e-07
3.3794404e-07 1.5486271e-06 1.0858304e-06 3.288242e-07 3.951675e-07 5.014927e-07 2.911783e-07 1.0429975e-06
1.8363962e-06 5.1145975e-07 6.6266125e-07 1.9526722e-07 2.1584881e-07 9.5746465e-08 2.0852711e-07 2.504372e-07
5.5069403e-08 8.637614e-08 2.1538412e-07 3.2456086e-08 6.045575e-08 1.505369e-07 8.5294495e-08 1.9335707e-07
3.0790382e-08 2.3298958e-07 1.3778262e-07 7.607217e-08 2.543174e-07 2.3024813e-07 6.410246e-08 1.2651118e-07
3.3867667e-07 1.6654137e-07 8.317515e-07 4.3212825e-07 5.7192955e-07 4.2031985e-07 1.3801408e-06 2.663557e-07
4.2790145e-07 1.3252574e-06 8.8759344e-07 2.85724e-07 3.0173885e-07 2.8367486e-07 1.7298021e-07 8.46542e-07
1.6996336e-06 2.7888984e-07 5.988161e-07 1.6704784e-07 6.359075e-07 6.76722e-08 5.677377e-07 5.46094e-07
2.0757545e-07 4.942727e-07 1.0662536e-06 4.2793852e-07 2.6655735e-07 1.3300578e-06 9.869983e-07 2.633724e-07
4.793149e-07 3.5304788e-07 1.7473204e-07 1.0872976e-06 1.4106778e-06 2.996643e-07 5.7613005e-07 1.1590222e-07
3.7197825e-07 6.096619e-08 1.0876149e-06 4.6232478e-07 5.437621e-07 3.5746717e-07 1.564521e-06 4.9033392e-08
2.0477704e-07 1.2468175e-06 7.154534e-07 1.0497921e-07 2.0788524e-07 2.9280835e-07 1.5088172e-07 5.9439685e-07
1.0556233e-06 3.591011e-07 4.576486e-07 1.516299e-07 3.9203094e-08 2.1187018e-08 7.418402e-08 4.3542677e-08
5.5724062e-08 5.309211e-08 1.4768287e-07 4.8772343e-08 3.8529894e-08 1.7358902e-07 1.1837339e-07 3.8153836e-08
4.5984542e-08 2.2131687e-08 1.8097976e-08 1.3776501e-07 3.1518243e-07 2.2120139e-08 8.274124e-08 3.1096e-08
6.988604e-07 3.2459317e-07 7.679007e-07 8.537034e-07 3.2094553e-07 4.9395254e-07 1.0572412e-06 2.6168703e-07
3.9987782e-07 1.0658125e-06 6.81477e-07 6.715342e-07 2.7981736e-07 7.443575e-07 4.1517757e-07 7.0979996e-07
1.4681834e-06 6.793035e-07 4.6216394e-07 3.4908862e-07 2.2608364e-07 1.7783698e-08 7.2674584e-07 2.9590248e-07
3.4457995e-07 3.011554e-07 9.970395e-07 2.565563e-08 1.138699e-07 8.306338e-07 4.1583968e-07 3.505828e-08
1.2584543e-07 1.6795084e-07 7.469614e-08 3.6805991e-07 5.0051466e-07 2.0275782e-07 2.761398e-07 1.0966152e-07
5.420608e-07 2.9949824e-08 1.4346381e-06 6.426772e-07 6.791523e-07 6.5992486e-07 2.1300607e-06 1.0529673e-07
2.70609e-07 1.9350082e-06 1.0944497e-06 8.447135e-08 3.3771335e-07 3.781226e-07 1.4054308e-07 1.0036593e-06
1.3209053e-06 4.101456e-07 6.471964e-07 2.0240185e-07 2.3082403e-07 1.5840484e-07 2.3977998e-07 3.144702e-07
6.0519646e-08 9.557754e-08 2.3747265e-07 5.9146064e-08 9.024405e-08 1.9547775e-07 9.0371486e-08 2.6754122e-07
3.603288e-08 3.2502535e-07 1.9226385e-07 9.659064e-08 3.2322743e-07 3.1028748e-07 7.369176e-08 1.6860703e-07
2.5015794e-07 2.8591659e-08 8.731456e-07 3.1874464e-07 5.18951e-07 4.8169267e-07 1.3633351e-06 1.0168701e-07
2.4992949e-07 1.3632603e-06 7.082675e-07 5.4559184e-08 2.340783e-07 1.6242969e-07 5.2597677e-08 7.5573877e-07
00000000: 3356 9134 dead 3434 a90c 9134 d1a1 bf34
00000010: 6bfc a433 d159 1434 2792 6f34 a43d 6d33
00000020: d7ea e833 442c 3a34 92ab 9933 c7eb aa34
00000030: 8e1e 0533 268e b334 fc3f 5a34 1920 ba33
00000040: f6bd e434 1457 ac34 4add b733 6653 7734
00000050: e9c9 1235 22ad a734 557c c934 a74d 3035
00000060: c874 9933 0d4f 1d34 509d c434 6d7d 7233
00000070: 47ab 3434 f5ae 7234 fb4b 0534 c0ab 2035
00000080: 38cd 5233 0b3d 2f35 0baa d634 2fb6 0134
00000090: f7a0 2035 5a3c 2a35 bed3 0a34 e34d a034
000000a0: c819 2835 1072 3e34 f91b 8a35 2569 3735
000000b0: 51b8 fb34 afe1 f134 4f3e dd35 c6f9 9a34
000000c0: ad6e b534 6cda cf35 d9bc 9135 4189 b034
000000d0: 6827 d434 519e 0635 3e53 9c34 1ffd 8b35
000000e0: 187a f635 3f4b 0935 bce1 3135 a5aa 5134
000000f0: 12c4 6734 2d9d cd33 7fe7 5f34 d473 8634
00000100: 7385 6c33 c97d b933 5644 6734 d865 0b33
00000110: e6d3 8133 45a3 2134 252b b733 969d 4f34
00000120: 623e 0433 b02b 7a34 66f1 1334 1e5d a333
00000130: 1e89 8834 203a 7734 b3a8 8933 21d7 0734
00000140: 5ed3 b534 8bd2 3234 8745 5f35 41ff e734
00000150: b386 1935 52a8 e134 473d b935 a6ff 8e34
00000160: 54ba e534 7fdf b135 f542 6e35 9c65 9934
00000170: acfe a134 fa4b 9834 70bc 3934 ec3d 6335
00000180: f71e e435 54ba 9534 54be 2035 c35d 3334
00000190: 3bb3 2a35 2f53 9133 a366 1835 4b97 1235
000001a0: e8e1 5e34 29ae 0435 321c 8f35 6cbf e534
000001b0: 5d1b 8f34 7084 b235 0179 8435 a165 8d34
000001c0: 45aa 0035 888a bd34 fa9d 3b34 43ef 9135
000001d0: 8556 bd35 8ce1 a034 5ba7 1a35 ebe5 f833
000001e0: 4db4 c734 84ec 8233 2afa 9135 6f35 f834
000001f0: 0cf7 1135 eae9 bf34 88fc d135 c998 5233
00000200: afe0 5b34 5358 a735 950d 4035 ee70 e133
00000210: 0f37 5f34 4633 9d34 0d02 2234 a48e 1f35
00000220: f1ae 8d35 7bca c034 bfb2 f534 b6cf 2234
00000230: 4260 2833 bffe b532 194f 9f33 ae03 3b33
00000240: 4155 6f33 6407 6433 c292 1e34 c279 5133
00000250: 117c 2533 c963 3a34 7634 fe33 96de 2333
00000260: 8a80 4533 181c be32 df75 9b32 8fec 1334
00000270: 5836 a934 b302 be32 7aaf b133 6a8e 0533
00000280: 5299 3b35 bf43 ae34 bc21 4e35 0d2a 6535
00000290: 6b4e ac34 2998 0435 88e6 8d35 fe7d 8c34
000002a0: caae d634 0a0d 8f35 beee 3635 7b43 3435
000002b0: ce39 9634 dccf 4735 92e5 de34 1589 3e35
000002c0: 660e c535 6259 3635 541f f834 606a bb34
000002d0: 66c1 7234 c4c2 9832 9815 4335 87dc 9e34
000002e0: b5fe b834 7cae a134 04d2 8535 5461 dc32
000002f0: a488 f433 b8f8 5e35 9240 df34 fd92 1633
00000300: 2120 0734 fa55 3434 a368 a033 c599 c534
00000310: 1b5b 0635 a5b5 5934 5d40 9434 0f7f eb33
00000320: 2282 1135 2ea2 0033 ca8d c035 7184 2c35
00000330: fe4e 3635 b125 3135 2af2 0e36 7d1f e233
00000340: 3848 9134 30db 0136 01e5 9235 9e66 b533
00000350: f84e b534 c600 cb34 30e8 1634 79b5 8635
00000360: f649 b135 fb31 dc34 ffba 2d35 cc53 5934
00000370: 6dd8 7734 fe15 2a34 1cbb 8034 75d4 a834
00000380: 07f7 8133 4f40 cd33 fcfb 7e34 c907 7e33
00000390: 31cc c133 84e4 5134 4012 c233 96a2 8f34
000003a0: 92c2 1a33 257f ae34 1671 4e34 446d cf33
000003b0: 0a88 ad34 9695 a634 7940 9e33 590a 3534
000003c0: 724d 8634 b999 f532 1c62 6a35 ee1f ab34
000003d0: 0b4e 0b35 ab4d 0135 d6fb b635 065f da33
000003e0: 0c2e 8634 44f9 b635 c61f 3e35 7554 6a33
000003f0: f456 7b34 5568 2e34 c2e7 6133 f9dd 4a35

exp_avg f4 [80]
-0.00089300796 -2.2609418e-05 -0.0013149509 -0.0003734632 -0.0010829223 -0.0016591375 -0.001069779 -0.00031971038
-0.00066814496 -0.0004088633 0.0001925321 -0.0008413049 -5.43599e-05 -0.0007593906 -0.0008819702 8.7853194e-05
-0.0010791923 -0.0008026541 -0.0002927384 -0.0004312858 -8.911263e-05 0.0007483586 -0.0015751071 0.00013995774
0.00059052586 -0.0025460739 -0.0012949724 -0.00049552956 0.0005402321 -0.00042746196 -0.0003951199 0.000109109234
-0.00045784184 0.00039980267 0.00031297674 -0.00028758438 -0.004502525 0.0006293912 0.00015435288 -0.0008791838
0.0007356003 -0.0006454849 0.001683815 -0.0005059219 0.0011070025 -0.0038643512 0.002898844 0.0006363501
0.0032956288 0.0018866324 -0.0002340947 0.0008813639 -0.00059957075 0.0009754535 0.0018329462 -0.0037481159
-0.006476498 0.0012272836 0.0061536008 -0.00082387606 -0.0008953066 1.599419e-05 -0.002391707 -0.00029674603
-0.0013260528 -0.002086434 -0.0016497686 -0.0010982924 -0.0013414121 -0.000675002 -0.0008810668 -0.0011767916
-0.00049690803 -0.0007428363 -0.0012716004 -0.0006472927 -0.0011366224 -0.00070268597 -0.0011222392 -0.00077933935
00000000: c018 6aba 5ba9 bdb7 6e5a acba 62cd c3b9
00000010: d8f0 8dba 6b77 d9ba d437 8cba cd9e a7b9
00000020: 7326 2fba b45c d6b9 71e2 4939 048b 5cba
00000030: 8000 64b8 d711 47ba 0534 67ba d33d b838
00000040: af73 8dba 3469 52ba af7a 99b9 331e e2b9
00000050: fbe1 bab8 7f2d 443a d373 ceba 9fc1 1239
00000060: 85cd 1a3a 08dc 26bb 10bc a9ba 6de6 01ba
00000070: 5d9e 0d3a f91c e0b9 1828 cfb9 93d1 e438
00000080: 7e0a f0b9 9b9c d139 0717 a439 ecc6 96b9
00000090: eb89 93bb bafd 243a c9d9 2139 0779 66ba
000000a0: 4dd5 403a c235 29ba 75b3 dc3a d89f 04ba
000000b0: d718 913a 0e41 7dbb 88fa 3d3b bbd0 263a
000000c0: 7afb 573b e148 f73a 5177 75b9 550b 673a
000000d0: 832c 1dba 94b5 7f3a 783f f03a f3a2 75bb
000000e0: ce38 d4bb cedc a03a 25a4 c93b 63f9 57ba
000000f0: 02b3 6aba 432b 8637 2fbe 1cbb 9494 9bb9
00000100: f3ce adba 8ebc 08bb 0c3d d8ba 94f4 8fba
00000110: 52d2 afba 9ef2 30ba 64f7 66ba 933e 9aba
00000120: ef42 02ba e6ba 42ba d4ab a6ba 14af 29ba
00000130: b8fa 94ba 7534 38ba 1918 93ba 944c 4cba

exp_avg_sq f4 [80]
4.5390098e-06 8.535468e-06 1.8765073e-05 3.905461e-06 1.41483415e-05 6.1140736e-06 1.8996658e-05 7.1660867e-07
1.2178835e-05 1.0875096e-05 1.8612582e-05 5.0590484e-06 1.023975e-05 6.708574e-06 8.406187e-06 1.6065404e-05
1.4746626e-05 2.5789524e-05 7.5401836e-06 5.034095e-06 3.0703172e-06 9.412961e-06 2.2775894e-05 4.0558925e-06
1.3906492e-05 6.9142593e-06 2.796774e-05 1.1599697e-06 2.270544e-05 1.4345414e-05 2.1774928e-05 6.582661e-06
1.3506593e-05 9.586699e-06 1.1045778e-05 4.4941033e-05 6.334388e-05 2.4116454e-05 2.6752115e-05 7.787072e-06
6.9823145e-05 0.0014052327 0.00023783187 0.00011232205 0.00049114134 0.00028834623 0.000412272 0.0006577695
0.0047944095 0.00032490352 0.000622622 0.0006862616 0.0005937248 0.0004494018 0.00091908453 0.0034938927
0.0063310275 0.0006198561 0.002303223 0.0004984962 4.316553e-06 1.24665585e-05 3.4040502e-05 5.8634055e-06
1.68817e-05 3.7584148e-06 5.1481475e-05 1.5624568e-06 2.6494648e-05 1.684926e-05 3.352823e-05 8.089905e-06
1.4054533e-05 8.936324e-06 1.4143302e-05 3.1890468e-05 3.7732538e-05 3.7737806e-05 1.9592e-05 1.06017e-05
00000000: cc4d 9836 8e33 0f37 b069 9d37 a80b 8336
00000010: aa5e 6d37 7e27 cd36 035b 9f37 f95c 4035
00000020: b353 4c37 2f74 3637 3722 9c37 e5c0 a936
00000030: 64cb 2b37 361a e136 4c08 0d37 31c4 8637
00000040: 4768 7737 9556 d837 af01 fd36 8cea a836
00000050: a60b 4e36 5cec 1d37 dc0e bf37 da17 8836
00000060: ee4f 6937 0901 e836 449c ea37 41b0 9b35
00000070: 9077 be37 15ad 7037 4da9 b637 a1e0 dc36
00000080: 609a 6237 8fd6 2037 4151 3937 117f 3c38
00000090: 7dd7 8438 b14d ca37 bb69 e037 38a5 0237
000000a0: 046e 9238 c92f b83a 8262 7939 718e eb38
000000b0: f0bf 003a 2d2d 9739 3626 d839 2a6e 2c3a
000000c0: 6c1a 9d3b d057 aa39 7537 233a 3de6 333a
000000d0: 32a4 1b3a b09d eb39 b8ee 703a cbf9 643b
000000e0: 8274 cf3b d77d 223a abf1 163b 84ad 023a
000000f0: e8d6 9036 7627 5137 b6c6 0e38 45be c436
00000100: 2d9d 8d37 1339 7c36 d0ed 5738 9bb5 d135
00000110: d340 de37 8357 8d37 aaa0 0c38 e1b9 0737
00000120: c2cb 6b37 38ed 1537 0549 6d37 21c2 0538
00000130: 0143 1e38 a948 1e38 8059 a437 f4dd 3137

exp_avg f4 [80]
-0.00089300796 -2.2609418e-05 -0.0013149509 -0.0003734632 -0.0010829223 -0.0016591375 -0.001069779 -0.00031971038
-0.00066814496 -0.0004088633 0.0001925321 -0.0008413049 -5.43599e-05 -0.0007593906 -0.0008819702 8.7853194e-05
-0.0010791923 -0.0008026541 -0.0002927384 -0.0004312858 -8.911263e-05 0.0007483586 -0.0015751071 0.00013995774
0.00059052586 -0.0025460739 -0.0012949724 -0.00049552956 0.0005402321 -0.00042746196 -0.0003951199 0.000109109234
-0.00045784184 0.00039980267 0.00031297674 -0.00028758438 -0.004502525 0.0006293912 0.00015435288 -0.0008791838
0.0007356003 -0.0006454849 0.001683815 -0.0005059219 0.0011070025 -0.0038643512 0.002898844 0.0006363501
0.0032956288 0.0018866324 -0.0002340947 0.0008813639 -0.00059957075 0.0009754535 0.0018329462 -0.0037481159
-0.006476498 0.0012272836 0.0061536008 -0.00082387606 -0.0008953066 1.599419e-05 -0.002391707 -0.00029674603
-0.0013260528 -0.002086434 -0.0016497686 -0.0010982924 -0.0013414121 -0.000675002 -0.0008810668 -0.0011767916
-0.00049690803 -0.0007428363 -0.0012716004 -0.0006472927 -0.0011366224 -0.00070268597 -0.0011222392 -0.00077933935
00000000: c018 6aba 5ba9 bdb7 6e5a acba 62cd c3b9
00000010: d8f0 8dba 6b77 d9ba d437 8cba cd9e a7b9
00000020: 7326 2fba b45c d6b9 71e2 4939 048b 5cba
00000030: 8000 64b8 d711 47ba 0534 67ba d33d b838
00000040: af73 8dba 3469 52ba af7a 99b9 331e e2b9
00000050: fbe1 bab8 7f2d 443a d373 ceba 9fc1 1239
00000060: 85cd 1a3a 08dc 26bb 10bc a9ba 6de6 01ba
00000070: 5d9e 0d3a f91c e0b9 1828 cfb9 93d1 e438
00000080: 7e0a f0b9 9b9c d139 0717 a439 ecc6 96b9
00000090: eb89 93bb bafd 243a c9d9 2139 0779 66ba
000000a0: 4dd5 403a c235 29ba 75b3 dc3a d89f 04ba
000000b0: d718 913a 0e41 7dbb 88fa 3d3b bbd0 263a
000000c0: 7afb 573b e148 f73a 5177 75b9 550b 673a
000000d0: 832c 1dba 94b5 7f3a 783f f03a f3a2 75bb
000000e0: ce38 d4bb cedc a03a 25a4 c93b 63f9 57ba
000000f0: 02b3 6aba 432b 8637 2fbe 1cbb 9494 9bb9
00000100: f3ce adba 8ebc 08bb 0c3d d8ba 94f4 8fba
00000110: 52d2 afba 9ef2 30ba 64f7 66ba 933e 9aba
00000120: ef42 02ba e6ba 42ba d4ab a6ba 14af 29ba
00000130: b8fa 94ba 7534 38ba 1918 93ba 944c 4cba

exp_avg_sq f4 [80]
4.5390098e-06 8.535468e-06 1.8765073e-05 3.905461e-06 1.41483415e-05 6.1140736e-06 1.8996658e-05 7.1660867e-07
1.2178835e-05 1.0875096e-05 1.8612582e-05 5.0590484e-06 1.023975e-05 6.708574e-06 8.406187e-06 1.6065404e-05
1.4746626e-05 2.5789524e-05 7.5401836e-06 5.034095e-06 3.0703172e-06 9.412961e-06 2.2775894e-05 4.0558925e-06
1.3906492e-05 6.9142593e-06 2.796774e-05 1.1599697e-06 2.270544e-05 1.4345414e-05 2.1774928e-05 6.582661e-06
1.3506593e-05 9.586699e-06 1.1045778e-05 4.4941033e-05 6.334388e-05 2.4116454e-05 2.6752115e-05 7.787072e-06
6.9823145e-05 0.0014052327 0.00023783187 0.00011232205 0.00049114134 0.00028834623 0.000412272 0.0006577695
0.0047944095 0.00032490352 0.000622622 0.0006862616 0.0005937248 0.0004494018 0.00091908453 0.0034938927
0.0063310275 0.0006198561 0.002303223 0.0004984962 4.316553e-06 1.24665585e-05 3.4040502e-05 5.8634055e-06
1.68817e-05 3.7584148e-06 5.1481475e-05 1.5624568e-06 2.6494648e-05 1.684926e-05 3.352823e-05 8.089905e-06
1.4054533e-05 8.936324e-06 1.4143302e-05 3.1890468e-05 3.7732538e-05 3.7737806e-05 1.9592e-05 1.06017e-05
00000000: cc4d 9836 8e33 0f37 b069 9d37 a80b 8336
00000010: aa5e 6d37 7e27 cd36 035b 9f37 f95c 4035
00000020: b353 4c37 2f74 3637 3722 9c37 e5c0 a936
00000030: 64cb 2b37 361a e136 4c08 0d37 31c4 8637
00000040: 4768 7737 9556 d837 af01 fd36 8cea a836
00000050: a60b 4e36 5cec 1d37 dc0e bf37 da17 8836
00000060: ee4f 6937 0901 e836 449c ea37 41b0 9b35
00000070: 9077 be37 15ad 7037 4da9 b637 a1e0 dc36
00000080: 609a 6237 8fd6 2037 4151 3937 117f 3c38
00000090: 7dd7 8438 b14d ca37 bb69 e037 38a5 0237
000000a0: 046e 9238 c92f b83a 8262 7939 718e eb38
000000b0: f0bf 003a 2d2d 9739 3626 d839 2a6e 2c3a
000000c0: 6c1a 9d3b d057 aa39 7537 233a 3de6 333a
000000d0: 32a4 1b3a b09d eb39 b8ee 703a cbf9 643b
000000e0: 8274 cf3b d77d 223a abf1 163b 84ad 023a
000000f0: e8d6 9036 7627 5137 b6c6 0e38 45be c436
00000100: 2d9d 8d37 1339 7c36 d0ed 5738 9bb5 d135
00000110: d340 de37 8357 8d37 aaa0 0c38 e1b9 0737
00000120: c2cb 6b37 38ed 1537 0549 6d37 21c2 0538
00000130: 0143 1e38 a948 1e38 8059 a437 f4dd 3137

exp_avg f4 [1, 20]
-0.0032292847 -0.0028295778 0.013558035 -0.0064726328 -2.0828922e-05 -0.025016598 0.006951554 -0.009873591
0.010427265 0.006969132 -0.0046404838 -0.002856728 -0.00320871 -0.00216549 -0.00045039988 -0.006836613
0.0003924715 0.0019614229 0.003634899 -0.011151835
00000000: 68a2 53bb 7070 39bb 8522 5e3c 6118 d4bb
00000010: c5b9 aeb7 9cef ccbc ddc9 e33b d8c4 21bc
00000020: 1fd7 2a3c 515d e43b 330f 98bb f137 3bbb
00000030: 3949 52bb e5ea 0dbb a623 ecb9 ab05 e0bb
00000040: a2c4 cd39 378b 003b 7c37 6e3b 30b6 36bc

exp_avg_sq f4 [1, 20]
0.00287238 0.0012300218 0.0023033982 0.0029202544 0.0010644012 0.001118611 0.0030088353 0.0011220312
0.0014667657 0.0026949744 0.0019405541 0.0026852528 0.00075029617 0.0028043727 0.001779319 0.0017657005
0.0044217077 0.0027776244 0.0012338953 0.0011002265
00000000: 8a3e 3c3b af38 a13a 9cf4 163b bd61 3f3b
00000010: 6183 8b3a 5b9e 923a e12f 453b 1f11 933a
00000020: 7d40 c03a 2b9e 303b 315a fe3a 11fb 2f3b
00000030: 86af 443a 91c9 373b 0a38 e93a 146f e73a
00000040: f9e3 903b ce08 363b a8ba a13a 7a35 903a
