Topic 2.3/Recurrent Neural Network - architectures/lstm/0/checkpoints/epoch=19-step=320.ckpt (torch, 504611 bytes, 15 tensors)

lstm.weight_ih_l0 f4 [400, 1]
000000 3f 47 3a bd 3a 5c 68 bd d0 e6 63 bd 94 cb a2 bd
       -0.0454781 -0.05672858 -0.05564004 -0.07948986
000010 af 44 fd 3c 4e fd 0c 3e a6 f2 8c 3d 80 2f 2b bd
       0.03091654 0.13768503 0.06882219 -0.041793346
000020 cc ce e2 ba a1 3d ca bd 75 82 f0 bb 02 6f 85 3d
       -0.0017304062 -0.09875036 -0.0073397704 0.06515314
000030 b7 46 7d bb da 9a 9b 3d 9d af 03 bc 31 1c 27 3e
       -0.0038646886 0.07597895 -0.008037475 0.16319348
000040 6b b2 c5 bd 62 45 88 3b e6 85 66 bc ea 11 62 bd
       -0.09653171 0.0041586617 -0.01407001 -0.055192865
000050 49 60 5c bc b6 e7 ee bd 7c 8c 5f bd 16 ac 11 3c
       -0.013450691 -0.11665289 -0.054577336 0.008891126
000060 19 ab 85 bd 96 e4 02 bd 75 e9 1c 3d 2b 9c 1c bc
       -0.06526775 -0.031956278 0.03830858 -0.009558718
000070 46 f6 d7 bd 0c 46 f5 bd b6 91 06 be 93 c9 b9 bd
       -0.1054502 -0.11976251 -0.13141522 -0.0907165
000080 85 dd 91 3d 4e f7 69 bd 13 7a 0c 3c e3 41 0f be
       0.071223296 -0.057120614 0.008574027 -0.13989978
000090 8f c3 cf 3c 42 e8 87 bd a1 52 0f be 60 15 43 3c
       0.025361804 -0.066360965 -0.13996364 0.011906952
0000a0 07 5a 49 3d 9d ee 9d bd 54 8c d7 bd 97 47 c4 bd
       0.049158122 -0.077115275 -0.10524812 -0.09583967
0000b0 61 b8 ac bd 1d 5e 35 3d 6f 79 09 3e c9 45 1e be
       -0.08433605 0.044279207 0.1342523 -0.15456308
0000c0 0d be df bd 70 e2 aa bd 70 24 d4 bd 7e 1d 8b bd
       -0.10924921 -0.08343971 -0.103585124 -0.067927346
0000d0 90 87 34 be e8 97 8b 3c 7a 38 57 bc 2e 7c 2c be
       -0.17629838 0.017040208 -0.013136024 -0.16844246
0000e0 bc cc 53 bd 5e 02 08 be 19 19 3c bb 1d 9d 21 3d
       -0.05170892 -0.13282153 -0.0028701483 0.039456476
0000f0 05 ce d5 bd 75 b3 a7 bd b9 2c 0a be 0a b8 90 3d
       -0.10439686 -0.081885256 -0.13493623 0.07066353
000100 3c c6 a4 bd f5 4f dd bd dc d5 ca 3d c8 99 0f be
       -0.08045623 -0.10806266 0.09904072 -0.14023507
000110 37 58 67 bd 59 4c 1b 3d bb 0c 52 bd 82 bd c8 bc
       -0.056480613 0.037914608 -0.051281672 -0.024504427
000120 5d 90 e9 3c 19 fa 28 be 86 19 01 bd ce 6d 87 3d
       0.02851122 -0.16501655 -0.03151848 0.066127405
000130 a3 a1 05 be bd 4c ec 3c 0f d7 03 be 07 5d d7 bd
       -0.13049941 0.028845185 -0.12875007 -0.105157904
000140 03 f8 f4 3d d3 42 14 3e b9 81 a1 3d 58 d1 34 3e
       0.11961367 0.14478616 0.07886071 0.17657983
000150 59 1e 1c bc e2 8c 85 3a 6b 27 a1 bd 4a 3e de bd
       -0.00952872 0.0010189081 -0.078688465 -0.108517244
000160 9a 8a aa bc fb d3 5e be 4a d7 08 3e a0 71 3a be
       -0.020818044 -0.21760552 0.13363376 -0.18207407
000170 f7 bb dd 3d ba 15 31 be c6 d1 38 3d b5 a0 48 bd
       0.10826867 -0.17293444 0.04512193 -0.048981387
000180 67 1f 40 3d 50 95 64 3d f1 d1 13 3d 75 12 67 3d
       0.046904948 0.055806458 0.036088888 0.056414086
000190 a0 39 c6 3c 98 11 2e bc 53 a6 32 bd 1d 13 bf bd
       0.0241974 -0.010624312 -0.04361565 -0.093298174
0001a0 2a 1f 94 bd 9c 1a 8b bd 9a 8e 6c 3d d4 f9 b5 3c
       -0.072325066 -0.06792185 0.057753183 0.022213854
0001b0 cd 9b 91 3d 2c c7 c6 bc e5 43 c5 bd 22 97 34 3d
       0.07109795 -0.024264894 -0.096320905 0.044089444
0001c0 80 22 2b bc e2 ed 84 bd 3e 10 5b 3d 0a 59 00 bd
       -0.010445237 -0.06490685 0.053482287 -0.031334914
0001d0 94 59 be bc 58 da 58 bc e0 83 aa 3c 15 08 b7 bd
       -0.023236074 -0.013235651 0.020814836 -0.089370884
0001e0 c0 df 23 bc aa 02 17 3d 3e 68 61 3d d2 66 9b bd
       -0.010002077 0.036867775 0.055031054 -0.07587971
0001f0 20 d3 94 bc 5d 92 8b 3d bd b6 41 bd d0 0b 87 3b
       -0.018167078 0.06815026 -0.047293413 0.004121281
000200 b7 b5 50 bd ba 9b 69 3d 10 ef 8b bd d3 3b b0 3d
       -0.050954547 0.057033278 -0.06832707 0.086051606
000210 7a ed 1a 3d f5 b9 84 bd 00 a0 c6 bd e0 84 80 3c
       0.03782413 -0.06480781 -0.09698486 0.01568836
000220 92 79 4b 3d fa 40 6a bd 62 76 44 3d 9d 7a b5 3d
       0.049676485 -0.057190873 0.04796446 0.08861277
000230 40 b9 6d 3c cc 8e f1 bc f9 89 89 3d 00 60 fb b8
       0.014509499 -0.029487036 0.06715769 -0.00011986494
000240 74 cd 8a bd 31 b4 91 3d 4a a6 a4 bd 58 98 ba 3c
       -0.06777468 0.07114447 -0.080395296 0.022777721
000250 53 12 6e bd a0 59 da bb 31 e0 8e 3d 3f 0a ab 3d
       -0.058122944 -0.006663516 0.06976355 0.08351564
000260 ea 00 5e bd 60 06 b9 3b 80 f8 e6 3b 20 9e a5 bb
       -0.05420009 0.005646512 0.0070486665 -0.0050542504
000270 30 e3 28 bd ba 9c a7 bd 43 b7 a0 bd 15 01 8b bd
       -0.041232288 -0.0818419 -0.078474544 -0.06787316
000280 02 2e 0a 3d ec 55 8c bd a0 b3 3c 3b 92 45 0d 3d
       0.033735283 -0.06852326 0.0028793588 0.034490176
000290 5e a9 9e bd b3 c1 66 bd aa b5 4c 3d 98 d6 46 bc
       -0.07747148 -0.05633707 0.049977936 -0.012136124
0002a0 db 32 93 bd 68 3f ba bc 20 23 27 bd 52 22 af bd
       -0.07187434 -0.022735313 -0.040804982 -0.08551468
0002b0 21 6e aa 3d 18 b8 f6 bc f0 f6 26 3c a4 54 ce 3c
       0.08321787 -0.03011708 0.01019071 0.025186844
0002c0 a0 9e 2b bd a0 df c7 bc e2 66 3f 3d 37 06 77 bd
       -0.041899323 -0.024398625 0.046728976 -0.06030866
0002d0 1f 2e b8 3d 0b de 9e bd a8 ec 3c bc 96 33 74 3d
       0.08993172 -0.07757195 -0.011531033 0.05961951
0002e0 b3 c2 c2 3d 40 4a 94 3c 7c 92 03 bd 87 1c c2 3d
       0.09509792 0.018101811 -0.03212212 0.094780974
0002f0 2c c5 02 bd c4 f0 16 bd cb 72 94 3d 57 74 1a bd
       -0.03192632 -0.036850706 0.072484575 -0.037708607
000300 81 84 ac 3d 52 39 10 3d a0 9e a3 3c 11 50 93 3d
       0.084237106 0.035210915 0.0199731 0.07193006
000310 a8 3f b6 3c e2 22 b1 bd 5b 2f 9d 3d ea f7 20 3d
       0.02224715 -0.086492315 0.07675048 0.03929893
000320 8a 3c 69 bd 79 66 34 3e a7 61 01 be 08 20 61 be
       -0.0569425 0.17617215 -0.12634908 -0.21984875
000330 fe d7 0d be 51 b1 5b 3e c0 86 11 be e5 8e 75 bd
       -0.13851926 0.2145436 -0.1421156 -0.059950728
000340 0c 89 57 be c8 c3 57 bc 56 3d 69 3e 78 3f 2a be
       -0.21048373 -0.0131692365 0.22777304 -0.16625774
000350 e4 a6 1c 3e 34 31 49 3e 63 dc 19 3e 02 b5 85 3d
       0.15298039 0.19647676 0.15025477 0.06528665
000360 e1 a8 32 3e 54 f8 98 3d f6 1e 05 3e 87 42 55 be
       0.17447235 0.0746924 0.13000092 -0.2082616
000370 ce eb 09 be a7 5f 4d 3e 93 b7 20 be 09 ec 53 3e
       -0.13468859 0.2005602 -0.15695028 0.20695509
000380 d5 8e 52 3d 25 ad 46 be bd f7 17 3e 5f b5 bb 3d
       0.051405746 -0.19401987 0.14840598 0.09165453
000390 21 33 31 3d 1d 39 3c 3e fe 84 f0 bc 00 ef 50 bd
       0.04326165 0.18381162 -0.02936029 -0.05100918
0003a0 fa da 7f bd f9 5e d1 3d 73 02 02 3e ec c7 0c be
       -0.06246469 0.10223193 0.12696247 -0.13748139
0003b0 e9 f3 c3 bc b6 95 bf 3c 69 54 3c be ba 27 5f 3e
       -0.023920016 0.023386817 -0.18391575 0.21792498
0003c0 0f 2b 3c 3e bb 62 c1 3a 11 7c 63 3e b1 19 74 3c
       0.183758 0.0014754155 0.22215296 0.014898703
0003d0 fe aa 30 be 3f 7f 1d be 3a 2c e6 3b b7 40 e1 bd
       -0.17252728 -0.15380572 0.007024315 -0.109986715
0003e0 27 62 63 3e 9a 44 4b bd 06 41 1d 3e e9 1e d7 bd
       0.22205411 -0.04962597 0.15356836 -0.105039425
0003f0 72 bf f2 bd 22 04 e8 bd c9 46 4a be 14 a6 27 3e
       -0.118529215 -0.11328913 -0.19753565 0.16371948

lstm.weight_hh_l0 f4 [400, 100]
000000 93 7f cc bd 7b b4 8f bd a0 2c ae 3c 7d 53 c8 bd
       -0.0998527 -0.07016846 0.021261513 -0.09781549
000010 57 4f b1 3d d0 98 80 bb b4 99 d0 bc 27 c1 36 bd
       0.08657711 -0.0039244667 -0.025463916 -0.0446178
000020 30 5a 4d bc 75 da 80 bd 49 b6 9e 3d 2d 4a af bd
       -0.012533709 -0.06291667 0.07749612 -0.0855907
000030 bb fb ad bd 71 09 9f 3d bb 94 bf 3d 03 ee 7a bd
       -0.084952794 0.07765473 0.0935454 -0.061262142
000040 13 fa 2f bd e3 2a a7 bd 32 7a 88 bd 20 a6 07 bd
       -0.0429631 -0.08162477 -0.06663932 -0.033117414
000050 30 f6 41 bc f1 9a 80 3d de cb 97 bd d2 9e 69 3d
       -0.011838481 0.06279553 -0.074119315 0.05703623
000060 cb 70 ae 3d 4e 7e 8c bd 71 c9 ab 3d b9 bd bb 3d
       0.08517607 -0.06860028 0.08388031 0.09167046
000070 40 8d e7 bc 2d 5d 7a bd d4 6f bd 3c ae 2f 3c 3d
       -0.028265595 -0.061124016 0.023124613 0.04594391
000080 d7 c0 c9 3d 17 f6 2c bd 2e f4 4c 3d 16 59 a5 bd
       0.098512344 -0.042226877 0.050037555 -0.080736324
000090 b4 a8 16 bd f3 98 52 bd b0 3b 05 bc 55 ee ba 3d
       -0.03678198 -0.051415395 -0.008131906 0.091274895
0000a0 7c 1d 0f bd 33 9d 5b bd 50 92 69 bc e2 5c 68 3d
       -0.034940228 -0.053616714 -0.014256075 0.056729205
0000b0 d8 1c 38 3c ad 98 a7 bd 31 2f a4 3d 6c 1a 84 bd
       0.011237346 -0.081834175 0.080168135 -0.06450352
0000c0 27 57 c2 bd 6a 11 02 bd d2 34 46 3d e9 d3 8e 3d
       -0.09489279 -0.03175489 0.048390217 0.069740124
0000d0 00 68 f5 3a b2 f4 1d 3d b0 fd 3b bd a6 c5 a9 bd
       0.0018723011 0.038563438 -0.045896232 -0.082896516
0000e0 ad 20 8f bd 48 50 c7 3c b3 f5 a2 3d bf c3 b8 bd
       -0.06988654 0.024330273 0.0795702 -0.090217106
0000f0 21 8c a8 3d 52 2a 16 3d e1 41 a7 3d e2 bc 28 3d
       0.082298525 0.036661454 0.08166862 0.041195758
000100 60 85 94 bc 08 45 ee bc 9e e3 6c 3d 22 ba 3b 3d
       -0.018130004 -0.029085651 0.05783426 0.045831807
000110 b1 06 c3 3d 2c db e5 bc 38 26 ae bc bc 55 d4 3c
       0.09522761 -0.02805861 -0.021258458 0.025919788
000120 88 68 97 3c 42 02 b2 bd c3 0a c2 bd 62 f9 36 3d
       0.018482462 -0.08691837 -0.09474709 0.044671424
000130 10 95 8d bd ec 76 83 3c e0 b0 cd 3b 18 b7 38 bc
       -0.06913197 0.016047917 0.0062771887 -0.011274122
000140 62 9f 76 3d f4 76 d1 3c 30 15 0f bd 80 20 fb 3a
       0.060210593 0.025569417 -0.034932315 0.0019159466
000150 d0 6f 96 bd 00 d9 32 3c 42 89 36 3d ae e6 a2 bd
       -0.07345545 0.010915995 0.044564493 -0.07954155
000160 58 82 93 bc cc 06 95 3c da 8c 72 bd ae 55 51 3d
       -0.018006489 0.018191718 -0.059216358 0.0511071
000170 03 9e a7 bd 31 ae 91 3d 95 cb c5 bd 03 ad 4a bd
       -0.08184435 0.071133025 -0.09657971 -0.049481403
000180 51 fb 8f 3d 9f 09 a3 3d f2 3c 87 bd a0 09 61 3b
       0.07030357 0.079608195 -0.06603421 0.0034338012
000190 a6 c8 7c 3d 54 b3 11 bd da e6 86 bd 52 9d cb bd
       0.06171479 -0.03557141 -0.06587 -0.09942116
0001a0 22 6a 38 3d 26 1a 11 3d 00 59 1a bb c0 25 b5 3c
       0.04502309 0.035425328 -0.0023551583 0.022112727
0001b0 92 da 51 3d 55 64 97 3d 7c a1 d8 3c 5f 00 89 3d
       0.051233836 0.07392184 0.02644419 0.06689524
0001c0 be 71 1e 3d 79 67 b9 3d aa d8 03 bd e5 e1 84 3d
       0.03868269 0.09052939 -0.03218905 0.064883985
0001d0 7d 89 6e bd 3c de 0c bd 67 2b 59 bd 02 09 11 3d
       -0.058236588 -0.034391627 -0.053019907 0.03540898
0001e0 88 13 84 3c 56 62 4a 3d 68 35 0c 3c c0 dd 03 bb
       0.016122594 0.049410187 0.008557655 -0.0020121187
0001f0 f3 7e 2d bd e8 b0 0d bc 80 1e 5e ba 03 86 93 3d
       -0.042357396 -0.008648135 -0.0008473173 0.07203295
000200 1e 2f 9b bd ea fa 49 3d 57 5c 36 bd 40 e1 03 3b
       -0.07577346 0.049311556 -0.044521656 0.0020123273
000210 df ac a0 3d 85 1d 88 bd 10 09 15 bd 2a 48 13 bd
       0.078454725 -0.066462554 -0.036385596 -0.035957493
000220 0c c7 94 bc 7a f3 0f 3d 7b da 97 bd 6d 40 bb bd
       -0.01816132 0.035144307 -0.07414719 -0.091431476
000230 c9 14 ac 3d 80 b8 f5 3a 4f e5 af 3d cd 1a 91 3d
       0.08402402 0.0018747002 0.08588659 0.0708519
000240 02 d0 95 bd d5 e0 85 3d a0 9b 1d bb f0 f7 78 bd
       -0.07315065 0.06537024 -0.0024049059 -0.060783327
000250 02 6f 4e 3d f3 ed 57 bd 5a 3e 27 3d 1c e1 8a bd
       0.050398834 -0.05271716 0.040830947 -0.067812175
000260 59 d2 cb 3d 80 3d e1 bc eb ee 99 bd 30 ac 98 bb
       0.0995223 -0.027495146 -0.07516273 -0.004659198
000270 c8 10 9b 3c fb 31 9b 3d f2 43 52 3d 1d b0 99 bd
       0.0189289 0.075778924 0.05133433 -0.07504294
000280 df 29 a5 3d 75 4e a7 bd 20 9d c0 bb cd 9c 5f bd
       0.08064627 -0.08169261 -0.0058781058 -0.054592896
000290 d0 1a e9 3b b8 33 e9 bc 30 ba 77 3c a3 59 c3 3d
       0.007113792 -0.028467044 0.015120074 0.09538581
0002a0 f0 27 36 bc e3 9c 9f bd d6 f5 20 3d b3 67 6b bd
       -0.01111792 -0.07793596 0.039296947 -0.057471942
0002b0 36 97 58 3d 99 bd bf 3d 56 61 1f 3d 2a 74 44 bd
       0.05287858 0.09362335 0.038911186 -0.047962345
0002c0 04 4d 08 bd 48 7f 8b bc 9a 86 9d bd 40 d9 d1 3a
       -0.033276573 -0.017028466 -0.07691689 0.001601018
0002d0 8b 2c a7 bd e7 80 c7 bd db d2 c2 3d 56 25 9b bd
       -0.08162793 -0.09741383 0.09512874 -0.07575481
0002e0 e2 e4 4f 3d 09 a6 c9 3d 84 33 07 bd f3 58 8b 3d
       0.05075539 0.09846122 -0.033008114 0.06804075
0002f0 8d 1c 7a bd 32 6e a3 bd 8a cb 23 bd c3 81 54 bd
       -0.061062384 -0.079800025 -0.03998903 -0.051881563
000300 d8 12 01 bc e8 96 71 3c 71 aa 83 3d e0 09 eb 3b
       -0.007878028 0.0147454515 0.064289935 0.007172808
000310 a2 6a 5c 3d cd 6b 89 3d fe 4d 9a bd 58 90 11 bc
       0.05381263 0.067100145 -0.07534407 -0.008884512
000320 42 a1 58 3d 37 e0 bd 3d 74 1a d4 3c 59 13 c0 3d
       0.052888162 0.09271281 0.02589152 0.0937869
000330 42 cb 06 3d 1a 13 39 bd 68 cf 65 3c b2 2e 84 bd
       0.032908686 -0.045184232 0.0140265 -0.06454219
000340 e0 90 ff bc 68 15 8f bc fa 63 c3 bd 92 b0 3d 3d
       -0.031197011 -0.017466262 -0.095405534 0.04631097
000350 aa 9e 9e bd 68 2e 3b 3c 77 c8 5a bd e1 c7 a1 3d
       -0.077451065 0.011424638 -0.053413834 0.07899452
000360 00 5d 5b bd 66 2a aa bd b0 81 03 3c 9d 53 55 bd
       -0.05355549 -0.08308868 0.008026525 -0.052081693
000370 ac b4 07 bd 68 41 1d bc f4 3d b6 bc 90 3e 0e 3c
       -0.033131287 -0.009598114 -0.022246338 0.008681908
000380 59 96 a8 3d c1 02 8d 3d 32 48 0b 3d 57 f0 ae bd
       0.082318015 0.06885291 0.034004398 -0.08541935
000390 a8 2b 86 bc de f9 99 bd d3 da 70 bd c0 8f 0c bd
       -0.016378239 -0.075183615 -0.058802437 -0.03431678
0003a0 00 fc bf 3b 77 aa 9e 3d ff 79 83 3d 87 8b 5e bd
       0.005858898 0.07747357 0.06419753 -0.054332282
0003b0 84 49 12 bd e3 97 81 3d 7b dc 95 bd 60 5d d8 3b
       -0.03571464 0.06327798 -0.07317444 0.006602928
0003c0 d3 9e c5 3d 80 f3 95 3c 12 75 28 3d 80 fa ed 3a
       0.09649434 0.018304586 0.041127272 0.001815632
0003d0 3b b6 b6 bd 12 4d 50 3d 70 1f 31 bd 3d 50 a7 bd
       -0.089214765 0.05085475 -0.04324287 -0.08169601
0003e0 79 2b 94 3d f2 e4 6e 3d fa 50 2a 3d f7 99 3e bd
       0.07234854 0.058323808 0.04158113 -0.04653355
0003f0 e0 4a 98 bc ca 5b 09 3d 50 42 e0 3b d2 94 1e 3d
       -0.01859039 0.033534802 0.0068438426 0.038716145

lstm.bias_ih_l0 f4 [400]
000000 f1 4c c9 bd 53 48 e3 3d df ff 85 3d f9 d3 e7 3d
       -0.098291285 0.11097779 0.06542944 0.113197275
000010 82 6b 57 3d 72 f4 5f 3e 4e 35 a9 3d ca 71 8a bd
       0.05259276 0.21870592 0.0826212 -0.06759985
000020 b8 e7 76 3d 18 50 34 3d c5 05 67 3e d9 36 ff 3d
       0.060279578 0.044021696 0.22560795 0.12461633
000030 9d 05 6b 3e 65 8e 3a 3d 57 c6 ab 3c 89 51 44 bd
       0.2295136 0.045545954 0.0209686 -0.04792932
000040 73 1c 3c 3e d7 fe 16 3c 48 74 48 3e 78 02 6a 3c
       0.18370228 0.009216032 0.19575608 0.014282815
000050 a1 8a 46 3e 38 9f d2 3d 04 4a 0f 3e ed ac 17 3e
       0.1938882 0.10284275 0.13993078 0.1481206
000060 91 f0 92 3b c4 75 e5 3c d7 72 e8 3d fe c7 98 3d
       0.004484244 0.028010257 0.11350029 0.074600205
000070 91 8a 14 3d 04 e4 f7 3d 2c d9 bb bd f1 d5 09 be
       0.03626496 0.121040374 -0.091722816 -0.13460518
000080 7f 12 e7 3d db da c6 3d 4b 55 9c 3d 47 d1 8f 3d
       0.11282825 0.09709712 0.07633456 0.07022338
000090 6b 87 b4 3c 24 a2 87 bd 3f c0 b2 3c 3c fb 15 3e
       0.022037229 -0.06622723 0.021820186 0.1464662
0000a0 d5 e1 3f 3e 9a 8e 0c bd 87 b0 4f 3e 9c ca aa bd
       0.18738492 -0.034315683 0.20282184 -0.08339426
0000b0 90 ea 90 3d e6 50 b6 3d d5 f6 f5 bd ff e1 0b 3c
       0.07075989 0.08902149 -0.1200997 0.008537768
0000c0 71 bd a1 3d 9a 64 a2 bd e8 a0 00 3e 04 f0 d4 3d
       0.07897461 -0.079293445 0.12561381 0.10397342
0000d0 95 26 6c 3c d0 7e c3 3d e2 54 c7 3c 6e 8d cb 3d
       0.014413496 0.09545672 0.024332467 0.09939085
0000e0 2c 1a 66 3c 7e 48 9f 3b 3a 15 ae 3d 3e 3e 9f 3b
       0.014044326 0.0048609367 0.085001424 0.004859715
0000f0 6a 88 c7 3d 6d 3e 9c 3d 13 45 35 3e 08 e6 08 bd
       0.09742816 0.07629094 0.17702131 -0.0334225
000100 67 b6 55 3e f5 e2 ee 3d 93 71 40 bd 44 27 c1 3d
       0.20870362 0.11664382 -0.046983313 0.094313174
000110 06 19 0a 3c 77 48 44 3e 9f ae 3a 3d 97 27 8c 3d
       0.008428818 0.19168268 0.045576688 0.06843489
000120 7f 71 e2 bd 02 15 50 bd 8c fb 3e 3e 85 06 ce 3d
       -0.11056804 -0.050801285 0.18650645 0.10059837
000130 e5 60 62 3e c4 e7 50 bd b5 41 a6 3d 1e 6e a1 3d
       0.22107275 -0.05100228 0.08118001 0.07882331
000140 55 64 81 3d a6 de f2 3d 12 ee 61 3d 04 ff 83 3d
       0.06317965 0.11858873 0.055158682 0.06445125
000150 11 0f c2 3d 7f 6b 2b 3e 7a 8b 0b bc 4e 2e 18 3e
       0.0947553 0.16740225 -0.0085171405 0.14861414
000160 dc 6c 19 3e cc 88 87 3d 9e f1 8c bd 14 e4 a4 3d
       0.14982933 0.06617889 -0.06882022 0.08051315
000170 48 6c 19 3c 41 6f c3 3d fb 31 c0 3d e1 78 89 bd
       0.009364195 0.095427044 0.09384533 -0.06712509
000180 68 0a 3b 3e 26 9b a8 3d d1 bf b9 3d f9 fb 0d be
       0.18265688 0.08232717 0.09069789 -0.13865651
000190 00 09 66 3a a7 32 47 bd b9 5a bc 3d 5a 09 63 3d
       0.0008775145 -0.04863229 0.091969915 0.05542884
0001a0 04 7f d1 3c b0 76 33 3c 2c 27 ed 3c 61 63 a7 3d
       0.025573261 0.01095359 0.028949343 0.08173252
0001b0 d7 26 c7 bd d1 34 c7 3d 30 56 36 bc 20 fb a6 3c
       -0.09724205 0.09726871 -0.011128947 0.020383418
0001c0 9f 35 9d 3d d0 61 b9 3b 30 6c e3 3b 48 fe 9c 3c
       0.07676243 0.005657412 0.006940387 0.01916422
0001d0 8a 7f 5f bd 18 08 c0 bd b0 cc 0e bd a6 cc 0c 3d
       -0.05456499 -0.09376544 -0.034863174 0.034374855
0001e0 63 25 77 bd e0 6e 88 bc b7 75 cb 3d 68 69 38 3c
       -0.06033839 -0.016654432 0.09934562 0.0112556
0001f0 c2 0b 36 3d d9 3f 9e 3d 70 3a 01 bd f4 e2 83 bd
       0.044444807 0.07727022 -0.03154987 -0.06439772
000200 c0 ec 1e 3c 77 15 bb 3d 36 c9 85 bd 1e a7 2c 3d
       0.0097 0.091349535 -0.065325186 0.042151563
000210 8d 05 b9 3d 67 95 28 bd ed b7 b7 3d a4 2f f4 3c
       0.09034262 -0.041158106 0.08970628 0.029807873
000220 1b f0 99 bd 30 7d a1 bb c0 b8 9e 3c f5 27 8e 3d
       -0.075164996 -0.0049282536 0.019375205 0.06941215
000230 60 c4 6c bb d3 58 56 bd 76 98 97 bd c2 b4 24 3d
       -0.003612779 -0.052330803 -0.074021265 0.040211447
000240 00 a1 1c bc 8a 55 89 bd d0 87 38 bc 39 78 ac 3d
       -0.00955987 -0.067057684 -0.011262849 0.08421368
000250 c3 9c b3 3d bc 70 d6 3c bd 78 97 3d 9d 22 8c bd
       0.08770134 0.026176803 0.07396076 -0.068425395
000260 58 c3 59 3c 42 e9 bf bd bd c5 7d bd 42 e3 33 3d
       0.0132912025 -0.09370662 -0.061956156 0.0439179
000270 b1 09 9d 3d 12 79 80 bd 83 45 3e bd d8 f8 b5 bd
       0.07667864 -0.06273092 -0.04645301 -0.08885354
000280 02 94 ac bd 48 a8 8f 3c 57 92 c9 3d 62 19 61 3d
       -0.08426668 0.017536297 0.09842365 0.054955848
000290 40 88 85 3c 83 dc c1 3d 02 eb 4e 3d c2 f2 43 3d
       0.01630032 0.094658874 0.05051709 0.047838934
0002a0 c0 a4 e5 3a 87 3b 74 bd 91 da 84 3d 3a 5a 48 3d
       0.0017520413 -0.059627082 0.06487001 0.04891417
0002b0 c7 1b ba 3d de 3f a1 bd c0 6c dd ba 68 15 97 bd
       0.09087329 -0.0787351 -0.0016893372 -0.0737713
0002c0 f6 2e 1b 3d 5d ff 88 bd 54 34 d9 bc 10 51 b4 bd
       0.037886582 -0.06689332 -0.02651421 -0.08804524
0002d0 8a e7 3a 3d d0 fc 32 bc a4 9a d1 3c 10 b5 c4 bd
       0.04563097 -0.010924533 0.025586434 -0.096048474
0002e0 68 5b 36 3c 26 be 6e 3d c0 42 5d 3b 39 eb b1 3d
       0.011130191 0.05828681 0.003376171 0.08687443
0002f0 fb b1 b1 bd b9 86 93 3d 95 b8 9d bd 65 84 92 3d
       -0.08676525 0.07203431 -0.07701222 0.071541585
000300 7d 6f 94 3d 68 b4 49 3c 94 6f f5 3c 00 8e 54 3b
       0.07247827 0.012311079 0.029960431 0.0032433271
000310 60 6a 96 bc d1 e9 85 3d 98 ff 38 bc 0e 3b 6c 3d
       -0.01836127 0.065387376 -0.011291407 0.057673506
000320 5f 21 f1 3b 92 30 5e 3d f8 0e c9 3d 75 f4 19 bd
       0.0073587145 0.05424554 0.09817308 -0.037586648
000330 2a 1a a8 bd bd d0 8d 3d a9 a7 ca bd 8d c5 b6 bd
       -0.082081154 0.06924579 -0.0989526 -0.089243986
000340 cf 4b 28 3c c1 ea e7 3c 0e 67 92 3d 83 5b c4 bd
       0.01027198 0.028310182 0.07148562 -0.09587767
000350 41 bc 0d 3d b5 95 a0 bc 6c a1 b1 3d 6a c4 7b 3d
       0.03460336 -0.019602636 0.08673367 0.061466612
000360 52 0f b9 3c 6b c9 12 bd df c1 92 bd fb 6b bc 3d
       0.022590313 -0.03583662 -0.07165884 0.09200283
000370 31 61 58 bd 9d 7f cb bc 2d 86 10 bd 21 be 11 bd
       -0.052827064 -0.024841124 -0.03528421 -0.03558171
000380 1f 89 8b 3b aa ef 77 3d ee 87 ba 3d bf 0a 95 3d
       0.0042582895 0.060531296 0.09107958 0.0727744
000390 de 69 9c 3c ce 7c 8d bc 4c 95 30 bd 89 53 ad bb
       0.01909345 -0.017271426 -0.04311113 -0.005289499
0003a0 76 bd 8c 3c 27 5e 9b bc 9f 86 36 bb 4c 7d b7 3d
       0.017180186 -0.018965794 -0.0027851237 0.08959445
0003b0 aa 5e f5 3c f7 55 91 3c 97 bc 8a 3b 6d 4c 2d 3d
       0.029952366 0.017741187 0.0042339074 0.042309213
0003c0 a5 10 a8 3d 01 d6 d3 3d 7f 4c b9 3c 8b 8f 17 3d
       0.082063 0.103435524 0.022619484 0.037002128
0003d0 b1 ab a8 3d f5 26 d2 bc b6 b3 93 bd 32 be a4 ba
       0.082358725 -0.025653342 -0.072120115 -0.001256889
0003e0 24 66 8d bd 3b d6 c7 3d c1 76 6c bd fd 9a aa bc
       -0.069042474 0.09757658 -0.05773044 -0.020825857
0003f0 8c 64 70 bc c2 c2 a8 bc b6 ae 4b bd 78 51 b9 ba
       -0.01467241 -0.02060068 -0.049727164 -0.001413866

lstm.bias_hh_l0 f4 [400]
000000 fd 8d 19 3d 16 78 1b 3e 8e cd e9 3d 76 8c 01 3e
       0.037488926 0.15182528 0.114161596 0.12651238
000010 b5 b2 c6 3d 55 16 b5 3d b6 aa 13 3e 6b f4 24 3d
       0.097020544 0.0884215 0.1442059 0.040272158
000020 e5 ae 22 3e bf 2a 7e 3d 26 21 c9 3d 92 2f 40 3e
       0.1588703 0.062052485 0.09820776 0.18768147
000030 89 0a 67 3e 0b 75 8e 3d 4e c7 32 3e 48 29 95 3d
       0.22562613 0.06955918 0.17458841 0.072832644
000040 2f a1 e0 3d a8 43 95 3c 3e 2f 23 3e d9 23 7d 3d
       0.10968243 0.018220738 0.1593599 0.061801765
000050 97 ec ed 3d 6d 84 ad 3d 15 88 24 3e 0f 60 17 3e
       0.116173916 0.08472524 0.16067536 0.14782737
000060 87 71 91 bd 74 2e 80 3d 41 39 e7 3d d7 18 cf 3d
       -0.07101732 0.0625886 0.11290217 0.1011216
000070 3a 2b 47 3b c1 f6 aa 3d 41 80 3c bd f6 da 38 bb
       0.0030390755 0.08347846 -0.04602075 -0.0028206683
000080 f9 df 74 3d 8d a5 00 3e d8 a6 c7 3d 7b e7 cf 3d
       0.05978391 0.12563153 0.0974862 0.10151573
000090 63 61 8f bb fe 40 ef bc a2 53 0d 3d fc 53 80 3e
       -0.004375623 -0.029205795 0.034503587 0.25064075
0000a0 02 31 46 3d 49 1c a4 3a 54 f5 bf 3d 93 05 8e bd
       0.04838658 0.0012520637 0.093729645 -0.06934657
0000b0 ea 7d 71 3d d4 01 57 3d ea ef d6 bd 0f 23 82 3d
       0.05895797 0.052491978 -0.10494979 0.06354343
0000c0 6f a3 61 3d 77 8a 04 bd 65 c8 e3 3d ec 3b 4a bd
       0.055087503 -0.032358613 0.111222066 -0.049373552
0000d0 9a 89 f0 3d c1 c6 d0 3c 42 5a 0b 3e dc ef e2 3d
       0.117449954 0.025485398 0.1360865 0.11080906
0000e0 ff 82 26 3e c2 2d e5 3d 65 f0 00 3e 14 64 ec 3d
       0.16260909 0.11190368 0.12591703 0.11542526
0000f0 56 98 55 3e 26 7d 87 3d 96 12 c7 3d e6 69 57 bd
       0.20858893 0.06615667 0.09720342 -0.052591227
000100 93 a4 39 3e fe c0 16 3e b2 eb b0 3d 0c 03 f2 3d
       0.18129186 0.14722058 0.08638705 0.118169874
000110 47 3c 45 3d 89 3b 15 3e 7a b1 cc 3d 9b 8a 33 3e
       0.048153188 0.14573492 0.099947885 0.17533343
000120 0b 88 4b bc 4d fc 2f 3d 83 67 9d 3d 8c 6c a6 3c
       -0.012422572 0.042965222 0.07685759 0.020315431
000130 50 df 16 3e 4d 52 db ba d0 19 bc 3d 7e 6d 94 3d
       0.14733624 -0.0016732902 0.09184611 0.072474465
000140 d2 f1 1c 3e 39 d7 f0 3c 89 dd 7e 3d a7 1d 71 3c
       0.15326622 0.029399501 0.06222299 0.014716542
000150 7e 74 26 3e dd f4 31 3e f4 9a f6 3c e5 36 2b 3e
       0.16255376 0.17378564 0.030103184 0.1672016
000160 7d 55 e9 3c fd d6 c8 3d 7b 1c 59 3d 57 47 d1 3c
       0.028483147 0.09806631 0.053005677 0.025546713
000170 0f d3 ee bb be 7a c3 3d 13 1c 75 bd cf 5b 27 3b
       -0.0072883437 0.095448956 -0.059841227 0.00255369
000180 c4 0e 74 3d 5c b1 85 3d 79 39 6e 3e 75 3a 27 bd
       0.059584394 0.06527969 0.23264112 -0.040827233
000190 0c b5 84 3c 4e d6 01 3d b2 aa 43 3d 74 b5 8a 3c
       0.016199611 0.031698518 0.04777021 0.016932227
0001a0 58 38 7c 3c 68 ca 41 3c fa 78 79 bd 80 8d 2f 3a
       0.015394293 0.011828043 -0.060906388 0.00066968054
0001b0 1f 02 b9 bd 44 2c 0e bd 46 f1 54 3d e0 a2 95 bb
       -0.09033608 -0.034710184 0.05198791 -0.0045665354
0001c0 70 ec 06 bd 2d e6 96 3d c7 d0 be 3d 34 5c c0 3c
       -0.032940328 0.07368121 0.09317165 0.023481466
0001d0 c3 0b 92 3d c4 90 df 3c a0 65 c1 bc 97 c4 8b 3d
       0.071311496 0.02729071 -0.023608029 0.06824606
0001e0 c3 35 ac bd 48 13 a7 3c d2 cf 88 bd f3 b3 58 bd
       -0.08408692 0.020394936 -0.066802636 -0.052905988
0001f0 20 cb 5d bd 2e 56 6b 3d 80 85 6f bd 48 32 c4 3c
       -0.054148793 0.057455234 -0.058476925 0.023949757
000200 02 c6 a8 bd b0 dd 92 bd 22 5b 51 3d 38 8a c3 bc
       -0.08240892 -0.0717119 0.0511123 -0.023869619
000210 b2 b1 6a 3d 0c c6 a0 3c 0c 36 d2 bc d6 c8 28 3d
       0.05729837 0.019625686 -0.025660537 0.041207157
000220 30 b6 9d 3b 7a 7b 6a 3d 5e 0b 24 3d e6 c0 1f 3d
       0.004812978 0.057246663 0.040049903 0.03900232
000230 d5 a6 92 3d e0 02 ff bc fc 05 f6 3c 39 74 be 3d
       0.07160727 -0.0311293 0.03003215 0.092995115
000240 2a 9a 5f 3d 16 ab 22 3d 60 e7 a4 bb 17 b7 c2 3d
       0.05459038 0.03971394 -0.005032465 0.09507578
000250 47 17 83 3d 92 cc 54 3d 90 ba 77 bc b6 1e 47 3d
       0.06400924 0.051952906 -0.015120164 0.048613273
000260 e5 f8 b3 3d 99 39 85 3d ec bc 8f 3c 80 55 9b 3c
       0.08787707 0.065051265 0.01754614 0.018961668
000270 be 73 65 3d 6f 15 87 3d de a4 7a 3d 86 ee 2b 3d
       0.056018583 0.06595885 0.061192386 0.04197552
000280 f2 d9 5c 3d ac 16 ca 3c e2 4a 76 3d 82 ed 57 3d
       0.053918786 0.024669014 0.060130008 0.05271674
000290 d0 8a 81 bd 60 5d 31 bb 30 63 fa 3b 92 1d 7c 3d
       -0.063253045 -0.0027063712 0.0076412186 0.061551638
0002a0 8e 44 6c 3d 00 dd 20 bd 55 ec b6 3d 28 77 38 bc
       0.057682566 -0.039273262 0.089317955 -0.011258878
0002b0 0f 67 c3 3d a5 43 ab bd c0 64 b8 bc 3d e0 39 bd
       0.09541141 -0.083625115 -0.022508979 -0.045379866
0002c0 0d 7e 2d bd ed 41 99 bd 1f 39 b1 3d e0 78 ed bb
       -0.04235654 -0.074832775 0.08653473 -0.0072470754
0002d0 58 22 83 3c d8 7b 4c 3c 2c 74 d5 bc c0 f0 44 bd
       0.016007587 0.0124806985 -0.026056372 -0.04808116
0002e0 00 36 2e bd fb 35 ad 3d 48 64 8f bc 1a 58 1a 3d
       -0.042531967 0.084575616 -0.017503873 0.037681676
0002f0 e0 af 5a bd e0 79 c5 bb bd ea a4 3d 60 bd e1 3b
       -0.053390384 -0.0060264915 0.08052585 0.0068890303
000300 ad 2e b2 bd 58 fb bc bd 98 b3 9a 3c 28 ce 56 bc
       -0.08700309 -0.092276275 0.018884465 -0.013110675
000310 40 36 6b 3c 7d 81 55 bd 40 35 3e bc 95 27 ba 3d
       0.014356196 -0.052125443 -0.0116093755 0.09089581
000320 c1 c5 a9 bc 2b 06 b8 bc 40 08 97 3d b7 c1 06 3d
       -0.02072418 -0.022463879 0.073746204 0.032899585
000330 02 ca 93 3d 2f 2b a7 3d d5 27 5e bc 7d e8 45 bd
       0.07216264 0.081625335 -0.013559301 -0.04831742
000340 e2 57 7b bd e1 00 9c 3c b6 92 9e 3c 1f 8d bf 3c
       -0.06136311 0.019043388 0.019357067 0.023382721
000350 f2 75 1d bd fd 92 d1 3d dd 5f bd 3c d9 9b e8 3c
       -0.03844256 0.10233114 0.023117 0.028394626
000360 7e fe 33 bd 78 2e 63 bd 58 cd af 3d 62 b8 bc 3c
       -0.043943875 -0.055464238 0.08584088 0.02303714
000370 67 a0 e1 3c 96 af 6b 3d 6e a2 27 bc f0 98 85 bd
       0.027542306 0.0575405 -0.010231597 -0.06523311
000380 12 08 d4 3c 56 be 75 bd fd 2e 6f 3c 6f 44 b3 3d
       0.025882754 -0.05999597 0.014598605 0.08753287
000390 4b e1 09 3d 09 e9 40 3d 06 8f b1 3d 19 60 bc bc
       0.03366212 0.04709724 0.08669858 -0.022995042
0003a0 5a 80 d9 bd 3d c0 41 bd a3 73 d7 3b 3b 5c 97 bd
       -0.10620184 -0.047302473 0.0065750643 -0.073906384
0003b0 41 d0 05 bc c0 b1 a7 3d 27 71 79 3d 91 4e 5c 3d
       -0.008167327 0.081882 0.060898926 0.053785864
0003c0 75 51 07 3d 07 c8 2c 3c e1 ff aa bc 8f e1 8a 3d
       0.033036668 0.010545737 -0.020873966 0.06781303
0003d0 5b 21 fc 3c cf c5 87 bd 7f 71 ef 3c cb 81 0c 3d
       0.030777624 -0.06629526 0.029228924 0.034303468
0003e0 71 ee 09 3d ad 72 ca 3d 2a 23 12 bd 50 c3 95 bd
       0.03367466 0.09885154 -0.035678066 -0.073126435
0003f0 76 de 0c 3d 2b 35 72 bd 74 4a bf bb 55 99 65 bc
       0.034391843 -0.059132736 -0.005837733 -0.014013608

linear.weight f4 [1, 100]
000000 31 cb 05 bd 6b 3b 63 3e 2a db 1e bd a1 57 30 be
       -0.03266448 0.22190635 -0.03878323 -0.17220928
000010 cd bd 52 be d0 99 d6 3d 86 a3 1f be 47 e1 a4 bc
       -0.20580216 0.10478556 -0.15589723 -0.020126952
000020 dc 21 46 be 39 08 67 bc 74 f2 f8 3d 3d ea 43 be
       -0.19348854 -0.0141010815 0.12155619 -0.19132324
000030 6c d8 43 3e 4e 2a 40 3e a7 9f 33 3e 39 9e f3 3d
       0.19125527 0.18766138 0.17541371 0.11895413
000040 dd 75 38 3e 5c be 9c 3c 97 ca 40 3e 26 f5 af bd
       0.18013711 0.01913374 0.18827282 -0.0859168
000050 70 92 c1 bd 1b 8f 1a 3e d1 6c 1f be f2 99 39 3e
       -0.09451759 0.15093653 -0.15568854 0.18125132
000060 f3 62 2b 3d 44 e9 c3 bd 2e 0c f3 3d 0b c2 92 3d
       0.041842412 -0.09565976 0.118675575 0.07165917
000070 6e 01 c1 3c b0 0b 23 3e 26 ac 66 bd 5a 9e 8f bc
       0.023560252 0.15922427 -0.056316517 -0.017531563
000080 1f 89 5f bd 3f 0c ed 3d 30 9b 75 3d a7 83 2e be
       -0.05457413 0.115746014 0.05996245 -0.17042409
000090 cb c5 08 3d b8 db 57 bc bf f5 c0 bd cd 03 f2 3d
       0.033391755 -0.013174944 -0.09421872 0.11817131
0000a0 c3 73 53 3e 59 26 08 bd 6a 68 2f 3e 39 c0 ec bb
       0.20649628 -0.033239696 0.17129675 -0.007225063
0000b0 18 8a ec bd 43 6f 4e be dd 85 e3 bc 7b 75 f5 bd
       -0.11549777 -0.2015963 -0.027773792 -0.11985298
0000c0 52 28 1f 3e d1 da 9a bd 1c 7b 4a 3d 09 51 47 bd
       0.15542725 -0.07561267 0.049433812 -0.048661266
0000d0 08 81 13 be d6 3b 15 be 8d 7c d0 bd 74 99 27 3e
       -0.1440469 -0.14573607 -0.10180006 0.16367131
0000e0 a1 a5 1d be aa 3f cb bd d5 f9 2c be 9b 89 10 3e
       -0.15395214 -0.09924252 -0.16892178 0.14114992
0000f0 71 ab 43 be 1b ae 6b 3e 73 3a 38 3e 0c 1b 8a bd
       -0.19108368 0.23015635 0.17991047 -0.0674344
000100 a1 5b ac 3d 38 7b 0b be 7c 08 84 3d d8 73 0a 3e
       0.08415914 -0.13621223 0.06446931 0.13520753
000110 ea 9b 03 3d a5 8f 14 be 83 77 32 be 12 1c 2c be
       0.032131113 -0.14507921 -0.17428403 -0.16807583
000120 ce fe 24 3d dc 2e a0 3d 0a de 5d be f1 72 6e bd
       0.040282063 0.07821438 -0.21666732 -0.058215085
000130 18 ab 59 3e 8f c9 ec bc 98 e5 10 3e 8e e3 42 be
       0.21256673 -0.028904704 0.14150083 -0.19032118
000140 8d 10 8e bd b5 3d ca bd f5 1a f9 3d 7f e6 ea bd
       -0.069367506 -0.09875051 0.12163345 -0.11469745
000150 cc 3c 2b 3e 9c c0 15 be 6f c6 31 bd ba d5 cf bd
       0.16722411 -0.14624256 -0.04340213 -0.10148187
000160 d1 36 e6 bd 3c b6 b3 bc 0b 7e 98 bd 39 5c db 3d
       -0.11240924 -0.021937482 -0.07445916 0.107109495
000170 9c 23 f7 bd 66 a1 18 3e fb 62 1b bd 31 a9 b5 ba
       -0.12067339 0.14905319 -0.037936192 -0.0013859627
000180 67 61 d4 3d 60 3a ae bd 9b 9b 21 be 37 e1 d7 3b
       0.103701405 -0.08507228 -0.15782015 0.006588127

exp_avg f4 [400, 1]
000000 9b d4 e5 b7 26 18 3b ba 5b 1d 29 b9 8f 41 28 ba
       -2.739793e-05 -0.0007137082 -0.00016128032 -0.00064184604
000010 da 30 31 ba da 0a a6 b9 54 ab 5c b9 6e 5e 02 36
       -0.00067592936 -0.00031670072 -0.0002104466 1.9426475e-06
000020 6b 0d 4a ba e9 81 29 b7 10 b4 fb b9 41 c1 0b ba
       -0.0007707688 -1.0103432e-05 -0.00048008608 -0.0005331226
000030 63 86 2b ba 3b 60 07 ba df 1c b2 b9 99 45 4d b8
       -0.00065431575 -0.0005164181 -0.00033972316 -4.8940627e-05
000040 25 87 21 ba e5 7c 46 b8 b9 63 ea b9 8f 99 f2 b9
       -0.00061618007 -4.7323196e-05 -0.00044706257 -0.00046272247
000050 81 ee 5b b9 78 0e 15 ba 12 d1 d7 b9 0c 46 59 ba
       -0.00020974317 -0.0005686055 -0.00041163765 -0.0008288331
000060 bf b7 0e b8 0d 22 cb b9 9a 9b 76 b9 a0 19 9c b7
       -3.4026565e-05 -0.00038744547 -0.00023518354 -1.8608582e-05
000070 7d 52 25 b7 92 0a 13 ba 8d ca 7e b8 66 c9 5c b7
       -9.853972e-06 -0.000560918 -6.074696e-05 -1.3159914e-05
000080 aa b4 19 b7 91 41 c3 b9 6d 2f 16 b9 72 db ef b9
       -9.161575e-06 -0.0003724215 -0.00014322782 -0.00045749132
000090 dc ea a4 37 81 0e b2 b6 93 b8 d1 b9 e4 e5 be b9
       1.9659688e-05 -5.306502e-06 -0.00040001105 -0.00036410906
0000a0 3a 9f dc b9 bd e7 0f b8 82 88 14 ba bb 59 93 b6
       -0.00042080303 -3.430968e-05 -0.0005666093 -4.3913874e-06
0000b0 ca 2c 01 ba e4 24 d7 b9 8e 72 44 37 e3 46 9b b9
       -0.00049276336 -0.0004103548 1.1709182e-05 -0.00029616719
0000c0 59 13 37 ba 91 1b 55 b9 ba f8 41 b9 d2 05 80 b8
       -0.0006983779 -0.00020323532 -0.00018498572 -6.1046e-05
0000d0 10 c6 a5 b9 56 1f 4e b9 43 39 c1 b9 27 34 da b9
       -0.0003161882 -0.00019657364 -0.00036854492 -0.00041619057
0000e0 51 f3 0e b9 ea f2 c9 b9 52 65 8c b9 b5 46 1f b9
       -0.00013632818 -0.00038518693 -0.0002677837 -0.00015189762
0000f0 49 8f e4 b9 cb eb 12 ba a8 9a f0 b9 7a 2e 31 b7
       -0.00043594305 -0.0005604594 -0.00045891595 -1.0560843e-05
000100 d1 24 92 b9 5b 2d b1 b9 89 f2 c1 b6 c3 27 f4 b9
       -0.0002787472 -0.00033793863 -5.780083e-06 -0.0004656893
000110 fd 1f 93 b8 e1 b1 22 ba a1 49 15 ba 42 01 19 ba
       -7.0154645e-05 -0.00062063156 -0.00056948705 -0.0005836674
000120 6e 89 58 38 28 39 62 b9 c6 b3 2a ba 5b 88 d9 b8
       5.1626404e-05 -0.00021574332 -0.00065117737 -0.000103727645
000130 45 93 fd b9 7f e4 a1 b7 b9 07 cd b9 f7 86 eb b9
       -0.00048365645 -1.9299097e-05 -0.000391064 -0.0004492325
000140 2c 6e 33 b9 3b a8 39 b9 13 62 5f b9 6c 04 ee b8
       -0.00017111812 -0.00017705646 -0.00021303473 -0.00011349548
000150 6a eb 3d ba 5d 41 b0 b9 12 d4 8d b7 51 4e c8 b9
       -0.0007244857 -0.00033618035 -1.6907263e-05 -0.00038205323
000160 c7 0f 3b b9 5f 3c 76 b8 08 58 0b 38 9f 55 f2 b9
       -0.00017839587 -5.8707195e-05 3.3222168e-05 -0.0004622163
000170 f9 b4 c6 b8 1b 38 f3 b9 06 80 03 b8 1d b9 45 b6
       -9.4750845e-05 -0.00046390374 -3.1352065e-05 -2.9463038e-06
000180 3b 32 77 b9 e4 06 59 b8 48 e6 14 ba 21 f9 8f 35
       -0.00023574468 -5.174325e-05 -0.00056800665 1.0726836e-06
000190 00 00 00 00 00 00 00 00 00 00 00 00 00 00 00 00
       0.0 0.0 0.0 0.0
0001a0 00 00 00 00 00 00 00 00 00 00 00 00 00 00 00 00
       0.0 0.0 0.0 0.0
0001b0 00 00 00 00 00 00 00 00 00 00 00 00 00 00 00 00
       0.0 0.0 0.0 0.0
0001c0 00 00 00 00 00 00 00 00 00 00 00 00 00 00 00 00
       0.0 0.0 0.0 0.0
0001d0 00 00 00 00 00 00 00 00 00 00 00 00 00 00 00 00
       0.0 0.0 0.0 0.0
0001e0 00 00 00 00 00 00 00 00 00 00 00 00 00 00 00 00
       0.0 0.0 0.0 0.0
0001f0 00 00 00 00 00 00 00 00 00 00 00 00 00 00 00 00
       0.0 0.0 0.0 0.0
000200 00 00 00 00 00 00 00 00 00 00 00 00 00 00 00 00
       0.0 0.0 0.0 0.0
000210 00 00 00 00 00 00 00 00 00 00 00 00 00 00 00 00
       0.0 0.0 0.0 0.0
000220 00 00 00 00 00 00 00 00 00 00 00 00 00 00 00 00
       0.0 0.0 0.0 0.0
000230 00 00 00 00 00 00 00 00 00 00 00 00 00 00 00 00
       0.0 0.0 0.0 0.0
000240 00 00 00 00 00 00 00 00 00 00 00 00 00 00 00 00
       0.0 0.0 0.0 0.0
000250 00 00 00 00 00 00 00 00 00 00 00 00 00 00 00 00
       0.0 0.0 0.0 0.0
000260 00 00 00 00 00 00 00 00 00 00 00 00 00 00 00 00
       0.0 0.0 0.0 0.0
000270 00 00 00 00 00 00 00 00 00 00 00 00 00 00 00 00
       0.0 0.0 0.0 0.0
000280 00 00 00 00 00 00 00 00 00 00 00 00 00 00 00 00
       0.0 0.0 0.0 0.0
000290 00 00 00 00 00 00 00 00 00 00 00 00 00 00 00 00
       0.0 0.0 0.0 0.0
0002a0 00 00 00 00 00 00 00 00 00 00 00 00 00 00 00 00
       0.0 0.0 0.0 0.0
0002b0 00 00 00 00 00 00 00 00 00 00 00 00 00 00 00 00
       0.0 0.0 0.0 0.0
0002c0 00 00 00 00 00 00 00 00 00 00 00 00 00 00 00 00
       0.0 0.0 0.0 0.0
0002d0 00 00 00 00 00 00 00 00 00 00 00 00 00 00 00 00
       0.0 0.0 0.0 0.0
0002e0 00 00 00 00 00 00 00 00 00 00 00 00 00 00 00 00
       0.0 0.0 0.0 0.0
0002f0 00 00 00 00 00 00 00 00 00 00 00 00 00 00 00 00
       0.0 0.0 0.0 0.0
000300 00 00 00 00 00 00 00 00 00 00 00 00 00 00 00 00
       0.0 0.0 0.0 0.0
000310 00 00 00 00 00 00 00 00 00 00 00 00 00 00 00 00
       0.0 0.0 0.0 0.0
000320 61 2d 0c ba e3 d2 82 3b 86 b3 2f ba 03 44 26 bb
       -0.0005347338 0.003992425 -0.00067024713 -0.0025370128
000330 5d d7 80 bb d8 7b b2 3a 3b 15 1f bb 0e 28 bd b9
       -0.0039319233 0.001361723 -0.002427413 -0.00036078732
000340 97 47 44 bb 47 89 a4 b9 1e d5 fd 3a ec db 53 bb
       -0.0029949897 -0.00031382797 0.0019365882 -0.0032327129
000350 70 87 82 3b 80 c6 20 3b 43 3c 54 3b 6e ee e7 3a
       0.0039834306 0.0024532378 0.0032384552 0.0017694959
000360 48 7e 58 3b 69 a4 b7 39 43 64 7c 3b 40 d0 97 ba
       0.0033034254 0.00035026975 0.003851191 -0.0011582449
000370 f0 70 e9 ba d7 b4 30 3b 72 0f 4a bb 5b 37 14 3b
       -0.0017810147 0.0026963258 -0.003083196 0.0022616002
000380 20 7c 5c 3a 5f 2a bf ba 6e 6c 06 3b cc b5 a9 3a
       0.000841083 -0.0014584771 0.0020511406 0.0012947856
000390 56 e6 02 3a 22 04 4c 3b 13 1a 95 ba 11 3b aa b9
       0.0004993429 0.0031130393 -0.0011375569 -0.00032468935
0003a0 52 ad 5b ba 46 6f 2c 3b 79 eb 88 3a d9 e8 67 bb
       -0.0008380014 0.0026311441 0.0010446153 -0.003538659
0003b0 a4 a0 15 3a bf 51 79 b9 a0 0e cc ba 2c e1 e4 3a
       0.0005707836 -0.00023776943 -0.0015568323 0.0017462126
0003c0 ae a0 40 3b d9 48 2c ba 96 ec 1b 3b fb 3b 03 b9
       0.0029392648 -0.00065721344 0.002379214 -0.00012515478
0003d0 09 c7 ee ba 5c 4c 50 bb 8b 85 b2 b9 8b 08 28 bb
       -0.0018217276 -0.0031783795 -0.00034050303 -0.0025639858
0003e0 b4 58 12 3b ee 9e ab ba ef 3c 68 3a ad ea 81 ba
       0.0022330703 -0.0013093629 0.00088591775 -0.0009911858
0003f0 56 61 44 bb e1 f0 26 bb cf 31 cf ba 94 46 41 3b
       -0.0029965243 -0.0025473165 -0.0015807691 0.002949153

exp_avg_sq f4 [400, 1]
000000 41 68 f4 31 b8 fc 29 36 41 c2 f6 33 e5 2f 37 36
       7.113187e-09 2.5330064e-06 1.1490602e-07 2.7297003e-06
000010 02 3f ec 35 94 ba ed 34 8d 4d 15 35 b9 18 cb 31
       1.7601708e-06 4.4280443e-07 5.5619677e-07 5.9108882e-09
000020 1f 3c 3b 36 8b 89 1b 31 8f 87 7c 35 f7 e5 b7 35
       2.7900167e-06 2.2633653e-09 9.407458e-07 1.3701491e-06
000030 dd ff f3 35 dc ab 02 36 45 9f 72 35 f1 20 d7 33
       1.8179377e-06 1.9471545e-06 9.0383793e-07 1.001771e-07
000040 f9 db 0d 36 82 43 be 32 1e 42 8a 35 e8 f6 80 35
       2.1138678e-06 2.214961e-08 1.0301044e-06 9.608602e-07
000050 3f d9 63 34 c1 b9 c1 35 b0 56 63 35 fa 2f 88 36
       2.1220056e-07 1.4433682e-06 8.4690237e-07 4.058701e-06
000060 9a c3 cd 31 21 7f 1a 35 10 a2 a9 34 83 4c c4 33
       5.9885226e-09 5.755447e-07 3.159662e-07 9.1408786e-08
000070 cd 49 95 31 fc db c2 35 45 42 98 32 99 36 70 32
       4.344861e-09 1.451815e-06 1.7725265e-08 1.3982253e-08
000080 5a 0b 68 32 7d 13 13 35 4c 2f c3 33 ab db 9c 35
       1.3506758e-08 5.4790127e-07 9.088998e-08 1.1686838e-06
000090 77 8e a4 33 69 cf 94 32 62 90 38 35 b6 5e 34 35
       7.662759e-08 1.7323787e-08 6.8755446e-07 6.719305e-07
0000a0 ad c5 f6 35 a0 ad 36 33 61 d5 16 36 9e b2 2b 32
       1.838596e-06 4.2533088e-08 2.2475945e-06 9.994123e-09
0000b0 30 65 be 35 c3 f5 9f 35 88 c5 00 33 c0 87 db 34
       1.4185553e-06 1.1917949e-06 2.9981976e-08 4.08907e-07
0000c0 74 19 30 36 62 5c fe 34 a2 d3 18 34 4d b1 d4 32
       2.624086e-06 4.7378404e-07 1.4233095e-07 2.4760675e-08
0000d0 aa 7b 12 35 90 43 a2 34 c6 b9 01 35 0d 3f ac 35
       5.4569193e-07 3.022401e-07 4.832658e-07 1.2833349e-06
0000e0 5d f7 9b 34 4a 1a 8a 35 bc f9 2c 35 3a 1d 93 34
       2.905098e-07 1.0289452e-06 6.4438404e-07 2.740215e-07
0000f0 c6 a4 a1 35 f5 6d c4 35 1c 1c f2 35 be 67 32 33
       1.204339e-06 1.463514e-06 1.8038586e-06 4.1538208e-08
000100 ce 89 d9 34 3f 49 04 35 85 0e 4a 33 03 b0 b4 35
       4.0519666e-07 4.928042e-07 4.7044995e-08 1.3462271e-06
000110 ba 70 11 33 be ef d2 35 86 7a b2 35 54 93 ac 35
       3.3862968e-08 1.5715993e-06 1.3297692e-06 1.2857877e-06
000120 63 a9 0d 34 57 ab 8d 34 2c 19 0c 36 d9 c9 3d 33
       1.3193271e-07 2.6387963e-07 2.0876278e-06 4.418857e-08
000130 94 21 00 36 51 b8 64 33 6d 68 6b 35 c0 92 c1 35
       1.9093031e-06 5.325302e-08 8.769628e-07 1.442233e-06
000140 a9 2a f1 33 40 98 2a 34 2f 09 f6 34 2f fc 80 34
       1.1230197e-07 1.5887872e-07 4.5827753e-07 2.4025346e-07
000150 f0 c9 22 36 31 f8 29 35 8c 98 f4 31 dd 5b 7c 35
       2.4257424e-06 6.331857e-07 7.118677e-09 9.4010994e-07
000160 1b 29 86 34 ba 21 84 32 8b 22 1b 34 29 59 b6 35
       2.4989353e-07 1.538216e-08 1.4448067e-07 1.3586006e-06
000170 ac 30 d1 33 26 78 da 35 53 bb b5 31 84 08 8b 32
       9.741174e-08 1.6277233e-06 5.2890896e-09 1.6185602e-08
000180 b8 84 90 34 38 82 6a 33 6c 90 f8 35 71 79 20 32
       2.6918656e-07 5.4600804e-08 1.8519472e-06 9.340838e-09
000190 00 00 00 00 00 00 00 00 00 00 00 00 00 00 00 00
       0.0 0.0 0.0 0.0
0001a0 00 00 00 00 00 00 00 00 00 00 00 00 00 00 00 00
       0.0 0.0 0.0 0.0
0001b0 00 00 00 00 00 00 00 00 00 00 00 00 00 00 00 00
       0.0 0.0 0.0 0.0
0001c0 00 00 00 00 00 00 00 00 00 00 00 00 00 00 00 00
       0.0 0.0 0.0 0.0
0001d0 00 00 00 00 00 00 00 00 00 00 00 00 00 00 00 00
       0.0 0.0 0.0 0.0
0001e0 00 00 00 00 00 00 00 00 00 00 00 00 00 00 00 00
       0.0 0.0 0.0 0.0
0001f0 00 00 00 00 00 00 00 00 00 00 00 00 00 00 00 00
       0.0 0.0 0.0 0.0
000200 00 00 00 00 00 00 00 00 00 00 00 00 00 00 00 00
       0.0 0.0 0.0 0.0
000210 00 00 00 00 00 00 00 00 00 00 00 00 00 00 00 00
       0.0 0.0 0.0 0.0
000220 00 00 00 00 00 00 00 00 00 00 00 00 00 00 00 00
       0.0 0.0 0.0 0.0
000230 00 00 00 00 00 00 00 00 00 00 00 00 00 00 00 00
       0.0 0.0 0.0 0.0
000240 00 00 00 00 00 00 00 00 00 00 00 00 00 00 00 00
       0.0 0.0 0.0 0.0
000250 00 00 00 00 00 00 00 00 00 00 00 00 00 00 00 00
       0.0 0.0 0.0 0.0
000260 00 00 00 00 00 00 00 00 00 00 00 00 00 00 00 00
       0.0 0.0 0.0 0.0
000270 00 00 00 00 00 00 00 00 00 00 00 00 00 00 00 00
       0.0 0.0 0.0 0.0
000280 00 00 00 00 00 00 00 00 00 00 00 00 00 00 00 00
       0.0 0.0 0.0 0.0
000290 00 00 00 00 00 00 00 00 00 00 00 00 00 00 00 00
       0.0 0.0 0.0 0.0
0002a0 00 00 00 00 00 00 00 00 00 00 00 00 00 00 00 00
       0.0 0.0 0.0 0.0
0002b0 00 00 00 00 00 00 00 00 00 00 00 00 00 00 00 00
       0.0 0.0 0.0 0.0
0002c0 00 00 00 00 00 00 00 00 00 00 00 00 00 00 00 00
       0.0 0.0 0.0 0.0
0002d0 00 00 00 00 00 00 00 00 00 00 00 00 00 00 00 00
       0.0 0.0 0.0 0.0
0002e0 00 00 00 00 00 00 00 00 00 00 00 00 00 00 00 00
       0.0 0.0 0.0 0.0
0002f0 00 00 00 00 00 00 00 00 00 00 00 00 00 00 00 00
       0.0 0.0 0.0 0.0
000300 00 00 00 00 00 00 00 00 00 00 00 00 00 00 00 00
       0.0 0.0 0.0 0.0
000310 00 00 00 00 00 00 00 00 00 00 00 00 00 00 00 00
       0.0 0.0 0.0 0.0
000320 15 28 84 36 18 16 86 39 9c 69 97 36 75 85 15 39
       3.9385727e-06 0.00025574933 4.5124452e-06 0.00014259464
000330 af ef 4f 39 c7 be 0b 38 09 d2 d8 38 51 69 0b 36
       0.00019830347 3.3317858e-05 0.00010338805 2.0773916e-06
000340 05 fa 36 39 89 9c a5 36 4d cf 75 38 ae 26 35 39
       0.00017450012 4.9356063e-06 5.8605616e-05 0.00017275914
000350 d6 ec 6e 39 59 96 0f 39 b3 88 2a 39 37 b6 78 38
       0.00022785677 0.00013693552 0.00016263388 5.929751e-05
000360 c4 3b 38 39 05 84 18 36 fd 5e 3c 39 a5 72 b9 37
       0.00017569872 2.272661e-06 0.00017964463 2.2107104e-05
000370 8a 76 fb 37 7e 21 cf 38 c7 d3 eb 38 a0 77 11 39
       2.997673e-05 9.8767676e-05 0.0001124512 0.00013872841
000380 3d a9 c7 36 42 2d d7 37 7b f3 5c 38 3d f5 c6 37
       5.950364e-06 2.5651072e-05 5.2678846e-05 2.3717637e-05
000390 67 10 ab 36 aa 37 02 39 7a 3f a3 37 46 39 c7 36
       5.0981066e-06 0.00012418503 1.9460673e-05 5.9373297e-06
0003a0 af 82 1e 37 b4 e8 9e 38 44 d8 32 37 ba 72 1b 39
       9.447961e-06 7.5773714e-05 1.065998e-05 0.00014824691
0003b0 2e cc f8 37 6c 27 19 37 ae 28 eb 37 23 27 52 38
       2.9658982e-05 9.128689e-06 2.8033126e-05 5.010435e-05
0003c0 c9 41 53 39 d2 88 91 37 cb ff 03 39 fc af 94 36
       0.00020147035 1.7349059e-05 0.00012588424 4.431231e-06
0003d0 4b 90 6e 38 a5 98 34 39 5e e3 27 37 36 64 80 38
       5.6878005e-05 0.00017223002 1.0006914e-05 6.1221814e-05
0003e0 27 a1 d1 38 ef f9 0d 38 42 50 00 37 09 7f 05 37
       9.9959136e-05 3.384979e-05 7.648081e-06 7.956995e-06
0003f0 d5 cc b8 38 0a e8 af 38 c1 f3 f2 37 03 ba 04 39
       8.811957e-05 8.387871e-05 2.8962155e-05 0.00012657796

exp_avg f4 [400, 100]
000000 00 00 00 00 00 00 00 00 00 00 00 00 00 00 00 00
       0.0 0.0 0.0 0.0
000010 00 00 00 00 00 00 00 00 00 00 00 00 00 00 00 00
       0.0 0.0 0.0 0.0
000020 00 00 00 00 00 00 00 00 00 00 00 00 00 00 00 00
       0.0 0.0 0.0 0.0
000030 00 00 00 00 00 00 00 00 00 00 00 00 00 00 00 00
       0.0 0.0 0.0 0.0
000040 00 00 00 00 00 00 00 00 00 00 00 00 00 00 00 00
       0.0 0.0 0.0 0.0
000050 00 00 00 00 00 00 00 00 00 00 00 00 00 00 00 00
       0.0 0.0 0.0 0.0
000060 00 00 00 00 00 00 00 00 00 00 00 00 00 00 00 00
       0.0 0.0 0.0 0.0
000070 00 00 00 00 00 00 00 00 00 00 00 00 00 00 00 00
       0.0 0.0 0.0 0.0
000080 00 00 00 00 00 00 00 00 00 00 00 00 00 00 00 00
       0.0 0.0 0.0 0.0
000090 00 00 00 00 00 00 00 00 00 00 00 00 00 00 00 00
       0.0 0.0 0.0 0.0
0000a0 00 00 00 00 00 00 00 00 00 00 00 00 00 00 00 00
       0.0 0.0 0.0 0.0
0000b0 00 00 00 00 00 00 00 00 00 00 00 00 00 00 00 00
       0.0 0.0 0.0 0.0
0000c0 00 00 00 00 00 00 00 00 00 00 00 00 00 00 00 00
       0.0 0.0 0.0 0.0
0000d0 00 00 00 00 00 00 00 00 00 00 00 00 00 00 00 00
       0.0 0.0 0.0 0.0
0000e0 00 00 00 00 00 00 00 00 00 00 00 00 00 00 00 00
       0.0 0.0 0.0 0.0
0000f0 00 00 00 00 00 00 00 00 00 00 00 00 00 00 00 00
       0.0 0.0 0.0 0.0
000100 00 00 00 00 00 00 00 00 00 00 00 00 00 00 00 00
       0.0 0.0 0.0 0.0
000110 00 00 00 00 00 00 00 00 00 00 00 00 00 00 00 00
       0.0 0.0 0.0 0.0
000120 00 00 00 00 00 00 00 00 00 00 00 00 00 00 00 00
       0.0 0.0 0.0 0.0
000130 00 00 00 00 00 00 00 00 00 00 00 00 00 00 00 00
       0.0 0.0 0.0 0.0
000140 00 00 00 00 00 00 00 00 00 00 00 00 00 00 00 00
       0.0 0.0 0.0 0.0
000150 00 00 00 00 00 00 00 00 00 00 00 00 00 00 00 00
       0.0 0.0 0.0 0.0
000160 00 00 00 00 00 00 00 00 00 00 00 00 00 00 00 00
       0.0 0.0 0.0 0.0
000170 00 00 00 00 00 00 00 00 00 00 00 00 00 00 00 00
       0.0 0.0 0.0 0.0
000180 00 00 00 00 00 00 00 00 00 00 00 00 00 00 00 00
       0.0 0.0 0.0 0.0
000190 00 00 00 00 00 00 00 00 00 00 00 00 00 00 00 00
       0.0 0.0 0.0 0.0
0001a0 00 00 00 00 00 00 00 00 00 00 00 00 00 00 00 00
       0.0 0.0 0.0 0.0
0001b0 00 00 00 00 00 00 00 00 00 00 00 00 00 00 00 00
       0.0 0.0 0.0 0.0
0001c0 00 00 00 00 00 00 00 00 00 00 00 00 00 00 00 00
       0.0 0.0 0.0 0.0
0001d0 00 00 00 00 00 00 00 00 00 00 00 00 00 00 00 00
       0.0 0.0 0.0 0.0
0001e0 00 00 00 00 00 00 00 00 00 00 00 00 00 00 00 00
       0.0 0.0 0.0 0.0
0001f0 00 00 00 00 00 00 00 00 00 00 00 00 00 00 00 00
       0.0 0.0 0.0 0.0
000200 00 00 00 00 00 00 00 00 00 00 00 00 00 00 00 00
       0.0 0.0 0.0 0.0
000210 00 00 00 00 00 00 00 00 00 00 00 00 00 00 00 00
       0.0 0.0 0.0 0.0
000220 00 00 00 00 00 00 00 00 00 00 00 00 00 00 00 00
       0.0 0.0 0.0 0.0
000230 00 00 00 00 00 00 00 00 00 00 00 00 00 00 00 00
       0.0 0.0 0.0 0.0
000240 00 00 00 00 00 00 00 00 00 00 00 00 00 00 00 00
       0.0 0.0 0.0 0.0
000250 00 00 00 00 00 00 00 00 00 00 00 00 00 00 00 00
       0.0 0.0 0.0 0.0
000260 00 00 00 00 00 00 00 00 00 00 00 00 00 00 00 00
       0.0 0.0 0.0 0.0
000270 00 00 00 00 00 00 00 00 00 00 00 00 00 00 00 00
       0.0 0.0 0.0 0.0
000280 00 00 00 00 00 00 00 00 00 00 00 00 00 00 00 00
       0.0 0.0 0.0 0.0
000290 00 00 00 00 00 00 00 00 00 00 00 00 00 00 00 00
       0.0 0.0 0.0 0.0
0002a0 00 00 00 00 00 00 00 00 00 00 00 00 00 00 00 00
       0.0 0.0 0.0 0.0
0002b0 00 00 00 00 00 00 00 00 00 00 00 00 00 00 00 00
       0.0 0.0 0.0 0.0
0002c0 00 00 00 00 00 00 00 00 00 00 00 00 00 00 00 00
       0.0 0.0 0.0 0.0
0002d0 00 00 00 00 00 00 00 00 00 00 00 00 00 00 00 00
       0.0 0.0 0.0 0.0
0002e0 00 00 00 00 00 00 00 00 00 00 00 00 00 00 00 00
       0.0 0.0 0.0 0.0
0002f0 00 00 00 00 00 00 00 00 00 00 00 00 00 00 00 00
       0.0 0.0 0.0 0.0
000300 00 00 00 00 00 00 00 00 00 00 00 00 00 00 00 00
       0.0 0.0 0.0 0.0
000310 00 00 00 00 00 00 00 00 00 00 00 00 00 00 00 00
       0.0 0.0 0.0 0.0
000320 00 00 00 00 00 00 00 00 00 00 00 00 00 00 00 00
       0.0 0.0 0.0 0.0
000330 00 00 00 00 00 00 00 00 00 00 00 00 00 00 00 00
       0.0 0.0 0.0 0.0
000340 00 00 00 00 00 00 00 00 00 00 00 00 00 00 00 00
       0.0 0.0 0.0 0.0
000350 00 00 00 00 00 00 00 00 00 00 00 00 00 00 00 00
       0.0 0.0 0.0 0.0
000360 00 00 00 00 00 00 00 00 00 00 00 00 00 00 00 00
       0.0 0.0 0.0 0.0
000370 00 00 00 00 00 00 00 00 00 00 00 00 00 00 00 00
       0.0 0.0 0.0 0.0
000380 00 00 00 00 00 00 00 00 00 00 00 00 00 00 00 00
       0.0 0.0 0.0 0.0
000390 00 00 00 00 00 00 00 00 00 00 00 00 00 00 00 00
       0.0 0.0 0.0 0.0
0003a0 00 00 00 00 00 00 00 00 00 00 00 00 00 00 00 00
       0.0 0.0 0.0 0.0
0003b0 00 00 00 00 00 00 00 00 00 00 00 00 00 00 00 00
       0.0 0.0 0.0 0.0
0003c0 00 00 00 00 00 00 00 00 00 00 00 00 00 00 00 00
       0.0 0.0 0.0 0.0
0003d0 00 00 00 00 00 00 00 00 00 00 00 00 00 00 00 00
       0.0 0.0 0.0 0.0
0003e0 00 00 00 00 00 00 00 00 00 00 00 00 00 00 00 00
       0.0 0.0 0.0 0.0
0003f0 00 00 00 00 00 00 00 00 00 00 00 00 00 00 00 00
       0.0 0.0 0.0 0.0
