Topic 2.3/Recurrent Neural Network - architectures/lstm/0/checkpoints/epoch=19-step=420-v1.ckpt (torch, 31267 bytes, 15 tensors)

lstm.weight_ih_l0 f4 [80, 1]
00000000: 2887 02be 5be9 8bbd b329 4d3e a550 61be
00000010: f07d e3bd ebce 623e 186c ef3c fa5b 1d3e
00000020: 17a8 9c3d c2a4 4ebd 4b72 643d 4c39 cdbc
00000030: 346b c1bd 9bea 45be f780 dbbc 837d b73d
00000040: 1444 abbd c86b 25be 3073 5a3e 8d3e f1bd
00000050: 0f10 8fbd 2d67 a8bb bd8c 8fbd 3b22 a6be
00000060: 517b 8a3e 8d8f df3d 1c9f 733e 513e 663e
00000070: a866 77bc 3ad7 943e df75 fd3d 700d 95be
00000080: 3b63 93bc 0781 1e3d 49db 9a3c 2e58 873d
00000090: 7f67 edbd be00 96be 6c2c 3dbe 33e3 9ebd
000000a0: ec0a e93e f739 7fbe c75d d13c 62b1 82be
000000b0: 5c85 bfbe 1c50 4b3d 094e 2b3d 4864 4c3e
000000c0: 4ec2 92be 6234 d1bc 2628 cc3c decc b43e
000000d0: 3227 0c3d ebba a23e 44ea 9f3e 1648 1b3e
000000e0: 16f1 6cbe b679 abbe 2cc8 84be 3701 e7bd
000000f0: 5935 b9be 5517 c1bc 2b1e 893e 8d45 53be
00000100: 291b 273e dd4d 9e3e a691 b33e 7cac 3c3e
00000110: 7fb9 adbd cbf8 c73e 4683 89bd 1635 1dbe
00000120: 51d0 9abe c905 a4be 81d4 9abe dc47 8ebd
00000130: 1b02 ac3d de75 66be 2179 b9bd 4957 60bd
-0.1274687 -0.068316184 0.20035438 -0.2200342 -0.11108005 0.22149245 0.029226348 0.15367118
0.07649248 -0.050450094 0.05577306 -0.025051735 -0.094442755 -0.19327776 -0.026794894 0.08959486
-0.08362594 -0.16154397 0.21333003 -0.11779509 -0.06985485 -0.0051392526 -0.070092656 -0.3244799
0.27047208 0.10916052 0.23791164 0.2248471 -0.015100159 0.29070455 0.12375998 -0.29111814
-0.017991653 0.03869727 0.018903391 0.06608616 -0.11592006 -0.2929744 -0.18473977 -0.077581786
0.45516145 -0.24924456 0.025557412 -0.25525957 -0.37406433 0.049636945 0.041822467 0.1996013
-0.28663868 -0.025537673 0.024921488 0.3531255 0.034217067 0.31783232 0.31233418 0.15164217
-0.23138842 -0.33491296 -0.2593397 -0.112795286 -0.36173514 -0.023570696 0.2678083 -0.20632
0.16318955 0.3091878 0.35072058 0.18425173 -0.08482646 0.39057 -0.067144915 -0.15352282
-0.30237058 -0.32035664 -0.30240253 -0.069473 0.08398839 -0.225059 -0.09056307 -0.05477074

lstm.weight_hh_l0 f4 [80, 20]
00000000: 45d1 12be eded 9c3e 5b80 c4be 630b 813e
00000010: 1fde 84be 892a 823e b303 e8be 8b04 1cbe
00000020: da3b 663d 6fc7 45be 5066 503e 682c d2bd
00000030: f209 8d3e c7fb f33c 1bf3 8bbc 6dfb 663d
00000040: 9c77 36bc 45fe c03e 6d55 33bd 6770 433e
00000050: 7952 88be 7908 8d3c 3438 4cbe 60d8 8a3e
00000060: f6f8 16be 92ba f4bd 1e7a 75bd 7490 33be
00000070: 0ec0 2a3e 9396 00be 500c 17be 91c4 7ebd
00000080: 11e2 d23d 98ce 69be 21bf 0e3d c199 783d
00000090: 335a 953e b0aa b2bd 0d21 fd3d 6a9a c4bd
000000a0: bc86 b83d dce4 063d 067a ad3d 07bc ee3d
000000b0: c421 b5bc 9029 773d a064 16bc a179 9c3d
000000c0: d34f cf3c c8fe ab3c b12a ebbd 2751 ac3c
000000d0: be1b 8f3e 03a4 c63d f283 593d 1393 abbd
000000e0: 36bf 1cbe aeb7 913e aed5 51be eb3e a43e
000000f0: edc0 82be ed71 cabd 0afa 633c f0ad b6bd
00000100: d61e fcbd 9ace 893e 4129 ba3d b2c2 393e
00000110: e16c 153d 115c 86be d27f 553e 3239 dfbd
00000120: 0778 febd b6f0 ffbc 367b 63be 35b2 d63d
00000130: 8f2c 7e3e 04b7 c2bd 571c 25be 0a65 863d
00000140: 4388 0bbe 0c2f 8b3e cfb6 82be 7bf2 893e
00000150: 6ed8 5bbe 1ef1 bd3c 8219 87be c592 593e
00000160: 3f96 6d3e a889 37be 0a4e 333d c686 18be
00000170: 42c2 da3c 0f9f b3be b2e4 02be 42b2 f53d
00000180: 159f c33c 80b9 523e aad2 5f3e 1dc2 f93e
00000190: 59bc 88be 8afd ea3e 1b0e efbb 9a92 7f3a
000001a0: 7b32 343e b64a 6dbd a741 1b3e a841 74be
000001b0: 5c1d c83d 1894 5e3c 7671 023e 5f0a 55bd
000001c0: fef0 c0bb 089b 7fbe 3261 c3be f96f 8a3d
000001d0: 8cd1 2cbe 95e3 1b3e 4f6a 8ebd c1ad 8a3e
000001e0: f187 053e b161 fb3d e242 e4bd d9e2 49bd
000001f0: 137b 74be 037c 6a3e 5c3d c4bd 48c3 1cbc
00000200: 1c80 66bd 0109 4bbe 2a1c 673e bc93 693d
00000210: 6e3e e73d b5d0 14be 7e2d 0ebe b269 d53d
00000220: fcf8 72be 548d acbd 1f21 d4bd 8059 2abd
00000230: 6385 943c efa6 4cbd 728c fcbd af94 3fbc
00000240: f3b5 95be de93 af3e 0f50 ffbc e7cc 2c3e
00000250: 5c20 afbd fd15 0bbe 4f25 11be c757 48bd
00000260: a10e 4e3e e3be 88be cf19 76bd 3adc 593e
00000270: ee20 f23d a1fc 0d3e c276 abbd b0d3 913d
00000280: e024 82be fb21 bc3d 6187 b2bd 722c 063e
00000290: 7dc0 0bbe 243b 6a3e 771e aabe d6ad 0fbe
000002a0: 164e 3f3e e8ec a5bd 1a21 873e 0d70 acbe
000002b0: f274 7c3d ac95 7fbe 7064 a6be 990b f8bd
000002c0: 6a2c ae3d ab59 633e 4145 fdbd 52ea 5d3d
000002d0: 9c6f 84be e5a7 3c3e d49c d5bd 709b 103b
000002e0: 61fa 37be b7cd 82bd fd43 97be 6a72 81be
000002f0: d969 863c 2004 35bd afa5 7a3d 43e6 68bd
00000300: 7789 953e dc2f 453e 05af 643e c7f4 563e
00000310: df21 80bd 206c ac3c f507 84be 16dc 82be
00000320: 40c4 6f3d 22b6 11be a164 b13d c0ac ee3c
00000330: 59c6 69be 2a5e acbd 9746 b03c 56f2 8bbe
00000340: ca09 89be b855 173d bb07 ab3d 514f c7bc
00000350: 6dcc 3f3e d6f0 053e 8dbe 62bb 577f 9a3e
00000360: 64cb f9bc fb7d 043d dc5a c4bd 0da4 b1be
00000370: 7908 d9bb 9bca a73d bf71 c6be 0bec a63e
00000380: 98b1 11be 1288 b33e 83b6 9abe d20a 07be
00000390: 1d60 c73d 06cb ddbd 57c7 6a3e 9c27 78be
000003a0: b6fc ab3e 8489 1dbe cfb3 d63c b901 153e
000003b0: 4c19 933e f764 993e 6f99 35be 21cc b43e
000003c0: da9b 6abd 260c 8dbe de06 98bd 4be6 3bbe
000003d0: 5c93 25be 16d2 ccbd c4ce a83d 5af5 91be
000003e0: 3f60 dabd 0706 0d3d 2364 393e 50c4 9ebd
000003f0: 1fb3 403e 2af2 2b3e 6fca b6bd d5d5 9b3e
-0.14337642 0.30650273 -0.38379177 0.25204 -0.25950715 0.25423077 -0.45315322 -0.15236108
0.056209423 -0.19314359 0.20351529 -0.10262376 0.2754665 0.029783143 -0.017083695 0.056392122
-0.011136916 0.37693992 -0.04378264 0.19085847 -0.26625422 0.017215954 -0.19943315 0.27118206
-0.14743409 -0.11949648 -0.059930913 -0.17535573 0.16674826 -0.1255744 -0.1475079 -0.06219918
0.10297025 -0.22832716 0.034850243 0.060693506 0.2917038 -0.08723962 0.123598196 -0.09599765
0.090100735 0.0329331 0.0847054 0.11656957 -0.022110827 0.06034237 -0.009179264 0.076403864
0.025306618 0.020995513 -0.11482752 0.02103479 0.27950853 0.096992515 0.05310435 -0.083776616
-0.15307316 0.2846045 -0.20491669 0.32079253 -0.25537816 -0.09885011 0.013914594 -0.08919895
-0.12310569 0.26915437 0.090899 0.18140677 0.03648079 -0.26242116 0.20849541 -0.10899581
-0.12425237 -0.03124271 -0.2221497 0.10483209 0.24821685 -0.09507564 -0.16124092 0.065622404
-0.13626198 0.2718433 -0.25530097 0.2694281 -0.2146928 0.023186263 -0.26386648 0.21247394
0.23201846 -0.17923605 0.043775596 -0.14895162 0.026703957 -0.3508229 -0.12782553 0.119968906
0.023879567 0.20578575 0.21857706 0.4878091 -0.26706198 0.4589656 -0.0072953827 0.00097493234
0.17597382 -0.057932578 0.15161763 -0.23853171 0.09771225 0.013585113 0.12738594 -0.052011844
-0.0058881035 -0.24961483 -0.38160092 0.06759638 -0.16876811 0.15223534 -0.069538705 0.2708569
0.13040139 0.122744925 -0.111455694 -0.049288604 -0.23875074 0.22898869 -0.09582016 -0.009568043
-0.05627452 -0.19827653 0.22569337 0.057025656 0.112912044 -0.1453274 -0.13884541 0.104205504
-0.23727793 -0.08425394 -0.1035788 -0.04158926 0.01813001 -0.049963888 -0.12331475 -0.011693164
-0.2924038 0.342925 -0.031166105 0.16875039 -0.08551094 -0.13582607 -0.14174388 -0.048911836
0.20122768 -0.26708135 -0.060083207 0.21275416 0.11822687 0.13865902 -0.08372261 0.07120454
-0.25418758 0.09186169 -0.08717228 0.13102892 -0.13647647 0.22874123 -0.33226368 -0.14031157
0.18682131 -0.08101827 0.26392442 -0.33679238 0.061634965 -0.24959439 -0.32498503 -0.12111587
0.08504565 0.22202174 -0.12366725 0.054178543 -0.258664 0.18423422 -0.10430303 0.0022065304
-0.17966606 -0.06386893 -0.29544058 -0.25282604 0.016407894 -0.044193387 0.061193164 -0.05686022
0.2920644 0.19256538 0.2233239 0.20991813 -0.062564604 0.021047652 -0.2578732 -0.25558537
0.058536768 -0.14229634 0.086617716 0.029135108 -0.2282957 -0.08416398 0.021518035 -0.27333325
-0.2676528 0.036946982 0.08351084 -0.024329813 0.18730326 0.13080153 -0.003459844 0.30175278
-0.030492492 0.032346707 -0.095876426 -0.34695473 -0.0066233245 0.08192941 -0.38758656 0.32601961
-0.14227903 0.3506475 -0.3021737 -0.13187721 0.09735129 -0.10829739 0.22927605 -0.2423386
0.3359124 -0.1538449 0.026208786 0.14551438 0.28730237 0.29959843 -0.17734312 0.35311988
-0.057277538 -0.2754833 -0.07423185 -0.18349569 -0.16169494 -0.10001008 0.082425624 -0.285075
-0.10662889 0.034429576 0.18104605 -0.077522874 0.1881833 0.16791597 -0.0892533 0.30436578

lstm.bias_ih_l0 f4 [80]
00000000: 5e51 9a3d 220a 8c3e d15b 97bd 614f cabd
00000010: e180 0ebd 88bc c73d 529b 973d 69d4 5c3e
00000020: fccb b43e 219a 173e f169 963c ecac cd3e
00000030: 4ae2 b6bd 8a97 e33d 950e a03e ef31 283d
00000040: bf9e 6b3e d950 193e 5f50 763e dca6 56bb
00000050: a2c7 03be 5677 fb3d beef 793e cb4e 34be
00000060: 9b2a 01be 9593 9b3d 6723 3a3e a2e8 d53c
00000070: 35df 92bd 0788 853e e288 4bbd ba57 443e
00000080: 7551 c83d 627d b93d 2bbb d83c fdb8 213e
00000090: 5f11 ab3e 6d08 9bbb 8ff1 463e 6508 013e
000000a0: 4b65 febd 749e 0a3e c058 56be cff6 0b3e
000000b0: d7fa a4bd 0872 f33d a801 93bd 1821 413d
000000c0: 2566 82bd 702a 4b3d e802 bf3d bbe0 45be
000000d0: 2039 593e 4c6f 39be ab04 c7bd 08fb df3d
000000e0: 7451 6d3e 46e2 903d b4c5 fbbd 18c6 413d
000000f0: fee7 b73d c506 2c3e b460 353d 2d73 d13d
00000100: 3c8d 18bd 9e8e 3c3e 7b4a 6d3e b836 90bd
00000110: 1879 803e 7cf5 3fbd 650b 4fbd f229 ce3e
00000120: 7104 4cbe 4922 b63d e1ac 4b3e 420b 6f3e
00000130: d69c 363d 9349 afbc 9a22 553e 14cb 17be
0.07535051 0.2735148 -0.073905595 -0.098784216 -0.034790877 0.09752756 0.07402672 0.21565403
0.35311878 0.1480489 0.018361064 0.4017099 -0.0892988 0.11112888 0.31261125 0.041063245
0.23009776 0.14972247 0.24054097 -0.0032753265 -0.12869123 0.12278621 0.2440786 -0.17608182
-0.12613909 0.075965084 0.18177567 0.026111905 -0.071714796 0.26080343 -0.04969109 0.1917409
0.09781162 0.09057118 0.026456436 0.15793224 0.3341169 -0.004731229 0.19428085 0.12600859
-0.12421664 0.13537008 -0.20932293 0.13668369 -0.080556564 0.11886984 -0.0717805 0.0471507
-0.06367139 0.04960102 0.09326726 -0.19324009 0.21213198 -0.18108863 -0.09717687 0.10936552
0.23175603 0.07074408 -0.12293568 0.047308058 0.08979796 0.16799457 0.044281676 0.10227046
-0.037244067 0.18413779 0.23172943 -0.07041687 0.25092387 -0.04686497 -0.050547976 0.40266377
-0.1992357 0.08893258 0.19890167 0.23344138 0.044583164 -0.021397388 0.2081398 -0.14823562

lstm.bias_hh_l0 f4 [80]
00000000: c623 7f3e 66ca acbd 9bb1 943b 98b9 8f3e
00000010: 1e4d 6ebd 70a1 54bd 79d2 10be ac73 513e
00000020: 272a b73e e53d bcbd 6c96 023e e09b af3e
00000030: 1cae 41be db14 683e 434a 663e 9d82 9c3d
00000040: 7d72 853e 7dfd b33d 1ec3 073e 6275 313e
00000050: 671c 12be 90ad 83be d8e7 cf3d 8103 d63c
00000060: 8b36 b9bb c06c 90bd 2226 7f3e 62e0 a4bd
00000070: a0a1 94bd 6fc1 d0bd 53fb 23be 14bd 2e3d
00000080: 2a9c 7f3b 5060 e13d 0b4d 423e 3cca 433e
00000090: 9fea ba3e 3abe 18be af01 1e3e 7de5 313e
000000a0: 1c16 b6bd 1ab2 ddbc 4212 3dbe 2d35 2b3d
000000b0: bb2d 7cbe 0516 acbd 257c 73be 7ffc cebc
000000c0: cd5e da3c bc32 64be 3003 bfbd 120c 153e
000000d0: 9a79 d33c 0c54 1d3d 9dda c4bd cefa 35bd
000000e0: dab9 30be 3849 533e 7465 df3c 9d39 e33d
000000f0: c39c b53e 0a88 843e 5399 f8bd 404d 123e
00000100: aad9 73bd 2d97 173e 9282 c3bd 7ce7 2f3e
00000110: 9795 273c 7824 2e3e b594 2d3e b3bd a73e
00000120: 20f7 35be 54bf 8a3e 9fbb bfbc 7738 9ebd
00000130: 1519 8e3e 8e15 0e3e 4a77 ae3d 997c 0fbe
0.2491599 -0.08437042 0.004537774 0.28071284 -0.058179013 -0.05191177 -0.14142789 0.20454282
0.35774347 -0.09191493 0.12752694 0.3429861 -0.18914074 0.22664206 0.22489266 0.076421
0.2606391 0.087885834 0.13258025 0.17329934 -0.14268647 -0.25718355 0.101516426 0.026124718
-0.005652254 -0.070519924 0.2491689 -0.0805061 -0.0725739 -0.101931445 -0.16013841 0.042660788
0.0039002993 0.11004698 0.18974702 0.19120115 0.36507127 -0.14916316 0.1543033 0.17372699
-0.08890936 -0.027062465 -0.18463996 0.04179876 -0.2462682 -0.084026374 -0.23777826 -0.025266884
0.026656533 -0.22284979 -0.0932678 0.14555386 0.02581482 0.03841023 -0.0961201 -0.04442864
-0.17258397 0.206334 0.027270056 0.11094973 0.35471162 0.2588504 -0.12138619 0.14287281
-0.059533753 0.14803763 -0.09546389 0.17178148 0.010228536 0.17006099 0.16951258 0.32761917
-0.17770052 0.27099097 -0.023404894 -0.077256136 0.2775351 0.1387541 0.08518846 -0.14012374

linear.weight f4 [1, 20]
00000000: 319c 5c3e 857b 3dbe 6d0c 46be f80f ecbd
00000010: e284 93be 6cf2 2a3e 0c41 1cbe 2a95 ce3d
00000020: 83ae d5be 3ed2 71bd e600 a5bb 4f07 883e
00000030: 3b11 25bc 842f 873e 8e6a 963e 0aa2 233e
00000040: 3eff 29be 7553 95be bff4 92be 52d5 b7bd
0.21543957 -0.1850415 -0.19340678 -0.11526483 -0.2881232 0.16694039 -0.15259188 0.100870445
-0.41734704 -0.059038393 -0.0050355075 0.26568076 -0.010074909 0.2640344 0.2937817 0.15979782
-0.16601273 -0.29165235 -0.2870235 -0.089762345

exp_avg f4 [80, 1]
00000000: 6c2f 3939 0a20 54ba 35d4 723a 355c a037
00000010: 20d3 baba f8af b03a 620f 1e3a 754e 27ba
00000020: dfa3 25bb 9bbf 7338 8565 2939 1642 fc39
00000030: 0d8d 0dba 297a 0739 2f82 0639 e03c cdba
00000040: e248 56ba b4a6 96ba e23a 0abb df8f b6b9
00000050: 6e71 203a c77a d5b8 666f 613a ab75 7739
00000060: 9bb1 b7ba 5883 a93a b50e fb39 a9c8 b6ba
00000070: 520f a937 e26c 2ab9 9dc2 9f39 1b84 af39
00000080: 538c 30b9 219d 1a38 c57e c839 98d5 2539
00000090: 4793 99ba 1e50 02ba 2074 163a 0fa9 41b9
000000a0: d58f e2bb 247d 6cba 8f29 3cba 33ea 4e3a
000000b0: d186 993b a9a9 3a3b 85c1 fcba 197d 26ba
000000c0: e8d3 a4bb 5778 00bb 6eff f73b e6de 54bc
000000d0: d07b d33b bc68 88bb 2a19 24bc 42ec 163c
000000e0: 23f2 d6bb 39d3 4e3a ed4d 3fbb 7eff a1ba
000000f0: 8544 b03a 78fd abb9 6bcd ddba 721c c639
00000100: 47f9 1fbb 6f25 72b9 16f6 d3ba 44d0 4eba
00000110: 38fe b8ba aeef 1039 eeb6 9f39 37f1 353a
00000120: 36e1 313a b009 b83a 0526 a93a 519b 87ba
00000130: 7540 8bb9 986d 41b9 b175 e6ba dc07 cbb9
0.00017660641 -0.00080919324 0.00092631887 1.9116424e-05 -0.0014253594 0.0013480177 0.0006029514 -0.00063822354
-0.0025274677 5.811416e-05 0.00016154915 0.00048114423 -0.00053997413 0.00012920111 0.00012827733 -0.0015658401
-0.00081743125 -0.0011493773 -0.0021092226 -0.00034820937 0.0006120418 -0.000101795005 0.00085996685 0.0002359959
-0.0014014723 0.001293282 0.00047885408 -0.00139453 2.0153504e-05 -0.00016253025 0.00030471841 0.00033477027
-0.00016836943 3.68628e-05 0.00038241423 0.00015815196 -0.0011716866 -0.0004971045 0.000573935 -0.00018468894
-0.006914119 -0.0009021333 -0.00071778236 0.0007893175 0.004685261 0.0028482473 -0.0019283748 -0.00063510385
-0.005030144 -0.0019602978 0.0075682914 -0.012992596 0.0064539686 -0.004162876 -0.010015765 0.009211602
-0.0065596267 0.0007889751 -0.0029190734 -0.0012359468 0.0013448155 -0.0003280451 -0.0016922181 0.00037786696
-0.0024410055 -0.00023092864 -0.0016171362 -0.00078893104 -0.0014113849 0.00013822198 0.00030463136 0.0006940546
0.0006785573 0.0014040973 0.0012905007 -0.001034597 -0.0002656017 -0.00018446741 -0.0017582682 -0.00038725033

exp_avg_sq f4 [80, 1]
00000000: 2249 e336 6f13 de37 df44 1037 3b34 b136
00000010: 7e89 a337 d9a8 d535 f93c 8036 c699 4036
00000020: bc86 1338 4f40 0c36 7712 7536 5f49 4437
00000030: 7406 8536 3a10 7237 3e0d 9237 93a3 a037
00000040: b20f 2538 65d1 2138 5128 af37 f65e b036
00000050: 851f 1c37 2758 6e37 7f9b 1e37 80d5 de36
00000060: 7ae9 8236 b223 1b36 3a82 ae36 f66e ad35
00000070: d69d b237 c3d1 b135 56cb 2b36 8c79 8f37
00000080: 92e1 0c36 1e5b c637 ea13 a537 3746 8636
00000090: 685b 1837 0751 2238 2ce4 bd36 b643 a436
000000a0: 8e25 6b39 ccd7 ef39 9ee1 1439 be1d ab38
000000b0: 335f 7b39 dd4f fa38 b231 2e39 5d3b 5639
000000c0: 4e72 273b 0e80 4338 1682 b638 7e36 283a
000000d0: 0053 d638 555f 213a a107 253a a6e4 013a
000000e0: 0d95 e939 8467 ea39 51e5 633a 7bcc 0d39
000000f0: e9ab 0037 6fc7 1738 0198 f737 ede8 4837
00000100: 10cd df37 2ea9 4636 94d5 9937 9965 6936
00000110: 321e 4738 2842 1936 8cfe c736 abf3 c437
00000120: 7228 3436 4d36 1338 d85b 2e38 724c 2837
00000130: 304b 1538 3aa7 a038 fabe ba37 5781 8537
6.773641e-06 2.6473512e-05 8.599104e-06 5.2810915e-06 1.9495139e-05 1.5918878e-06 3.8217954e-06 2.8699737e-06
3.5173012e-05 2.0899058e-06 3.6518593e-06 1.1699593e-05 3.96446e-06 1.4428102e-05 1.7410723e-05 1.9149657e-05
3.9353683e-05 3.8580405e-05 2.08804e-05 5.2562636e-06 9.305663e-06 1.420643e-05 9.453738e-06 6.6409702e-06
3.901482e-06 2.3117577e-06 5.2007645e-06 1.2921798e-06 2.1292752e-05 1.3248576e-06 2.5599343e-06 1.7103528e-05
2.0992925e-06 2.3645869e-05 1.9678806e-05 4.0016853e-06 9.081188e-06 3.8699272e-05 5.6592016e-06 4.8954635e-06
0.00022425337 0.00045746414 0.00014198429 8.159455e-05 0.0002397269 0.00011935805 0.00016612446 0.00020430745
0.0025550309 4.6610883e-05 8.702667e-05 0.00064168114 0.00010219775 0.0006155868 0.0006295387 0.0004955031
0.00044552275 0.00044709083 0.00086935336 0.00013522983 7.6694205e-06 3.6186942e-05 2.9515477e-05 1.1975161e-05
2.6679161e-05 2.9602775e-06 1.8338476e-05 3.4778843e-06 4.747342e-05 2.2837285e-06 5.9602953e-06 2.3478487e-05
2.6845632e-06 3.5098103e-05 4.157037e-05 1.0031379e-05 3.5594392e-05 7.660543e-05 2.2261858e-05 1.5915064e-05

exp_avg f4 [80, 20]
00000000: 9d5f a939 6596 2ab9 9012 c239 9c29 a7b9
00000010: 2e7b 4939 01f9 87b9 2124 b839 c5c6 4cb8
00000020: f296 39b9 d0c0 8f39 2437 dbb8 699c 0b39
00000030: d7e8 ac36 f3ac 9939 f283 2639 2922 65b8
00000040: 5ce2 d2b9 4504 9db9 02ab 80b7 f0c4 93b9
00000050: 0cbe e4b6 8c06 e337 afcf 1db8 afbc 2a38
00000060: 364c 8d36 0da5 8d38 fd33 1cb7 683e 4f37
00000070: 7c68 2bb8 94ba d6b6 773f 0d37 3623 f4b7
00000080: f1ae 9537 e4f9 87b6 b46c aab7 6645 9636
00000090: 4ed0 8938 a07e 3434 6be1 aeb7 152d 1938
000000a0: 5406 183a 32a0 b4b9 bcd1 c139 1db4 26ba
000000b0: 64ab 54b9 c472 02ba 24e2 6339 f96d c636
000000c0: f2c2 5eb9 3bc5 3339 2324 17b9 97af 2a3a
000000d0: 8c1d 68b8 b9d4 ea39 a8fd e939 7dc4 1db8
000000e0: 2423 f5b9 c9de dab9 9493 11b9 e67c f0b9
000000f0: 10f7 8038 fc0f 8737 1098 1839 26d8 2fb8
00000100: 602d 3439 414a 72b8 fc37 4539 ae05 1337
00000110: 0b10 b7b6 bfaf 3139 c94b aeb8 bdc8 9db8
00000120: 100a 0ab8 1630 7e38 03ce 30b7 35b3 c7b8
00000130: 5d54 c837 6add 95b8 474c a738 9a6f 20b8
00000140: 3b55 0f38 3943 0fb9 4b8c ef39 4506 a1b9
00000150: f6e4 c238 a055 1cba 11bd a439 e102 63b9
00000160: eb0e be38 9191 7039 580e 82b8 d5f1 b838
00000170: c2e4 6338 8a1b 2138 2634 6138 be21 3cb8
00000180: c9ad e2b9 2ede 9bb8 ff1f 2e37 e715 c6b9
00000190: 0f03 663a 6e03 fab9 9a6f f539 5327 67ba
000001a0: 11d2 a4b9 3687 1bba 8aa9 9939 1850 bb38
000001b0: 6feb a7b9 7053 8439 0f9b 8bb9 127d 783a
000001c0: e1b0 42b9 a874 2f3a c414 2d3a ef76 03b9
000001d0: 764f 02ba d874 23ba f4f6 26b9 9f92 17ba
000001e0: 79d7 ab39 6e0e 6bb9 b8dc 8839 b130 d2b9
000001f0: a39e 98b8 0b55 b3b9 60fa 3439 ff9f 22b8
00000200: c1ae 18b9 acb6 ef38 c0fa 77b8 aafe cc39
00000210: a29c a237 2ef8 8b39 555a 8239 81d5 e937
00000220: 8b9a 03ba 4517 85b9 a730 d4b8 f402 adb9
00000230: c326 51b8 8120 7db7 331b 3139 1da0 35b8
00000240: da5e f138 7f63 00b9 7e60 3b39 2728 dcb7
00000250: 7314 3b37 a5b2 2b39 23d9 7db8 8b88 d5b8
00000260: 0c82 62b7 cd7c 5eb7 693f 8bb8 18e3 6db8
00000270: 2859 12b9 9a95 abb6 e627 a737 a68d 67b8
00000280: 63c7 3339 ad9d 9db8 b131 2539 591c 3fb9
00000290: d1b2 5fb8 bb04 e5b8 bcd0 f038 c187 38b8
000002a0: a78c 07b9 6ec1 ab38 0d0d 82b8 e8dd 2039
000002b0: dd00 abb8 9077 3539 bf56 2139 dc77 6cb8
000002c0: 1a80 e1b7 ccb3 37b9 17ba b5b7 ad4d 28b9
000002d0: 6ac4 c337 4cb6 58b8 4de5 6438 7ded 9eb8
000002e0: 84f0 1833 91ee 8eb8 999f 4d38 a436 07b8
000002f0: cfec 89b8 f6b2 d637 ff10 b436 dfeb 8b38
00000300: 9f71 fb37 407c 2338 b731 ae37 4c0f 2b38
00000310: 974d 75b9 e730 36b8 2dd1 49b8 4fc2 afb8
00000320: e679 7fb8 47c6 4237 861b e6b8 fc8c 5f38
00000330: e899 7eb8 4193 0339 3b76 38b8 c444 c938
00000340: 35cd 41b8 2e7a 0db7 d766 f7b7 cd2e e1b5
00000350: 962e 80b8 d3c0 1fb8 48b3 44b8 f975 9ab6
00000360: 718d c835 f2dd 3038 91db 0ab8 315d da38
00000370: 6f9a 6039 5464 acb8 8456 d739 f88e 8db9
00000380: 92d7 8039 60b6 bdb9 1621 e039 f28d f6b6
00000390: 42e9 2d38 e3eb c839 ef5e 60b9 8548 d637
000003a0: 0709 d7b8 2b3e 2a39 60bc 8a38 6de1 5eb9
000003b0: 62c7 12b9 e5ff 43b9 d530 0e39 30eb 66b9
000003c0: 7f2a 82b9 d74b 2f39 c515 49b9 2ade 7c39
000003d0: 4f55 1f37 f704 6339 dfea 9ab7 a67b 6139
000003e0: 1e09 0839 db16 ad38 6095 ccb8 354c 72b9
000003f0: b96d e6b8 5bae 6eb9 ebd2 69b9 1c60 04b9
0.0003230543 -0.0001626849 0.00037016394 -0.00031883724 0.00019214742 -0.0002593473 0.00035122133 -4.882251e-05
-0.00017699206 0.00027418742 -0.000104530045 0.0001331434 5.1531056e-06 0.0002931129 0.00015880147 -5.462967e-05
-0.00040222972 -0.00029948555 -1.533842e-05 -0.00028184755 -6.817054e-06 2.7063557e-05 -3.7625137e-05 4.0706884e-05
4.2109996e-06 6.754147e-05 -9.310429e-06 1.2352692e-05 -4.0866886e-05 -6.3994175e-06 8.4190315e-06 -2.9103463e-05
1.7843648e-05 -4.0524046e-06 -2.0316198e-05 4.4784274e-06 6.571469e-05 1.6809872e-07 -2.0847385e-05 3.652003e-05
0.0005799283 -0.0003445163 0.00036968093 -0.00063592364 -0.00020281743 -0.0004976208 0.00021732651 5.9136623e-06
-0.00021244193 0.00017144244 -0.00014413944 0.000651115 -5.5340628e-05 0.0004479045 0.00044630212 -3.761471e-05
-0.00046756223 -0.00041746188 -0.00013883255 -0.00045869424 6.1495346e-05 1.6100697e-05 0.00014552497 -4.1924555e-05
0.00017183041 -5.776645e-05 0.0001880824 8.763205e-06 -5.4556926e-06 0.00016945506 -8.311083e-05 -7.523734e-05
-3.2911135e-05 6.0603103e-05 -1.0538383e-05 -9.522439e-05 2.3881143e-05 -7.146115e-05 7.977388e-05 -3.825091e-05
3.4173234e-05 -0.00013662585 0.0004569016 -0.00030712984 9.293288e-05 -0.0005963687 0.00031421383 -0.0002164948
9.062685e-05 0.00022942411 -6.201555e-05 8.8188484e-05 5.4334065e-05 3.841104e-05 5.3692747e-05 -4.4854118e-05
-0.0004323556 -7.43236e-05 1.0378658e-05 -0.0003778182 0.00087742595 -0.0004768627 0.0004681319 -0.00088178104
-0.0003143703 -0.0005932929 0.0002930875 8.9317735e-05 -0.00032028134 0.00025239168 -0.00026627674 0.0009479086
-0.00018567174 0.00066931034 0.00066025206 -0.0001253744 -0.0004970947 -0.00062353676 -0.00015922991 -0.0005782041
0.000327762 -0.00022416722 0.0002610439 -0.000400906 -7.277473e-05 -0.00034204902 0.0001725941 -3.8772818e-05
-0.0001456095 0.000114304334 -5.9122918e-05 0.00039099652 1.9384843e-05 0.00026697054 0.00024862835 2.7875185e-05
-0.0005020282 -0.00025385074 -0.0001011801 -0.00032999332 -4.9865583e-05 -1.5087543e-05 0.00016890168 -4.330288e-05
0.00011509443 -0.00012244096 0.00017869656 -2.6244741e-05 1.115083e-05 0.00016374381 -6.0522125e-05 -0.000101820646
-1.3500929e-05 -1.3261289e-05 -6.6398476e-05 -5.67167e-05 -0.00013956858 -5.113613e-06 1.992653e-05 -5.5206612e-05
0.00017145048 -7.515713e-05 0.00015754138 -0.0001822574 -5.333388e-05 -0.00010920452 0.000114829716 -4.399545e-05
-0.00012927 8.1899445e-05 -6.201314e-05 0.00015341456 -8.154076e-05 0.00017306046 0.00015386472 -5.6378412e-05
-2.6881742e-05 -0.0001751922 -2.1663536e-05 -0.00016050665 2.3337274e-05 -5.166819e-05 5.457299e-05 -7.578263e-05
3.5609006e-08 -6.815524e-05 4.9024446e-05 -3.2237396e-05 -6.576778e-05 2.5594123e-05 5.3663966e-06 6.671971e-05
2.997444e-05 3.8977945e-05 2.0765567e-05 4.0783823e-05 -0.00023393925 -4.3437725e-05 -4.8116945e-05 -8.380843e-05
-6.0910264e-05 1.1609466e-05 -0.00010972381 5.3298645e-05 -6.0701655e-05 0.0001254799 -4.397913e-05 9.5972355e-05
-4.62059e-05 -8.432702e-06 -2.9492583e-05 -1.6777427e-06 -6.112193e-05 -3.8088136e-05 -4.689701e-05 -4.6032915e-06
1.4942326e-06 4.2168373e-05 -3.310625e-05 0.00010412408 0.00021419836 -8.220287e-05 0.00041072455 -0.00027000136
0.00024574675 -0.0003618477 0.0004274926 -7.347896e-06 4.1463652e-05 0.00038322722 -0.0002139767 2.5544558e-05
-0.000102536804 0.00016235623 6.61544e-05 -0.00021255547 -0.00013997921 -0.00018691977 0.00013560367 -0.00022022123
-0.00024827194 0.00016717553 -0.00019176964 0.00024115355 9.497001e-06 0.00021650257 -1.8467601e-05 0.00021503735
0.00012973367 8.25354e-05 -9.755301e-05 -0.00023107308 -0.00010987692 -0.00022762401 -0.00022299185 -0.00012624305

exp_avg_sq f4 [80, 20]
00000000: 5775 9134 31f6 5534 a2ff 8134 8cd4 c734
00000010: f9df a233 eaf6 f433 4e6d 6834 a31e 0933
00000020: f580 0d34 c267 3e34 58a1 a033 37cf c334
00000030: da28 0d33 df0b bd34 8002 7534 5317 e433
00000040: 2f14 1c35 9972 b134 e3af cb33 df0b 7b34
00000050: cc04 2a35 b001 cb34 ff80 f134 9e59 5535
00000060: 4108 ab33 6567 3734 5e61 d034 cce6 1433
00000070: 3dc5 4834 f719 6634 7cef d433 aec3 3b35
00000080: c88f 5f33 92a6 4d35 e60b fd34 5255 cb33
00000090: a0a2 3035 e80e 4335 b003 1e34 be73 d034
000000a0: d0ec 8035 3ece 4434 abb3 cc35 1491 7435
000000b0: 8079 3135 2e13 4535 6489 2936 f39f ac34
000000c0: d111 0935 eddf 2436 28f0 d535 2926 c634
000000d0: 2d76 3535 1967 1435 5870 ad34 50a3 e735
000000e0: fb41 5136 f33a 2435 25f2 7f35 3f41 6f34
000000f0: 1ddf 8234 9016 e833 b2f3 7334 c26e 9334
00000100: d229 6f33 55c6 cf33 3e3a 8634 4b70 2033
00000110: cb68 9c33 530f 5934 1064 f933 c453 5e34
00000120: f460 6933 9fc7 8434 f7bd 2134 4473 0534
00000130: ce37 c534 42d1 8234 4411 a733 5caa 1534
00000140: d3c0 b234 925d 3334 3092 6c35 189a e634
00000150: bae3 0f35 d66f d534 ac83 b935 20ec 1934
00000160: 0045 d634 6725 a435 ab3a 5535 ff9f 9434
00000170: eb5e 9234 0424 8e34 9d42 3434 a737 5435
00000180: f6c0 0436 baa3 9334 674b 1235 c89b 4434
00000190: f445 a035 654f 9233 e660 9735 8a4d 7135
000001a0: 7f85 c034 18b9 6f35 0aca 0b36 fcc7 0835
000001b0: acfb f234 9d8e 2836 6346 e235 5195 a834
000001c0: 974e 7235 ce16 ff34 39ab 7b34 f108 0a36
000001d0: 4206 4236 ae2c fb34 ee5e 7a35 dd6b 0f34
000001e0: 6c05 7a35 5f3f b833 0bd0 0b36 c951 8535
000001f0: 5bff 8135 567a 7635 4d83 4f36 7db7 fc33
00000200: 2abd dd34 fcb6 2e36 06e3 c235 8ab5 5534
00000210: 1894 0835 2cc8 0b35 8c79 9434 a002 bf35
00000220: 7c01 1636 632c 2f35 0ddd 7435 7080 a634
00000230: bcf5 2b34 6897 ac32 9362 8b34 ac98 0434
00000240: d2cf 2834 622c 4534 ca99 1235 2a22 d533
00000250: 4c1d 0434 b465 3235 11b2 d834 bad4 1e33
00000260: ea4c 4334 762e 6433 07ca c032 0485 0935
00000270: 763c 5b35 45a4 7233 2d6f 8134 22f5 c432
00000280: cedc 8335 4ddf c034 a362 8d35 4122 8e35
00000290: e0c6 c734 650f 3a35 b3a6 d535 2571 9c34
000002a0: fdcc 1035 9269 e535 ff25 8f35 82a4 4635
000002b0: 97c9 0735 1006 5e35 fa5a f934 1e27 ab35
000002c0: 35f6 2136 a027 5035 5537 3935 ca5a cb34
000002d0: 5342 4335 78f1 0a33 3a36 d635 8253 5435
000002e0: 7eea 3735 0b9d 6135 3b3e 1c36 86a4 a933
000002f0: cb45 9334 9203 0836 e3a4 8d35 2545 d533
00000300: ab30 c934 122d cd34 a820 4434 6387 9235
00000310: 9474 b235 426b fb34 8a29 3235 7fb9 8534
00000320: ceed c635 e4f4 7433 fec8 4c36 dcfb c635
00000330: fc0b b835 a470 ec35 48a0 a436 07af ae34
00000340: 9aa8 4b35 e211 9f36 d75d 3236 b98f 4834
00000350: b45f 8735 22a8 3835 80d8 9734 7f53 4436
00000360: e25c 7c36 32d1 5735 002b d935 7a3c c234
00000370: 645d 8734 5c03 4034 3a64 8234 df68 b834
00000380: dda0 6f33 4683 ca33 ef3f 8334 69ae 2033
00000390: 6092 db33 829e 5a34 6bc7 c133 1c3d a334
000003a0: 8eeb 2933 cec3 bc34 3d3b 6634 a200 f033
000003b0: 96cd d534 0656 b134 4739 a833 c451 3f34
000003c0: 4435 5135 843c a933 bc3c 0c36 e969 5e35
000003d0: 90fd 9d35 450d b435 4074 7436 6d3c a734
000003e0: 1401 5735 7997 8136 8ee5 0936 205c 0f34
000003f0: 938e 5835 3df2 ae34 b1fa f033 c392 2836
2.709373e-07 1.9926735e-07 2.421412e-07 3.7221287e-07 7.584453e-08 1.1407049e-07 2.1646449e-07 3.1925662e-08
1.3178563e-07 1.7732876e-07 7.479929e-08 3.647235e-07 3.2866275e-08 3.521263e-07 2.2818313e-07 1.062132e-07
5.81439e-07 3.30522e-07 9.484918e-08 2.3380515e-07 6.3336915e-07 3.7812924e-07 4.4983605e-07 7.9479094e-07
7.9643094e-08 1.7080818e-07 3.8813863e-07 3.4668844e-08 1.8698206e-07 2.1429865e-07 9.915581e-08 6.994768e-07
5.2052002e-08 7.661084e-07 4.713358e-07 9.468444e-08 6.580176e-07 7.266485e-07 1.4716238e-07 3.8827233e-07
9.605665e-07 1.8328953e-07 1.5251475e-06 9.11082e-07 6.6114444e-07 7.341613e-07 2.5262934e-06 3.2153875e-07
5.1062403e-07 2.4568246e-06 1.5939631e-06 3.690814e-07 6.759972e-07 5.5284323e-07 3.2305502e-07 1.7258371e-06
3.1181833e-06 6.1180543e-07 9.534727e-07 2.2282346e-07 2.4376723e-07 1.0807446e-07 2.2719794e-07 2.746147e-07
5.568456e-08 9.675265e-08 2.5001822e-07 3.7355033e-08 7.283378e-08 2.0215275e-07 1.1613167e-07 2.0705835e-07
5.433772e-08 2.473216e-07 1.5063402e-07 1.2428524e-07 3.6734713e-07 2.4366642e-07 7.779684e-08 1.3938683e-07
3.3295382e-07 1.6704715e-07 8.812958e-07 4.2952956e-07 5.3603037e-07 3.9755713e-07 1.3821896e-06 1.4335137e-07
3.991081e-07 1.2229838e-06 7.9434056e-07 2.768356e-07 2.726368e-07 2.6475766e-07 1.678804e-07 7.905714e-07
1.978185e-06 2.750001e-07 5.4498963e-07 1.8310595e-07 1.1941288e-06 6.8130966e-08 1.1278578e-06 8.989233e-07
3.5859918e-07 8.9303785e-07 2.0830216e-06 5.0954964e-07 4.5259128e-07 2.5116963e-06 1.6858797e-06 3.140108e-07
9.026639e-07 4.7514044e-07 2.3438487e-07 2.0568807e-06 2.8911895e-06 4.6784902e-07 9.32704e-07 1.3357153e-07
9.314015e-07 8.579695e-08 2.083371e-06 9.933075e-07 9.685567e-07 9.1820164e-07 3.092183e-06 1.1768041e-07
4.1302093e-07 2.6034531e-06 1.4520199e-06 1.9903214e-07 5.087945e-07 5.2072824e-07 2.7655585e-07 1.4231373e-06
2.2352606e-06 6.525717e-07 9.1218755e-07 3.101336e-07 1.6015014e-07 2.0092287e-08 2.596249e-07 1.2349e-07
1.5721824e-07 1.8363201e-07 5.461303e-07 9.9248e-08 1.2304116e-07 6.6458165e-07 4.0362696e-07 3.6980715e-08
1.8188771e-07 5.3127643e-08 2.2443613e-08 5.123004e-07 8.167184e-07 5.6494418e-08 2.4109013e-07 2.2928877e-08
9.824523e-07 3.592526e-07 1.0534026e-06 1.0589794e-06 3.721134e-07 6.93128e-07 1.5918253e-06 2.9139588e-07
5.394248e-07 1.7092555e-06 1.0665389e-06 7.400014e-07 5.058477e-07 8.2710267e-07 4.6446058e-07 1.2751877e-06
2.413418e-06 7.75437e-07 6.899839e-07 3.7877754e-07 7.2739675e-07 3.2350243e-08 1.5960024e-06 7.9097674e-07
6.8514044e-07 8.404756e-07 2.3282034e-06 7.8996024e-08 2.7431665e-07 2.0267657e-06 1.0553307e-06 9.931163e-08
3.7474578e-07 3.8217019e-07 1.8265803e-07 1.091725e-06 1.3295962e-06 4.6830434e-07 6.6370615e-07 2.4908147e-07
1.482136e-06 5.7033404e-08 3.0515362e-06 1.482545e-06 1.3712556e-06 1.7616153e-06 4.90624e-06 3.2537375e-07
7.586874e-07 4.740651e-06 2.657869e-06 1.8678737e-07 1.0086137e-06 6.8790007e-07 2.8283466e-07 2.9254877e-06
3.760499e-06 8.039816e-07 1.6180275e-06 3.6179318e-07 2.521366e-07 1.7882616e-07 2.428731e-07 3.4348975e-07
5.5792828e-08 9.4302365e-08 2.444717e-07 3.7411528e-08 1.0224608e-07 2.0360497e-07 9.023537e-08 3.040558e-07
3.9562615e-08 3.5160195e-07 2.144197e-07 1.1175986e-07 3.9823925e-07 3.303141e-07 7.833528e-08 1.7818007e-07
7.793608e-07 7.8806835e-08 2.0896978e-06 8.2855564e-07 1.1771208e-06 1.3414907e-06 3.64265e-06 3.115014e-07
8.009531e-07 3.8621333e-06 2.054821e-06 1.3351428e-07 8.0673743e-07 3.2586277e-07 1.12214714e-07 2.5119377e-06

exp_avg f4 [80]
00000000: effa 89ba 7ede e138 f9fc 64ba 8d44 d7b9
00000010: 83a1 57ba 1c79 abba 0cb7 e8b9 218d d7b9
00000020: 984d e3b9 fc35 6438 5311 b539 bfae 89ba
00000030: c333 233a 6c27 70ba 7383 97ba dd59 473a
00000040: 6b65 893a 968c 7bba e9f2 ac38 ed8d e5b9
00000050: 8691 8a38 1b5b 803a 38a8 9eba 6048 0739
00000060: f51b b13a 94a0 0abb a285 6cba 16fe 75b9
00000070: 750b ad3a d3fd aab8 6e51 82b9 544a 9539
00000080: 437c ecb8 c479 243a 0421 dd39 9641 cd39
00000090: 1b98 32ba 6b55 4c3a 72c1 613a eb7d 65ba
000000a0: 9430 4dba 5772 8cba 5901 bc39 25b8 3cba
000000b0: 5f3c a8ba 19b4 8cba 7558 8a38 63cd 9abb
000000c0: 2c78 7dba 88a0 54ba 2090 ee3a c734 ddb9
000000d0: aaa2 5d3a 49ad a0ba 41a8 503b 48a3 c23a
000000e0: a24a a4bc deab 723a 9c60 923a ce48 86bb
000000f0: 3676 8eba 745a 2739 8392 b7ba 54d3 dab9
00000100: 0364 8dba 19ed deba 1f08 1eba f724 65ba
00000110: 5ee9 89ba 3654 4eb9 ff69 98b9 726e c2ba
00000120: 7db2 3939 3df5 69ba f0e6 d5ba 7175 3f39
00000130: 792b 9b3a 8523 73ba 70ac 1cba 0261 20ba
-0.0010527055 0.000107702785 -0.00087352056 -0.0004105907 -0.0008225666 -0.0013082358 -0.0004438687 -0.00041113145
-0.00043354626 5.4409713e-05 0.00034535918 -0.0010504349 0.00062256696 -0.0009161148 -0.0011559561 0.0007604638
0.0010482495 -0.0009595839 8.246845e-05 -0.00043784027 6.6074586e-05 0.0009792777 -0.0012104576 0.00012901565
0.001351236 -0.002115284 -0.00090225984 -0.00023459675 0.0013202267 -8.15351e-05 -0.00024856202 0.00028474873
-0.000112765025 0.0006274248 0.00042177003 0.00039149512 -0.00068128266 0.00077947107 0.00086118944 -0.000875442
-0.0007827368 -0.0010715228 0.00035859158 -0.00071990705 -0.0012835375 -0.0010734826 6.596829e-05 -0.004724191
-0.0009669091 -0.0008111079 0.0018200912 -0.00042191727 0.000845472 -0.0012258674 0.0031838568 0.0014849687
-0.020055119 0.00092571776 0.0011167708 -0.0040980345 -0.001086897 0.00015960057 -0.0014005456 -0.00041737652
-0.0010787252 -0.0017007916 -0.0006028432 -0.0008741165 -0.0010521819 -0.00019677062 -0.00029070672 -0.0014833941
0.00017709467 -0.0008924788 -0.0016319435 0.0001825893 0.0011838517 -0.0009275007 -0.0005976623 -0.0006117971

exp_avg_sq f4 [80]
00000000: f007 9636 378d 2337 3ac3 c537 4eb1 8b36
00000010: e09a 7937 f20f 3837 924f f337 1b37 1236
00000020: c1ab 7837 3196 9f37 89c6 0738 57c7 b036
00000030: 7735 a937 3202 ec36 40a9 1e37 1193 d937
00000040: 7c9a b537 baa0 f837 06fa 3437 cf1c 0837
00000050: 0230 4836 63ac 4237 197e 0238 170b 9236
00000060: 671d 9837 d6a6 6a37 6a2a 5a38 02ce 8636
00000070: 09ea 3a38 28df 0f38 a1c2 4038 f8ff fd36
00000080: cef6 0d38 8c08 2137 4253 5f37 eeb2 d738
00000090: b7f9 e638 ce6c e337 afad 6d38 6c21 6c37
000000a0: 14df d038 aba1 d93a 956d 8f39 c10f f838
000000b0: 8655 1b3a d12d e239 0a79 0a3a 7d22 b53a
000000c0: 05e8 da3b 076b 0c3a 5301 563a 4525 573a
000000d0: ea77 893a 770b 053a 77a9 973a 0f61 a53b
000000e0: 2be9 193c 7239 3b3a e707 4f3b 2da7 833a
000000f0: 4360 8e36 e3ca 6e37 8d9f 5038 bf62 d336
00000100: d162 9137 71a8 e836 56d4 dc38 5d4c 8436
00000110: e01b 0c38 f263 1f38 b2f0 9a38 6fa2 1237
00000120: 74cf 0f38 8350 1f37 5a16 8a37 05cd 8538
00000130: 8d0b 9f38 fddf 3638 7bbc fc37 e464 8f37
4.4712724e-06 9.748436e-06 2.357514e-05 4.163164e-06 1.4877616e-05 1.0970967e-05 2.900491e-05 2.178777e-06
1.48219415e-05 1.9024215e-05 3.237141e-05 5.268415e-06 2.0171266e-05 7.0336037e-06 9.4569405e-06 2.5936899e-05
2.1648819e-05 2.9638748e-05 1.0787049e-05 8.112939e-06 2.9830267e-06 1.1603438e-05 3.1111853e-05 4.35243e-06
1.8133504e-05 1.3986331e-05 5.201475e-05 4.0174937e-06 4.4563818e-05 3.4301687e-05 4.595763e-05 7.5697862e-06
3.3846874e-05 9.598338e-06 1.3311221e-05 0.00010285327 0.00011013768 2.7111175e-05 5.666696e-05 1.4074478e-05
9.9597644e-05 0.0016603967 0.0002735673 0.00011828496 0.0005925525 0.00043140215 0.00052823185 0.0013819482
0.006680491 0.00053565245 0.00081636495 0.0008207153 0.0010488008 0.0005075256 0.001157089 0.0050469707
0.0093939705 0.0007142044 0.0031590404 0.0010044329 4.243136e-06 1.4233144e-05 4.9739658e-05 6.2997856e-06
1.7331362e-05 6.933748e-06 0.00010529968 3.9427964e-06 3.340456e-05 3.8001635e-05 7.388125e-05 8.740098e-06
3.4287063e-05 9.495884e-06 1.646129e-05 6.380122e-05 7.583862e-05 4.3600787e-05 3.0128509e-05 1.709391e-05

exp_avg f4 [80]
00000000: effa 89ba 7ede e138 f9fc 64ba 8d44 d7b9
00000010: 83a1 57ba 1c79 abba 0cb7 e8b9 218d d7b9
00000020: 984d e3b9 fc35 6438 5311 b539 bfae 89ba
00000030: c333 233a 6c27 70ba 7383 97ba dd59 473a
00000040: 6b65 893a 968c 7bba e9f2 ac38 ed8d e5b9
00000050: 8691 8a38 1b5b 803a 38a8 9eba 6048 0739
00000060: f51b b13a 94a0 0abb a285 6cba 16fe 75b9
00000070: 750b ad3a d3fd aab8 6e51 82b9 544a 9539
00000080: 437c ecb8 c479 243a 0421 dd39 9641 cd39
00000090: 1b98 32ba 6b55 4c3a 72c1 613a eb7d 65ba
000000a0: 9430 4dba 5772 8cba 5901 bc39 25b8 3cba
000000b0: 5f3c a8ba 19b4 8cba 7558 8a38 63cd 9abb
000000c0: 2c78 7dba 88a0 54ba 2090 ee3a c734 ddb9
000000d0: aaa2 5d3a 49ad a0ba 41a8 503b 48a3 c23a
000000e0: a24a a4bc deab 723a 9c60 923a ce48 86bb
000000f0: 3676 8eba 745a 2739 8392 b7ba 54d3 dab9
00000100: 0364 8dba 19ed deba 1f08 1eba f724 65ba
00000110: 5ee9 89ba 3654 4eb9 ff69 98b9 726e c2ba
00000120: 7db2 3939 3df5 69ba f0e6 d5ba 7175 3f39
00000130: 792b 9b3a 8523 73ba 70ac 1cba 0261 20ba
-0.0010527055 0.000107702785 -0.00087352056 -0.0004105907 -0.0008225666 -0.0013082358 -0.0004438687 -0.00041113145
-0.00043354626 5.4409713e-05 0.00034535918 -0.0010504349 0.00062256696 -0.0009161148 -0.0011559561 0.0007604638
0.0010482495 -0.0009595839 8.246845e-05 -0.00043784027 6.6074586e-05 0.0009792777 -0.0012104576 0.00012901565
0.001351236 -0.002115284 -0.00090225984 -0.00023459675 0.0013202267 -8.15351e-05 -0.00024856202 0.00028474873
-0.000112765025 0.0006274248 0.00042177003 0.00039149512 -0.00068128266 0.00077947107 0.00086118944 -0.000875442
-0.0007827368 -0.0010715228 0.00035859158 -0.00071990705 -0.0012835375 -0.0010734826 6.596829e-05 -0.004724191
-0.0009669091 -0.0008111079 0.0018200912 -0.00042191727 0.000845472 -0.0012258674 0.0031838568 0.0014849687
-0.020055119 0.00092571776 0.0011167708 -0.0040980345 -0.001086897 0.00015960057 -0.0014005456 -0.00041737652
-0.0010787252 -0.0017007916 -0.0006028432 -0.0008741165 -0.0010521819 -0.00019677062 -0.00029070672 -0.0014833941
0.00017709467 -0.0008924788 -0.0016319435 0.0001825893 0.0011838517 -0.0009275007 -0.0005976623 -0.0006117971

exp_avg_sq f4 [80]
00000000: f007 9636 378d 2337 3ac3 c537 4eb1 8b36
00000010: e09a 7937 f20f 3837 924f f337 1b37 1236
00000020: c1ab 7837 3196 9f37 89c6 0738 57c7 b036
00000030: 7735 a937 3202 ec36 40a9 1e37 1193 d937
00000040: 7c9a b537 baa0 f837 06fa 3437 cf1c 0837
00000050: 0230 4836 63ac 4237 197e 0238 170b 9236
00000060: 671d 9837 d6a6 6a37 6a2a 5a38 02ce 8636
00000070: 09ea 3a38 28df 0f38 a1c2 4038 f8ff fd36
00000080: cef6 0d38 8c08 2137 4253 5f37 eeb2 d738
00000090: b7f9 e638 ce6c e337 afad 6d38 6c21 6c37
000000a0: 14df d038 aba1 d93a 956d 8f39 c10f f838
000000b0: 8655 1b3a d12d e239 0a79 0a3a 7d22 b53a
000000c0: 05e8 da3b 076b 0c3a 5301 563a 4525 573a
000000d0: ea77 893a 770b 053a 77a9 973a 0f61 a53b
000000e0: 2be9 193c 7239 3b3a e707 4f3b 2da7 833a
000000f0: 4360 8e36 e3ca 6e37 8d9f 5038 bf62 d336
00000100: d162 9137 71a8 e836 56d4 dc38 5d4c 8436
00000110: e01b 0c38 f263 1f38 b2f0 9a38 6fa2 1237
00000120: 74cf 0f38 8350 1f37 5a16 8a37 05cd 8538
00000130: 8d0b 9f38 fddf 3638 7bbc fc37 e464 8f37
4.4712724e-06 9.748436e-06 2.357514e-05 4.163164e-06 1.4877616e-05 1.0970967e-05 2.900491e-05 2.178777e-06
1.48219415e-05 1.9024215e-05 3.237141e-05 5.268415e-06 2.0171266e-05 7.0336037e-06 9.4569405e-06 2.5936899e-05
2.1648819e-05 2.9638748e-05 1.0787049e-05 8.112939e-06 2.9830267e-06 1.1603438e-05 3.1111853e-05 4.35243e-06
1.8133504e-05 1.3986331e-05 5.201475e-05 4.0174937e-06 4.4563818e-05 3.4301687e-05 4.595763e-05 7.5697862e-06
3.3846874e-05 9.598338e-06 1.3311221e-05 0.00010285327 0.00011013768 2.7111175e-05 5.666696e-05 1.4074478e-05
9.9597644e-05 0.0016603967 0.0002735673 0.00011828496 0.0005925525 0.00043140215 0.00052823185 0.0013819482
0.006680491 0.00053565245 0.00081636495 0.0008207153 0.0010488008 0.0005075256 0.001157089 0.0050469707
0.0093939705 0.0007142044 0.0031590404 0.0010044329 4.243136e-06 1.4233144e-05 4.9739658e-05 6.2997856e-06
1.7331362e-05 6.933748e-06 0.00010529968 3.9427964e-06 3.340456e-05 3.8001635e-05 7.388125e-05 8.740098e-06
3.4287063e-05 9.495884e-06 1.646129e-05 6.380122e-05 7.583862e-05 4.3600787e-05 3.0128509e-05 1.709391e-05

exp_avg f4 [1, 20]
00000000: af4f 14bc 76c9 4abb b32e 383c 5e6e a7bb
00000010: 6c30 2bbb 3837 b0bc 5b10 773b 97ab 63bc
00000020: 4d9d 3c3c 0636 0f3b 4f64 613a e0b9 55bb
00000030: b6f3 ed3a 2fb5 d6bb c761 6bbb de5d acba
00000040: a4c8 65bc a7f0 ad3b 4df1 0d3b ba0a 33bc
-0.009052201 -0.0030942834 0.011241603 -0.0051095923 -0.002612139 -0.021510705 0.0037698958 -0.013895891
0.011512113 0.002185227 0.0008598016 -0.003261201 0.0018154297 -0.0065523605 -0.0035916434 -0.0013150533
-0.014024887 0.005308229 0.002165872 -0.01092785

exp_avg_sq f4 [1, 20]
00000000: ec8a 7f3b 4bfc ad3a 2f19 2f3b de8d 633b
00000010: 819b 903a 508b 9f3a 492f 6e3b 6dcd 903a
00000020: f532 ca3a fe19 5b3b 125b 253b 7bf8 4d3b
00000030: 3495 a03a 8bca 4a3b ca82 053b 8369 2b3b
00000040: 865b cd3b f057 4e3b 886f c63a 7dad 973a
0.0038992716 0.0013274042 0.0026717891 0.003472201 0.0011032672 0.0012172256 0.0036344102 0.001104755
0.0015426563 0.003343224 0.0025231284 0.0031428623 0.0012251497 0.003094348 0.0020372146 0.002615542
0.006267014 0.003148552 0.001513944 0.0011572089
