Topic 2.3/Recurrent Neural Network - architectures/lstm/0/checkpoints/epoch=19-step=420.ckpt (torch, 31267 bytes, 15 tensors)

lstm.weight_ih_l0 f4 [80, 1]
000000 98 cc 08 3e 9a f6 3d be 3b 23 bf bd 5d ff 5c 3e
       0.13359296 -0.18551102 -0.093328916 0.21581788
000010 db e3 ef 3c a0 bf 52 3e f8 90 18 3d 73 0a 44 3d
       0.029283455 0.20580912 0.037247628 0.047861528
000020 17 19 95 bb 63 12 9c 3c 90 3b a4 be b4 87 3c be
       -0.00455011 0.019051736 -0.32076693 -0.18411142
000030 c5 09 7c 3c e6 cd a0 3c 6d 9d 86 bd cc a1 2b be
       0.015383189 0.01962943 -0.06572995 -0.1676094
000040 dc 11 3d 3e a2 f8 4b be e0 2c 20 3e 4c 0c 67 3e
       0.18463844 -0.19919065 0.15642118 0.22563285
000050 f4 ed f7 bd a6 92 a6 be df 9a 90 3e 7a 07 19 3d
       -0.12105933 -0.3253376 0.28243157 0.037360646
000060 de 9b 8a 3e 7d 09 39 3e 7e a0 68 bd b1 4b eb 3e
       0.27072042 0.18070026 -0.056793682 0.45956185
000070 9e 1d 0d 3e 82 a5 82 be a8 f7 2d be fd 56 25 3d
       0.1378083 -0.25516897 -0.16989005 0.04036616
000080 68 61 8d 3d 19 21 2b bc d4 b1 39 be ae b8 9e be
       0.069033444 -0.010444903 -0.18134242 -0.31000274
000090 a2 d9 7a be 19 c2 32 be 53 28 c7 3e 2f e2 16 bd
       -0.24497083 -0.17456855 0.38897952 -0.0368368
0000a0 0f 96 6d 3d c9 12 60 be 19 ef 9e be 8e 3b 47 3d
       0.058004435 -0.21882166 -0.31041792 0.04864078
0000b0 9e 0c ac 3d e3 c1 1c 3e 67 6b 64 be c3 77 15 be
       0.08400844 0.15308337 -0.22306596 -0.14596467
0000c0 9e fe 81 3e ae 9c 7d 3e 4f c8 a2 3c 2b e7 a0 3e
       0.2538957 0.247668 0.019870905 0.31426367
0000d0 86 8d 58 3e c8 b5 5b 3e 12 f6 43 be af 98 bc be
       0.21147737 0.21456063 -0.19136837 -0.36835238
0000e0 17 17 4a be 9e b6 2a be 88 c9 c7 be 6d 8b 2b 3e
       -0.1973537 -0.16671225 -0.39020944 0.16752405
0000f0 37 57 5f 3e 5c df 43 be 58 79 75 3e 18 1f 96 3e
       0.21810614 -0.19128174 0.2397207 0.29320598
000100 7f b2 c2 3e ca 8e a3 3e 52 3a 42 be 4b d7 ee 3e
       0.38026807 0.31944877 -0.1896756 0.4664863
000110 96 15 d2 bd 52 08 0f be 58 71 0c bf ff 1a 9b be
       -0.102580234 -0.13968018 -0.5486045 -0.30294034
000120 41 cd 8b be 90 bf 43 be 71 c8 0d 3d 17 95 60 be
       -0.27305034 -0.19116044 0.034614984 -0.21931873
000130 ec f7 4b be 57 68 50 be c7 ce 06 3e 24 db b9 3e
       -0.19918793 -0.20352302 0.13164817 0.36300004

lstm.weight_hh_l0 f4 [80, 20]
000000 08 fc 16 be d0 0e f3 3d 38 0a cc bd 4d 80 a7 3b
       -0.1474458 0.1186806 -0.099628866 0.00511173
000010 21 5f 61 be 1a 1b 0e bd fa 32 6d bd f1 81 f5 3d
       -0.22008945 -0.034693815 -0.057909943 0.11987675
000020 de 39 8f 3b 27 c2 e0 3c 51 4f 9c 3e 20 1d 21 3e
       0.004370912 0.027436329 0.30529264 0.15733767
000030 30 65 a5 3d e9 b7 eb bd 14 c1 52 be ca 9f 84 3e
       0.080759406 -0.115096875 -0.20581466 0.2590316
000040 4c 18 d1 bd 6b 8c 93 3d d8 64 28 be ca 52 b5 bc
       -0.102097124 0.07204517 -0.16444719 -0.022134203
000050 ce ac 55 be 0b 85 9b 3e b2 87 86 be f4 b0 11 be
       -0.20866701 0.3037494 -0.26275402 -0.14227659
000060 90 41 f9 bd d5 b3 51 bc 2e 79 55 3e 7f 8a 06 be
       -0.12170708 -0.012799223 0.20847008 -0.1313877
000070 1d c5 58 be 9d b9 d7 bd 10 73 7c 3e 82 2b 75 be
       -0.21168943 -0.1053345 0.24653268 -0.23942378
000080 ed 2c 98 3c b2 ed 10 3d 31 8a bb 3e 4f bd 8d bd
       0.01857611 0.035382934 0.3662887 -0.069208734
000090 d1 db 25 3e f6 ca 85 bd ad 13 32 3e ec 2d 88 bc
       0.16197135 -0.06532852 0.17390318 -0.01662346
0000a0 5a f3 54 3d d9 d0 9e 3e 43 36 5c bd a9 71 a1 3d
       0.05198989 0.31018713 -0.053762686 0.07883007
0000b0 9f 39 c9 bd d4 19 82 3e 73 3a 4c 3e 09 ae b2 3d
       -0.098254435 0.2541033 0.19944172 0.08724601
0000c0 2d 69 8f be 1d 8f 9c bd 8e 66 c0 3e 08 7f a8 bc
       -0.2800993 -0.07644484 0.37578243 -0.020568386
0000d0 5b 32 b0 bd 61 26 bb be 86 79 34 bc ee ef f1 3e
       -0.086033545 -0.36552718 -0.011015302 0.47253364
0000e0 30 a1 1b be 94 3c c6 3e cc ed 15 be e4 cf bd bd
       -0.15198207 0.38718092 -0.14641494 -0.092681676
0000f0 8e cd 58 3d e7 71 05 bc 2a 59 7b bd f3 1b 65 3e
       0.052930407 -0.008144832 -0.06136433 0.22373943
000100 31 4e f8 3d cc 0f 63 3e 9a ed c1 bc 3b 99 22 be
       0.12124289 0.22173995 -0.023672868 -0.15878765
000110 c5 b9 f2 3d 0a cc ca bd 90 17 2a 3d 4e e0 be bd
       0.11851839 -0.099021986 0.041526377 -0.093201265
000120 52 24 a2 be 84 03 da ba 7a 0a a5 3d 1e 8c 2d 3c
       -0.31668335 -0.0016633128 0.08058639 0.010592489
000130 e2 7f 73 be 98 70 f4 3d 13 6f 3a 3e e8 fb f9 3c
       -0.23779252 0.11935538 0.18206434 0.030515626
000140 d8 f7 47 be d5 ee be 3d 02 b4 8d be 51 cd 5f bd
       -0.19528139 0.09322897 -0.27676398 -0.054639164
000150 ee 7e 79 be 0f b5 a1 3e 64 fa 81 3e 71 85 e0 bd
       -0.24364826 0.3158345 0.25386345 -0.10962952
000160 cd dd 9f bd 29 c2 10 3d 9c 04 62 3e 92 70 8c be
       -0.07805977 0.035341416 0.22072071 -0.27429634
000170 54 23 b1 3a c9 20 55 bd fb ab 56 bd df 25 e1 3d
       0.0013514557 -0.05203322 -0.052410107 0.109935515
000180 3e 9f 00 3e f1 04 bf 3e 80 2f d6 bd c9 c8 9d 3e
       0.12560746 0.37308457 -0.10458279 0.3081725
000190 68 70 c5 bc d5 5a a0 bd ac 3b 3f 3d b8 66 1b bd
       -0.024101451 -0.07829825 0.046687767 -0.037939757
0001a0 5b 24 09 3e 95 cd 21 bd 73 11 21 3e 42 eb f8 3c
       0.13392775 -0.0395027 0.15729313 0.030385617
0001b0 74 58 83 bc c8 b3 f5 3d b6 3d c5 3c 8b 89 43 be
       -0.016033389 0.11997181 0.024077278 -0.19095437
0001c0 e3 91 8e be 81 19 e3 bd 4a 42 61 bd 08 d7 af 3d
       -0.27845678 -0.11088849 -0.05499486 0.08585936
0001d0 69 10 40 3d 37 06 36 3e cb ed 8b 3d 54 6a 28 3e
       0.04689065 0.17775808 0.06832465 0.16446811
0001e0 4c d3 23 be 87 8b 23 bd 22 a6 94 be 24 41 93 3e
       -0.15998572 -0.039927986 -0.29033 0.28760636
0001f0 c6 09 0d be ba d2 9f 3d dc 51 98 3d d4 29 63 be
       -0.1377326 0.07803865 0.074374884 -0.22183925
000200 07 7e b1 3d 7d e9 5e 3d 97 1b fa 3d ea e5 4c be
       0.08666616 0.05442189 0.122122936 -0.2000958
000210 9b e7 28 be 3b 8f 67 bd 95 29 89 bd a2 02 5d bd
       -0.164946 -0.05653308 -0.06697384 -0.05395759
000220 cf ec 25 bd a6 7b 08 3d 45 7f 85 3d 8f 18 1f 3d
       -0.04050904 0.033321045 0.06518415 0.03884178
000230 83 3b 34 be a2 8d 86 bd 3d 40 bd be a2 fa cb 3e
       -0.17600827 -0.06569983 -0.36963072 0.39839655
000240 cf 90 e5 bd 3e 33 d3 3e 93 ec c0 bd 88 ea 53 be
       -0.11209261 0.41250032 -0.09420123 -0.20694935
000250 5c 39 9d bd 6b a6 61 bd 9b 4d 86 3e 1b a4 8b be
       -0.07676956 -0.05509035 0.26231083 -0.2727364
000260 af 30 06 be 31 f2 94 3e b2 f6 4e 3d 1a be a1 3b
       -0.13104509 0.29091027 0.050528236 0.004935992
000270 1f 39 26 be df fd 06 3e 1c 2f 91 be e3 d1 8a 3d
       -0.16232727 0.13182782 -0.28356254 0.06778314
000280 93 43 80 bd 20 18 25 3c ba 06 8e be f4 b7 91 3e
       -0.06262889 0.010076553 -0.27739507 0.28460658
000290 21 38 9e be f1 7b e7 3d 0e 96 53 3e 7d b6 55 bd
       -0.30902198 0.11302937 0.2066271 -0.052175988
0002a0 d2 15 dd 3d f7 da 6c be d6 5e 2c 3e 11 09 62 be
       0.107951775 -0.23130403 0.16833052 -0.22073771
0002b0 4c 64 64 be 2c 32 8a be 7b 81 c2 3d e6 1b f7 3d
       -0.22303885 -0.26991403 0.09497353 0.12065868
0002c0 2e 58 8f bd d9 53 e2 3c fd 73 9f be 0d 57 bd 3e
       -0.06999241 0.027627872 -0.3114318 0.36980477
0002d0 62 0f 01 be b8 67 6a 3c fe f8 4e be 46 4c 80 3a
       -0.12603524 0.014306955 -0.2021217 0.0009788356
0002e0 bf d9 96 be c2 24 bf bd aa 92 4b 3e 00 a9 65 bd
       -0.29463002 -0.09333183 0.19880167 -0.056069374
0002f0 5d 00 09 be fb 58 1a be 6b 9e 7d 3e 31 7c ae 3d
       -0.13379045 -0.15073006 0.24767463 0.085197814
000300 17 c8 1a 3e 61 af a4 ba 88 7b 22 3e 1f f5 55 3d
       0.1511539 -0.0012564474 0.15867436 0.05223572
000310 cd e2 20 be de d2 02 be 54 9b fe 3d 1b e0 8b 3d
       -0.15711518 -0.12775752 0.1243197 0.06829854
000320 aa 02 8e bd c9 72 00 3e 73 81 a7 be 19 76 82 3d
       -0.06934102 0.12543787 -0.3271595 0.063701816
000330 5d b5 c0 bd 9d 20 b8 bc 2a ab 5d be 64 e6 f1 bd
       -0.09409592 -0.022476489 -0.21647325 -0.11811522
000340 36 60 73 bc b3 ed 03 be 56 ea 8d 3e 8e b1 07 be
       -0.014854481 -0.12883644 0.27717847 -0.13251325
000350 67 f8 49 be 69 8f 40 3e 77 92 68 3d 74 2f 22 3e
       -0.19723664 0.18804707 0.056780305 0.15838414
000360 29 8e 15 be ab 33 22 3a d3 ac e4 3d f3 b0 b9 3d
       -0.14605011 0.00061875087 0.11165776 0.090669535
000370 bb 80 b9 be f8 98 88 3e 5c e0 54 be 5f f8 b9 3e
       -0.36231026 0.26679206 -0.20788711 0.36322305
000380 72 0c 84 be ba 13 32 3e f0 43 1c 3e 92 ed e3 bd
       -0.25790745 0.17390338 0.15260291 -0.11129297
000390 62 88 5d bd 65 0c 6b be 56 71 db 3e da b5 06 be
       -0.054085143 -0.22953947 0.42859906 -0.13155308
0003a0 11 e6 80 3d 28 22 53 bc 12 69 a0 3e ff 86 68 3e
       0.06293882 -0.012886561 0.31330162 0.22707747
0003b0 e6 a3 76 bd aa 05 bd 3e 0b 99 70 be a6 5a 93 3d
       -0.0602149 0.36918384 -0.23495881 0.07195024
0003c0 2f 62 a1 bd 18 cb 0d be 78 2f 08 be 56 bf 24 be
       -0.07880055 -0.13847005 -0.13299358 -0.16088614
0003d0 fe c2 ca 3d 5b 39 80 bc 2e 05 45 3d 87 e7 9a 3d
       0.09900473 -0.01565235 0.048100643 0.075636916
0003e0 f3 40 03 3d 5b 25 65 be fd f7 06 3e a2 02 21 3d
       0.032044362 -0.22377531 0.13180538 0.03930915
0003f0 de 6c 6f be a7 51 07 3e a7 86 25 bd 2d cd f8 bc
       -0.23381373 0.13214742 -0.040411618 -0.030371273

lstm.bias_ih_l0 f4 [80]
000000 b7 bc ca bd 53 12 ea bd aa fb 9b bd e3 e8 cc 3d
       -0.09899276 -0.11429276 -0.076163605 0.10005357
000010 71 e4 01 3e 76 75 54 3e 08 76 84 3e 40 da 38 3e
       0.126848 0.20747933 0.258713 0.18052006
000020 2f 30 e3 3d ca aa 8e 3e 78 7c 3e 3d 8e 9d e8 3d
       0.11093175 0.27864677 0.04650542 0.11358176
000030 63 8e 68 3e ac de 14 3e 64 1d 57 3e 68 fe 17 3e
       0.22710566 0.14538068 0.21007305 0.14843142
000040 5e 04 3b 3e 11 b8 07 3d ac c7 e7 3d eb a8 5b 3e
       0.18263385 0.033134524 0.11317381 0.21451156
000050 5c b9 68 3e f2 07 35 be 72 44 b9 bd f6 95 86 3d
       0.22726959 -0.17678812 -0.09046258 0.065715715
000060 48 74 62 3e e9 0e cb 3c b7 82 1b bd 41 bb 74 3e
       0.2211467 0.024787383 -0.037966456 0.23899557
000070 86 a6 22 be 48 3c 76 3e d5 42 3d 3e 2c 71 03 3e
       -0.15883836 0.24046433 0.18482526 0.1283614
000080 2a bf 98 3d ab 2a 6c 3c 97 00 95 3e e7 c5 04 bd
       0.07458337 0.01441447 0.29102013 -0.032415297
000090 a5 06 68 3e 23 a6 b4 3d d4 a1 2c be ca 47 33 3e
       0.22658785 0.088207506 -0.16858608 0.17507854
0000a0 dc a7 48 be 82 4c f0 3d 3b e1 88 bd 11 ed d4 3d
       -0.19595283 0.11733343 -0.06683584 0.10396779
0000b0 9c 8a 9d bd ab 66 a1 3d 7a 49 91 bd 43 8b 9b 3d
       -0.07692453 0.078809105 -0.07094093 0.075949214
0000c0 4d 37 ce 3d fe 0f 55 be 5a 37 9f 3e c3 35 4f be
       0.100691415 -0.20806882 0.31096917 -0.20235352
0000d0 2f e1 db bd 88 33 cd 3d 10 78 4b 3e 03 4b 84 3d
       -0.1073631 0.100195944 0.19870019 0.0645962
0000e0 e4 42 fd bd e8 89 38 3d 32 3e 1c be 3e e5 fd 3d
       -0.12366274 0.045053393 -0.152581 0.1239724
0000f0 76 76 e4 3c c7 5b cd 3d 2d f9 bc bd 84 ce 25 3e
       0.027888518 0.10027271 -0.09227214 0.1619206
000100 be 1f 8a 3e 44 b6 9d bd 93 ff 21 3e c0 d1 7d 3b
       0.26977342 -0.0770078 0.1582015 0.0038729757
000110 5b 66 b4 3c 67 0c 94 3e 5c 20 8c bd eb 8f ce 3d
       0.022021463 0.28915712 -0.068421096 0.10086044
000120 13 a9 de 3d 01 a5 ad 3e 2f 72 1d 3b 04 fb 8e bc
       0.10872092 0.3391495 0.0024024358 -0.017453678
000130 3b 69 ff 3d 9a 63 c8 bd 6e b2 ab 3e d8 54 cd bd
       0.12471243 -0.097846225 0.3353457 -0.10025948

lstm.bias_hh_l0 f4 [80]
000000 44 57 a8 bc dc c8 87 3e c9 e1 cb bd d7 48 4a bd
       -0.020549424 0.2652043 -0.099551745 -0.04938587
000010 62 77 b5 bd bd 14 49 3e 34 d4 86 3e 37 7b 73 bd
       -0.08860661 0.19636817 0.26333773 -0.05944368
000020 4c 61 61 3e 87 33 61 3e 72 77 5a bd db 97 6a 3e
       0.22009772 0.21992312 -0.05333657 0.22909491
000030 88 bb 0e 3e 7d 13 39 3e af 63 76 3e a9 58 b1 3d
       0.13938725 0.1807384 0.24061464 0.08659489
000040 09 ee 98 3d 0f be 56 3e 24 1e cb 3d e6 6d 29 be
       0.074672766 0.20970939 0.09917858 -0.16545829
000050 28 7b ad 3d 33 3a d0 3c 96 f5 f5 3c 61 6a a5 bd
       0.08470756 0.025418377 0.030024331 -0.08076931
000060 83 bb 93 3e e0 96 a7 bd 92 07 1f bd f1 6a fd bd
       0.28853998 -0.08183074 -0.03882558 -0.12373913
000070 d3 df 89 be 96 27 bb 3d 0b 31 ba 3d 9b 62 17 3e
       -0.26928577 0.0913841 0.090913855 0.14783709
000080 30 95 73 3e bf 4f 43 3d d9 d9 a4 3e 7b 17 35 be
       0.2378738 0.047683474 0.32197455 -0.17684738
000090 c3 16 3f 3e 25 30 0b 3e 40 7a 08 be cd 30 4f 3c
       0.18661027 0.13592584 -0.13327885 0.012645912
0000a0 5e 61 2f be c1 e5 b7 3c ea 20 6e be fb 9a ca bd
       -0.17126986 0.022448422 -0.23254743 -0.098928414
0000b0 99 c0 78 be 97 6f d1 3b 70 d1 9e 3c a9 37 49 be
       -0.2429222 0.0063914764 0.019386977 -0.19650139
0000c0 cb ce af bd cf dc 05 3e 80 49 ff 3d 43 74 8c 3c
       -0.085843645 0.13072513 0.12465191 0.017145282
0000d0 21 b7 d9 bd c3 89 5b bd 3e 93 52 be 9a fd 4c 3e
       -0.10630632 -0.053598177 -0.20563981 0.20018616
0000e0 32 70 d9 3c 7d 9b de 3d a3 0e e6 3d db fb 5b 3e
       0.026542757 0.10869501 0.112332605 0.21482794
0000f0 fa 15 0d be 84 41 10 3e 5e 9f ea bd 12 d7 00 3e
       -0.13777915 0.14087492 -0.11456178 0.12582043
000100 4d 31 6b bd c2 27 29 3e 8a f2 a8 bd 2a 19 62 3e
       -0.057420064 0.16519073 -0.08249386 0.22079912
000110 62 e4 77 3e 59 40 5b 3e 71 0b 40 bd b9 da 90 3e
       0.24208215 0.21411265 -0.04688591 0.28291872
000120 b0 9f e8 bd 86 14 e9 3c b1 00 71 3e 65 1f 12 3e
       -0.11358583 0.02845217 0.2353542 0.14269789
000130 56 d4 e6 3a a1 c6 b7 bd 66 ee b9 3e 70 4b 63 bd
       0.0017610888 -0.08973432 0.36314696 -0.055491865

linear.weight f4 [1, 20]
000000 b1 75 31 be 05 bc 0a be bd 0c a4 be 46 51 2b 3e
       -0.17330052 -0.13548286 -0.3204097 0.16730222
000010 2f 08 42 be d5 cb d4 3d 8a 0f 9d be f1 7d 6e 3d
       -0.18948434 0.103904404 -0.30675918 0.058225576
000020 e7 54 c2 3d 1f 9b 55 3e 0e 10 d8 bd f2 d6 91 3e
       0.0948885 0.20859955 -0.10549937 0.28484303
000030 70 32 7b 3e b0 c4 8f 3e ab b2 19 be d5 4e 97 be
       0.24530959 0.28079748 -0.15009563 -0.29552332
000040 65 38 8a be cb 5a 18 be 32 d8 dc be 36 f5 30 3e
       -0.2699615 -0.14878385 -0.43133694 0.1728104

exp_avg f4 [80, 1]
000000 88 c4 78 3a d9 4f c3 38 da 57 34 ba 61 dd 7c 3a
       0.00094897347 9.3131974e-05 -0.0006879546 0.0009646025
000010 16 df 09 b9 12 c8 9b b9 fd c3 03 ba 42 aa 42 b9
       -0.00013148444 -0.00029712968 -0.0005026458 -0.00018564708
000020 32 a6 bb b8 94 d3 5a b9 22 af 4a 38 49 68 56 ba
       -8.947811e-05 -0.00020868919 4.8323658e-05 -0.0008178992
000030 e3 ed 07 39 98 ca be b9 5b 4d 2a 38 25 15 a7 39
       0.00012963223 -0.00036390568 4.06032e-05 0.00031868476
000040 5f a5 ab ba c1 6f 5d b9 73 cd 57 ba 20 0c bf 39
       -0.0013095549 -0.00021117834 -0.00082322134 0.00036439393
000050 47 c4 54 3a a0 b3 8e 39 53 01 91 3a 9a 0c ca 3a
       0.0008116406 0.00027218182 0.0011063017 0.0015415133
000060 87 f4 a2 ba 7c b4 fd b9 6b 06 25 39 73 55 32 bb
       -0.0012432494 -0.00048390392 0.00015738017 -0.0027211576
000070 e6 a3 1a b9 5f 2c 1c b9 b6 72 13 b7 f0 2f 24 bb
       -0.00014747641 -0.00014893849 -8.788591e-06 -0.0025052987
000080 dd 3d 3e ba 05 f9 46 b9 4b f3 ed ba 96 66 61 39
       -0.0007257143 -0.00018975518 -0.0018154172 0.00021495888
000090 75 c6 10 3a 84 4e a5 b9 01 c0 21 bb d4 17 cb 39
       0.00055227365 -0.0003152975 -0.0024681094 0.0003873693
0000a0 61 87 49 bb 86 3a fc ba d9 3d 0a bc 5c 04 94 3b
       -0.0030750858 -0.0019243516 -0.008437597 0.0045171212
0000b0 f1 5a 22 bc d6 57 ae 3b 37 3f 11 38 72 e0 e8 3b
       -0.009909377 0.0053205295 3.4629567e-05 0.007106834
0000c0 2a c4 96 b9 a7 78 20 3a d4 52 9f 39 2f 56 f5 39
       -0.00028756383 0.0006121494 0.00030388555 0.00046794253
0000d0 be be d3 3a 07 80 96 3b 53 0f a5 3a a4 e2 67 3b
       0.0016154868 0.004592899 0.0012593068 0.003538289
0000e0 80 72 41 bb f7 ec 93 ba 4e d1 cc 3b 5d ad cc 3a
       -0.002951771 -0.0011285831 0.006250537 0.0015615631
0000f0 c3 c1 8f 39 2a a9 b1 39 75 dc c5 ba d2 0c 30 3a
       0.0002741945 0.00033886108 -0.0015095609 0.00067157776
000100 09 a6 d2 b9 6b 4a 0f ba e4 18 0e 36 c4 0d 84 ba
       -0.00040178027 -0.0005466106 2.1174137e-06 -0.0010074903
000110 82 de 76 38 2a 25 be 39 a6 b1 6e 3a 6f ac 7c ba
       5.8858197e-05 0.00036267313 0.0009105451 -0.0009638732
000120 af 2c 34 3a 16 e1 27 38 f6 b6 e0 b8 99 e4 d4 39
       0.00068731135 4.002553e-05 -0.000107152315 0.0004060611
000130 fe 78 84 3a a6 db 25 3a 78 33 63 ba 99 77 be b9
       0.0010106859 0.00063269807 -0.0008667032 -0.0003632873

exp_avg_sq f4 [80, 1]
000000 70 55 ca 36 ff 0a d9 36 5d 9b 94 37 6b 99 9e 36
       6.0300154e-06 6.468384e-06 1.7715322e-05 4.726627e-06
000010 10 29 47 36 3f 6c fe 35 f8 51 61 38 2a 72 3a 36
       2.9677212e-06 1.8955978e-06 5.372052e-05 2.7782612e-06
000020 8b e3 a1 35 88 2f d0 37 21 d4 82 35 90 96 82 37
       1.2061658e-06 2.4817666e-05 9.747492e-07 1.5567319e-05
000030 48 4a 75 38 b3 a5 c0 36 fd 03 23 38 1d 1e df 37
       5.848173e-05 5.741336e-06 3.8865943e-05 2.6597694e-05
000040 32 98 07 38 da c4 f4 35 55 c3 37 37 00 99 ad 36
       3.232825e-05 1.8236708e-06 1.0953129e-05 5.1736133e-06
000050 08 29 0a 37 0a df f5 36 32 5b 27 37 13 a2 10 37
       8.234994e-06 7.327534e-06 9.975209e-06 8.620805e-06
000060 52 8f f1 36 93 e9 10 36 e7 45 13 38 af 7c 60 36
       7.1990444e-06 2.159363e-06 3.5112633e-05 3.3451176e-06
000070 7d 30 d9 34 0c c1 84 37 37 5b 04 36 38 49 24 38
       4.045468e-07 1.582552e-05 1.9722627e-06 3.9168837e-05
000080 f6 75 20 38 c0 2d 05 37 73 8d ab 37 82 81 f4 37
       3.8256832e-05 7.93807e-06 2.0450656e-05 2.9147373e-05
000090 3e 14 92 37 33 ce 92 36 9a 77 fa 36 67 7e d4 36
       1.7413982e-05 4.375144e-06 7.464504e-06 6.3328075e-06
0000a0 b0 a8 2b 39 79 26 27 39 0e 36 01 3a 8d fb 3c 39
       0.00016370672 0.00015940693 0.0004929014 0.00018022787
0000b0 32 9d 96 39 73 1b 76 38 66 ca 4c 3a 1d c2 8e 38
       0.0002872735 5.8676535e-05 0.0007812142 6.807244e-05
0000c0 23 f0 88 38 fd 0d ae 39 e0 1f 95 37 2c 71 6a 3a
       6.529714e-05 0.00033198288 1.7777027e-05 0.00089432555
0000d0 9b 2f 0a 3a e6 56 81 3a 07 88 c5 39 c2 94 ba 39
       0.0005271376 0.0009867817 0.00037676116 0.00035587518
0000e0 ab 2d 29 3a 79 f6 c5 38 64 80 a7 3a c7 2c 81 38
       0.00064536434 9.439601e-05 0.0012779352 6.15954e-05
0000f0 47 ec c9 37 fa 92 aa 37 f5 08 27 38 d0 c7 37 37
       2.4071092e-05 2.033402e-05 3.9824245e-05 1.09541725e-05
000100 10 be dc 37 ad be c8 36 4e ac 18 39 dc ef 88 36
       2.6314548e-05 5.982662e-06 0.00014560038 4.081039e-06
000110 bc 92 9a 35 de f1 81 38 c5 c6 88 37 1f 88 0e 38
       1.15166e-06 6.1962506e-05 1.6305023e-05 3.398221e-05
000120 fb d6 d0 38 10 bc a5 36 79 a1 b1 38 a7 0e 97 38
       9.958256e-05 4.9392766e-06 8.470094e-05 7.20297e-05
000130 f7 7c 35 38 4b cf 4c 37 d3 0a 07 37 90 fd c9 37
       4.3270145e-05 1.2207612e-05 8.049147e-06 2.4079141e-05

exp_avg f4 [80, 20]
000000 46 fc 50 39 c8 f1 09 b9 da a9 13 39 8c 6d 7f b9
       0.00019930405 -0.00013155409 0.00014082287 -0.00024359504
000010 db b0 0a 3a e1 ce 7a b9 e8 a9 f9 b8 57 dd 46 34
       0.0005290636 -0.00023918926 -0.00011904893 1.852071e-07
000020 eb d7 a8 38 9a 20 14 39 38 06 e2 b9 1e 98 a7 39
       8.051082e-05 0.00014126525 -0.00043110712 0.00031966058
000030 72 50 4e 39 94 4e 21 39 72 b0 0b 39 d9 5f 51 b9
       0.00019675659 0.00015383429 0.00013321804 -0.00019967499
000040 f7 9d aa 38 39 a3 9a b9 8a 60 95 b8 59 80 61 b9
       8.135655e-05 -0.0002949478 -7.1228555e-05 -0.00021505485
000050 68 9c bf 36 1b 1d a9 b8 3f 00 03 b5 87 55 4c 36
       5.7104517e-06 -8.063969e-05 -4.880166e-07 3.0448152e-06
000060 b4 f3 1a 39 8f 03 81 b8 28 68 de b8 49 b2 1c b8
       0.00014777371 -6.151862e-05 -0.000106051855 -3.735934e-05
000070 93 34 9a 38 17 6a ce 38 2f 25 a4 b8 88 71 f8 38
       7.353085e-05 9.842606e-05 -7.8270554e-05 0.000118467084
000080 c2 c7 80 38 76 da f7 38 38 e0 b5 b8 7c 2b 08 b9
       6.1407234e-05 0.00011818569 -8.6725166e-05 -0.0001298617
000090 24 7b 41 b7 4d 9a c7 b8 da e9 d0 b8 79 0d 11 37
       -1.1532367e-05 -9.5178e-05 -9.961771e-05 8.64581e-06
0000a0 be 8f d7 37 99 1d 20 b9 56 df e0 b8 7f d6 25 b8
       2.5696932e-05 -0.00015269815 -0.00010722752 -3.953883e-05
0000b0 3a 66 ee 39 95 8e 6c b9 49 94 6c b9 1e 53 1e ba
       0.00045471062 -0.0002255983 -0.00022561954 -0.0006039607
0000c0 38 0c 6e 37 e4 f5 3b 39 98 bf 41 b9 b7 f1 e4 b8
       1.418875e-05 0.00017925311 -0.00018477289 -0.0001091691
0000d0 60 78 19 39 ad 30 29 39 88 c9 95 b8 db c7 10 b9
       0.0001463606 0.00016135229 -7.142412e-05 -0.00013807362
0000e0 4b dc 83 b9 2e 1f 01 b9 11 a6 af b9 d6 f6 ff 38
       -0.00025150398 -0.00012314014 -0.0003350233 0.00012205324
0000f0 d5 01 03 3a 68 9f 8d b9 8a c3 b3 39 fe ea 1e ba
       0.00049975264 -0.00027012383 0.00034287228 -0.0006062238
000100 92 1c 36 3a 7b 5a c2 b9 d9 b9 60 b9 7b 4d 2a 39
       0.00069470063 -0.00037069977 -0.00021431538 0.00016241327
000110 99 f8 65 39 6d 61 9c 39 30 66 8c ba c7 26 4d 3a
       0.00021931752 0.00029827227 -0.0010711607 0.00078259077
000120 30 72 03 3a b2 15 99 39 b1 05 80 39 57 e5 dd b9
       0.00050142687 0.00029198598 0.00024418303 -0.00042323276
000130 56 f7 1e 39 89 df 34 ba 22 a2 95 b8 0d 82 19 ba
       0.00015160194 -0.00068997644 -7.135073e-05 -0.0005855866
000140 b8 40 3a 3a 3c c0 e2 b8 7c 63 1e 3a f9 9e 6a ba
       0.0007104981 -0.00010812326 0.0006042046 -0.00089500804
000150 76 96 2d 3a 8d 5e a0 b9 61 fa cf 37 f5 fd 64 3a
       0.00066218467 -0.00030588024 2.4792915e-05 0.00087353523
000160 75 85 ef 38 8a e8 52 38 a7 76 a6 ba 46 ee 98 3a
       0.000114212664 5.028447e-05 -0.0012700156 0.0011667691
000170 ec e4 df 39 0f 8e 81 39 83 84 38 3a d3 7c d0 b9
       0.00042704435 0.0002471064 0.0007038789 -0.00039765853
000180 56 e4 3b 3a 54 c9 4f ba d7 df 57 39 a2 0f 80 ba
       0.00071675086 -0.00079264236 0.00020587385 -0.0009770284
000190 67 66 e7 39 51 bf 2d b9 d4 f3 b1 39 dc f6 0a ba
       0.0004413605 -0.00016569837 0.00033941737 -0.0005301067
0001a0 df de 08 3a 75 bb a5 b9 4e 34 2c b9 20 7e 8d 39
       0.00052211987 -0.0003161092 -0.00016422683 0.00026987586
0001b0 9b b7 98 38 91 db 4e 39 12 e4 50 ba 2d d8 1d 3a
       7.282124e-05 0.00019727486 -0.00079685554 0.00060212874
0001c0 31 1e bc 39 80 4c c3 38 78 53 0a 39 85 a7 89 b9
       0.0003588065 9.312574e-05 0.000131918 -0.00026255488
0001d0 39 d9 3d 39 7d a5 fe b9 04 97 05 39 79 15 13 ba
       0.00018105366 -0.00048569954 0.00012740126 -0.00056108047
0001e0 7f a9 e8 39 0d c7 a4 b8 f5 1b fb 39 8c 2d 1b ba
       0.00044376773 -7.8572055e-05 0.0004789528 -0.0005919568
0001f0 36 47 64 3a bb fb e7 b9 f5 10 1c b9 3f eb 13 3a
       0.0008708121 -0.00044247307 -0.00014883636 0.00056426594
000200 a8 c9 e8 36 00 9c 0f 39 26 5a 2c ba 1b e8 3b 3a
       6.9376147e-06 0.00013695657 -0.00065747125 0.00071680703
000210 d8 12 89 39 ef b4 9c 38 56 05 3a 39 e7 b4 44 b9
       0.00026144716 7.472361e-05 0.0001774033 -0.00018759408
000220 60 22 d8 39 30 39 03 ba 2c ac b4 39 d8 f7 1f ba
       0.00041224342 -0.0005005775 0.00034460553 -0.00061023
000230 ed c7 c0 39 06 70 a2 b9 84 39 86 39 4f da 04 ba
       0.0003677005 -0.00030982512 0.00025601324 -0.0005067931
000240 a8 48 f0 39 a1 48 a7 b9 f4 8a a6 b9 f8 4c 84 39
       0.000458305 -0.00031906835 -0.00031765515 0.00025234348
000250 32 c6 62 39 b5 21 bd 39 01 26 23 ba 3a fe 07 3a
       0.00021626873 0.00036074003 -0.00062236196 0.0005187724
000260 9b c1 d8 39 8b 35 4c 39 51 b1 35 b9 36 48 8d b9
       0.00041342978 0.00019474902 -0.0001732756 -0.00026947417
000270 f2 a9 e9 b7 a3 9f 05 ba a4 84 9a 38 a5 ed f0 b9
       -2.7854901e-05 -0.0005097335 7.3679985e-05 -0.00045953426
000280 b0 2f 23 39 b4 54 07 b8 77 ef ab 38 6f 3b 61 b9
       0.00015562656 -3.2265394e-05 8.198519e-05 -0.00021479813
000290 e7 b2 d2 37 7f d8 5b b7 bd 38 1f 38 14 71 13 39
       2.5117259e-05 -1.3103824e-05 3.7961396e-05 0.00014061137
0002a0 6d 90 90 37 52 dd b5 b7 8a f6 92 b9 7e 9c 7f 39
       1.7233391e-05 -2.1679942e-05 -0.00028030976 0.00024376993
0002b0 11 5c c5 38 e1 d3 94 38 f9 d7 66 39 89 c8 ef b8
       9.410841e-05 7.0966555e-05 0.00022014965 -0.00011433761
0002c0 f5 d8 0a 39 84 36 33 b9 8e 39 5b 37 38 07 57 b9
       0.00013241528 -0.00017091079 1.3066818e-05 -0.00020506687
0002d0 ef 7a bb 39 17 ce 85 b8 14 73 c4 39 43 12 f0 b9
       0.00035759012 -6.3803214e-05 0.00037469773 -0.00045789973
0002e0 95 34 25 3a af 42 a1 b9 f0 0b 53 b8 b0 a5 0c 3a
       0.0006302086 -0.00030757996 -5.0317438e-05 0.00053652655
0002f0 9b 23 01 38 e2 2c 8f 38 60 8f 06 ba 3c 88 17 3a
       3.0789157e-05 6.8271314e-05 -0.0005133059 0.00057804934
000300 06 3d 4b 39 03 8e b6 38 73 f5 7e 39 60 33 25 b9
       0.00019382322 8.704888e-05 0.00024314765 -0.00015754765
000310 5c da c5 39 3f f1 d0 b9 e4 ca 95 39 01 a3 07 ba
       0.00037737458 -0.00039852594 0.0002857066 -0.0005174131
000320 5b 79 97 38 94 3d 7f b7 d1 ef 85 38 82 99 a5 b8
       7.222845e-05 -1.5213522e-05 6.3866035e-05 -7.896406e-05
000330 e5 ae a5 38 aa 65 1f b8 97 a6 e3 36 a2 0a d4 38
       7.90039e-05 -3.8003236e-05 6.784521e-06 0.00010110928
000340 59 ec 1e 37 46 c5 2b 37 fa cb e6 b8 d6 5b d5 38
       9.472563e-06 1.0238326e-05 -0.00011005248 0.00010173737
000350 8f c7 2d 38 f2 95 19 37 a2 09 6f 38 40 a4 08 b8
       4.1432268e-05 9.1544225e-06 5.699101e-05 -3.2577896e-05
000360 cc fe 65 38 de 8d 8f b8 82 65 34 38 d1 b8 d7 b8
       5.4835153e-05 -6.845196e-05 4.300988e-05 -0.00010286424
000370 28 cf 22 39 cc 59 15 b9 5a 46 1a 39 cf b1 6c b9
       0.00015526696 -0.00014243199 0.00014712792 -0.00022572953
000380 b2 b0 02 37 90 0a 02 b9 26 46 06 b9 9b 4e a0 39
       7.789744e-06 -0.00012401701 -0.00012805368 0.00030576144
000390 83 88 c4 38 cf d8 3c 39 e0 21 3e b9 db 17 49 39
       9.3714356e-05 0.00018009845 -0.00018132431 0.0001917774
0003a0 b6 b5 08 39 b5 13 db 38 b8 2d 53 b9 db 5e b1 b8
       0.00013037663 0.000104464045 -0.0002013956 -8.457686e-05
0003b0 72 02 04 b9 8f 1f 5f b9 24 38 3c 39 c7 01 89 b9
       -0.00012589412 -0.00021278694 0.00017949991 -0.00026132
0003c0 eb 8f c4 39 62 09 1f b9 e6 9f d1 39 00 16 d0 b9
       0.0003749126 -0.00015166917 0.0003998272 -0.00039689243
0003d0 c4 fd 26 3a 11 a7 c1 b9 26 0f 6b b9 e3 1b f1 39
       0.00063702115 -0.00036936303 -0.0002241699 0.0004598788
0003e0 17 b8 aa 37 f0 5c 84 39 99 50 0f ba 82 15 0a 3a
       2.0351303e-05 0.00025246246 -0.0005467027 0.0005267487
0003f0 3b 32 88 39 ea ce d8 36 2d 7b fc b8 24 7a 54 b9
       0.00025977366 6.4613896e-06 -0.0001203924 -0.00020263396

exp_avg_sq f4 [80, 20]
000000 91 96 93 35 57 f6 11 34 29 95 74 35 00 8e 9e 35
       1.0996174e-06 1.3593795e-07 9.111414e-07 1.1813245e-06
000010 61 b3 f1 35 3f f3 b1 34 a4 54 fe 34 0f fa d1 35
       1.8008105e-06 3.3145804e-07 4.737277e-07 1.564449e-06
000020 c4 f0 e6 32 9b 8c 07 35 54 77 30 36 10 61 c2 35
       2.6885012e-08 5.0496027e-07 2.6295502e-06 1.4482375e-06
000030 51 6e eb 34 6f ff 49 33 49 38 fb 35 ab d5 9f 34
       4.3852427e-07 4.7031275e-08 1.8717338e-06 2.9771522e-07
000040 98 2a b4 35 d4 07 40 35 56 b0 b9 34 e4 23 0e 36
       1.3423441e-06 7.1536965e-07 3.4587237e-07 2.118054e-06
000050 27 d5 13 34 f8 e9 0a 34 57 a4 0e 34 51 15 0e 34
       1.3767986e-07 1.2937369e-07 1.3284567e-07 1.3232535e-07
000060 f4 0b cd 34 3d 53 20 34 bd fb 9a 34 20 4b a7 33
       3.8192923e-07 1.4931443e-07 2.88679e-07 7.790209e-08
000070 ed b9 7a 32 e8 ad d6 34 94 e3 2e 35 61 ea 89 34
       1.459419e-08 3.998714e-07 6.515122e-07 2.5688772e-07
000080 ab 5b 90 34 11 b8 f3 32 93 22 ea 34 24 1d 4f 34
       2.6888787e-07 2.8372627e-08 4.3611053e-07 1.9288979e-07
000090 7f f9 d5 33 7a 98 44 34 bf d5 db 33 ee ff 8b 34
       9.9639685e-08 1.8309393e-07 1.02368624e-07 2.607698e-07
0000a0 b4 07 11 36 1e 1a 8b 34 7b 39 01 36 42 3d 1b 36
       2.1611168e-06 2.590977e-07 1.9255956e-06 2.3132457e-06
0000b0 a1 3e 85 36 dc f0 6e 35 b3 3a 92 35 2a f2 2f 36
       3.971e-06 8.9012406e-07 1.0894931e-06 2.621799e-06
0000c0 e2 1c 79 33 16 6e 91 35 39 05 b8 36 38 8f 39 36
       5.80011e-08 1.0835381e-06 5.4842353e-06 2.7650512e-06
0000d0 22 c4 81 35 47 e4 fe 33 6e 5c 61 36 7f 43 1e 35
       9.668331e-07 1.186932e-07 3.3581414e-06 5.8957806e-07
0000e0 cd 2f 27 36 32 5a c4 35 9e f2 54 35 30 cf 8b 36
       2.4912763e-06 1.4629388e-06 7.932921e-07 4.1666426e-06
0000f0 91 96 8c 35 3b 6d c4 34 ae a6 6e 35 a8 d1 b4 35
       1.0474633e-06 3.658732e-07 8.890446e-07 1.3472063e-06
000100 2b 63 0c 36 dd 1d 3c 35 d8 de 89 35 c4 32 b9 35
       2.091935e-06 7.0078914e-07 1.0272151e-06 1.3798349e-06
000110 d7 d6 94 33 00 7e 91 35 4f 36 70 36 23 47 f5 35
       6.930866e-08 1.0840013e-06 3.5794399e-06 1.8274626e-06
000120 ea 83 5b 35 2e 4b 56 34 b3 77 27 36 56 00 18 35
       8.177582e-07 1.9957653e-07 2.4954613e-06 5.66249e-07
000130 61 54 c0 35 3d 21 b0 35 e3 e9 a3 34 3f dd fa 35
       1.4329672e-06 1.3122695e-06 3.053129e-07 1.8690843e-06
000140 8c 64 f7 34 cb b1 b7 33 3b 55 b0 34 13 d3 08 35
       4.6080493e-07 8.553942e-08 3.2844568e-07 5.09711e-07
000150 a8 0f 31 35 a9 a2 c9 33 e9 08 2d 34 ed 3b 23 35
       6.596042e-07 9.3893796e-08 1.6115122e-07 6.0809435e-07
000160 06 98 4d 32 28 2b 71 34 ba 15 c3 35 97 4c 65 35
       1.1967137e-08 2.2460574e-07 1.4534955e-06 8.54206e-07
000170 f1 61 9e 34 f9 73 cd 32 91 1e 37 35 62 a6 76 34
       2.9501055e-07 2.391788e-08 6.821729e-07 2.2971065e-07
000180 15 f4 0d 35 36 a9 c8 34 f0 94 a1 33 f3 01 5c 35
       5.288178e-07 3.737602e-07 7.524238e-08 8.1959223e-07
000190 de 2f 1b 34 26 ef d6 33 7d e5 dc 33 df 7b 2b 34
       1.4452914e-07 1.00086524e-07 1.0286292e-07 1.597068e-07
0001a0 56 eb c6 34 9d b4 1e 34 fd e0 74 34 58 a1 e1 33
       3.7051603e-07 1.4780603e-07 2.2806121e-07 1.0506727e-07
0001b0 65 20 55 32 30 52 9d 34 2b 57 38 35 c3 61 8c 34
       1.2405597e-08 2.9303328e-07 6.867219e-07 2.6148163e-07
0001c0 ad f6 7c 34 16 81 06 33 8d b7 de 34 5c eb 20 34
       2.3559069e-07 3.131671e-08 4.1484273e-07 1.4986784e-07
0001d0 22 a0 22 34 45 92 68 34 c3 94 50 33 fa 6a 82 34
       1.5145682e-07 2.1659896e-07 4.8564072e-08 2.4292223e-07
0001e0 34 46 ba 35 c0 0e 95 35 e2 f2 a0 35 8f 25 bc 35
       1.3878512e-06 1.1105658e-06 1.1991617e-06 1.4018023e-06
0001f0 b9 9d 6c 36 c9 1e 93 35 2c 40 11 36 11 4e 8b 35
       3.5258547e-06 1.0961313e-06 2.1644037e-06 1.0379027e-06
000200 ff 64 24 34 7b 83 55 36 fd c6 d9 36 5a 9e 59 36
       1.5310432e-07 3.1816005e-06 6.4902692e-06 3.2427693e-06
000210 a0 99 1e 36 cc 6f 82 34 6e 6c 48 36 48 49 ea 35
       2.3633256e-06 2.429573e-07 2.9865437e-06 1.7455686e-06
000220 48 7f 63 35 6a 4d 00 36 ed 98 fd 34 46 cd 2c 36
       8.474931e-07 1.9118547e-06 4.723619e-07 2.5749482e-06
000230 5d 90 7b 34 20 8d aa 33 3d cd 8b 34 3b af 8a 34
       2.3428716e-07 7.9419124e-08 2.6040098e-07 2.5832e-07
000240 59 e3 e1 34 65 5e 5a 34 05 d1 59 34 a8 54 8e 34
       4.2074933e-07 2.0337173e-07 2.0285741e-07 2.6511157e-07
000250 a1 94 17 33 df b7 67 34 e4 4d 0b 35 da 78 5f 34
       3.5292604e-08 2.1580443e-07 5.189488e-07 2.0812459e-07
000260 8a 8b 17 34 a4 02 8d 33 1a f2 f3 34 f5 7b dd 33
       1.4113735e-07 6.5663045e-08 4.543843e-07 1.0313662e-07
000270 49 fc 78 34 e3 d3 4e 34 99 39 94 34 6b 19 fc 34
       2.318858e-07 1.9262329e-07 2.7609056e-07 4.6957152e-07
000280 77 90 b3 32 f4 17 95 32 c9 50 97 32 fc 29 e9 32
       2.0904038e-08 1.7356776e-08 1.761545e-08 2.7143862e-08
000290 98 af 20 33 00 96 95 32 96 03 19 33 f2 7f 38 33
       3.7412605e-08 1.7414095e-08 3.562635e-08 4.2957204e-08
0002a0 ad bf 64 31 5c 63 38 33 ca 00 a1 33 b3 eb 28 33
       3.3287322e-09 4.2931205e-08 7.49729e-08 3.9329915e-08
0002b0 c2 19 0a 33 6e 95 cb 31 25 7b 89 33 b0 1d d7 32
       3.2154055e-08 5.9250658e-09 6.4019595e-08 2.5042795e-08
0002c0 4b 34 00 33 b4 13 fd 32 d5 e2 8e 32 49 c1 2d 33
       2.9849883e-08 2.9462036e-08 1.6634127e-08 4.0455493e-08
0002d0 fe 39 59 35 72 5c ef 34 70 10 57 35 ca 66 5d 35
       8.092319e-07 4.4584482e-07 8.011766e-07 8.2478493e-07
0002e0 9b 16 11 36 8a be 3c 35 d1 c0 6d 35 10 0a 32 35
       2.1619842e-06 7.031273e-07 8.8569965e-07 6.632481e-07
0002f0 6f ab 4b 33 d1 b5 b4 35 aa 67 4b 36 ec f6 c1 35
       4.742054e-08 1.3463961e-06 3.0309698e-06 1.4451484e-06
000300 13 a4 8d 35 5e 5f 87 33 b5 02 ae 35 4c b6 39 35
       1.055307e-06 6.3037746e-08 1.2964798e-06 6.918315e-07
000310 d8 9b a7 34 bf 8d 76 35 f7 a4 eb 34 ca ce d2 35
       3.1219565e-07 9.184841e-07 4.389219e-07 1.5706403e-06
000320 55 86 26 33 f1 49 5e 32 de 7b fe 32 4d d5 dc 32
       3.877206e-08 1.2938913e-08 2.962582e-08 2.5708369e-08
000330 40 dd 30 33 3a 57 99 31 4e e7 05 33 df 30 17 33
       4.117942e-08 4.4628026e-09 3.1176846e-08 3.5201875e-08
000340 57 0f 11 31 8c 8d 25 33 de 30 c9 33 41 b3 18 33
       2.1108997e-09 3.8545792e-08 9.368681e-08 3.555329e-08
000350 1c f6 d6 32 90 b0 86 31 b6 3a 94 33 2d b0 ba 32
       2.5024796e-08 3.919986e-09 6.9024665e-08 2.1733365e-08
000360 c5 cb 3f 33 00 52 5d 32 6b f4 73 32 f7 67 9f 33
       4.465598e-08 1.2882538e-08 1.4200036e-08 7.4229256e-08
000370 1e 42 95 34 79 3f a0 34 dd 61 83 34 5a 3e 80 34
       2.780152e-07 2.9848505e-07 2.4471856e-07 2.3887225e-07
000380 ad 57 15 35 20 22 4e 34 80 6e 29 35 4b e2 ea 34
       5.563441e-07 1.919766e-07 6.3118205e-07 4.3750546e-07
000390 18 d6 25 33 7c 4d 6c 35 2a 2c 8e 35 85 5f 00 35
       3.8611773e-08 8.8029606e-07 1.0592678e-06 4.7822715e-07
0003a0 28 21 1a 35 7a b2 85 33 c8 ca 8a 35 c7 db ee 34
       5.741772e-07 6.22576e-08 1.0340818e-06 4.4490864e-07
0003b0 56 ce a0 34 61 ed 8a 34 ae 2f 86 34 e7 8f 1d 35
       2.9952452e-07 2.587722e-07 2.4994137e-07 5.8696463e-07
0003c0 4f 3c e1 35 3a b5 bb 35 bf a6 9e 35 7e cb c0 35
       1.6781358e-06 1.398533e-06 1.1820447e-06 1.4364339e-06
0003d0 75 9a 88 36 ad 90 96 35 6b 8c 1e 36 63 9c 88 35
       4.071097e-06 1.1217977e-06 2.3625569e-06 1.0178304e-06
0003e0 28 bd 3a 34 e2 a6 75 36 86 2f 06 37 ac 3e 8a 36
       1.7391415e-07 3.6604984e-06 7.998087e-06 4.1200165e-06
0003f0 67 11 49 36 fe 9c 92 34 e6 96 54 36 f2 94 21 36
       2.9961463e-06 2.7308846e-07 3.1678296e-06 2.4077567e-06

exp_avg f4 [80]
000000 3a 9f ed b9 62 b9 63 b8 93 22 e8 39 59 f7 b5 ba
       -0.00045322796 -5.429367e-05 0.00044276248 -0.001388292
000010 d2 4c 1a bb a1 bf b1 ba 61 f8 8e ba c1 0e 36 ba
       -0.0023544324 -0.0013561138 -0.0010907763 -0.00069449475
000020 a3 7e fb b9 40 6b 8c ba b3 9d 83 b9 40 b4 cb b9
       -0.00047968802 -0.0010713115 -0.00025103762 -0.00038853474
000030 a9 27 af ba 10 ed 1f ba 91 68 1c ba b4 f1 0e ba
       -0.001336326 -0.0006100694 -0.00059665093 -0.00054528867
000040 2f c4 65 3a 47 88 08 ba b3 f6 82 ba 60 5b 6e b9
       0.00087648904 -0.0005208295 -0.0009991735 -0.00022731489
000050 96 74 27 ba 91 4f af 39 6e 6d 66 39 22 53 fa ba
       -0.0006387917 0.00033437883 0.00021975275 -0.0019098262
000060 81 7a 75 bb 6d 45 d4 ba b2 1a 1e bb 61 74 6f 38
       -0.0037457051 -0.0016195007 -0.0024124798 5.7090427e-05
000070 62 f7 d2 39 40 c5 b4 ba 36 da ad b9 95 e2 8f 3a
       0.00040238636 -0.0013791695 -0.0003315971 0.0010977561
000080 02 9b f0 ba e7 d5 46 3a 2a 27 05 bb 4d df 05 3a
       -0.0018356743 0.00075849745 -0.0020317533 0.0005106822
000090 ad e2 86 3a 6b 63 9a b9 3a f4 dc 3a c9 aa 08 ba
       0.0010290943 -0.0002944724 0.0016857453 -0.0005213437
0000a0 23 24 0a b9 18 07 d3 39 ed 41 0a 3b 41 b2 1a bb
       -0.00013174168 0.0004025034 0.0021096424 -0.0023604783
0000b0 3c 1f 01 ba b6 ff a8 bb 06 d2 8b bc 88 73 e2 bb
       -0.0004925614 -0.0051574362 -0.01706792 -0.006910745
0000c0 7d d1 bc bb 4f b1 79 3c be f5 88 b9 d3 1a c9 bb
       -0.0057622776 0.015240028 -0.00026123034 -0.006137231
0000d0 e0 95 4e 3c a6 5c 13 bc ef d7 31 bd 40 eb 1b bb
       0.012608975 -0.008994257 -0.04341882 -0.0023791343
0000e0 cf 84 66 bc 41 2f 91 ba 9e ba 08 3b 21 ab 36 b9
       -0.01406975 -0.0011076705 0.0020863186 -0.00017420623
0000f0 61 d0 c7 ba 34 73 b6 b8 b5 88 c9 39 40 1e 01 bb
       -0.0015244597 -8.6998945e-05 0.00038439562 -0.0019701868
000100 a3 ab 9e bb c7 33 e9 ba 0b 40 02 bb 4d 38 fe ba
       -0.004842238 -0.001779192 -0.0019874598 -0.0019395441
000110 92 24 16 ba 4f 8c 89 ba 34 fc f1 ba 7f 61 43 b9
       -0.00057274953 -0.0010494086 -0.0018462003 -0.0001863297
000120 b7 29 e2 ba 0b 7d 39 ba 48 4a 4c ba bd c1 00 ba
       -0.0017254864 -0.0007075823 -0.0007793051 -0.0004911682
000130 21 9b 49 3a 3b 9b 9c ba d4 8c 64 ba 75 f5 d5 b9
       0.00076906575 -0.0011948118 -0.0008718495 -0.00040809406

exp_avg_sq f4 [80]
000000 17 b4 a5 37 29 66 63 36 2b 36 1f 38 6f 1a 4c 37
       1.9753394e-05 3.38851e-06 3.7959002e-05 1.2165502e-05
000010 d1 6b 11 37 ab 7a 1c 36 04 eb 05 38 d9 65 5d 36
       8.6677765e-06 2.3317214e-06 3.1928546e-05 3.299085e-06
000020 83 02 c4 34 4c c5 9d 37 56 73 81 35 0f bf 04 37
       3.6509672e-07 1.8807732e-05 9.644816e-07 7.912297e-06
000030 8d f0 45 38 4d 65 c3 35 7a a2 b8 37 2e 8b 61 37
       4.719249e-05 1.4558115e-06 2.2010168e-05 1.344345e-05
000040 39 f4 ee 37 3e a8 c7 35 dd 1b f4 36 e8 d4 6c 37
       2.8485536e-05 1.487562e-06 7.2750104e-06 1.4116267e-05
000050 f2 a0 e9 37 33 85 af 36 69 20 1e 38 09 b3 9d 37
       2.785071e-05 5.230913e-06 3.770032e-05 1.8799228e-05
000060 ab ca b3 37 f0 fd 4a 36 10 f2 a3 38 05 a0 a4 36
       2.1432837e-05 3.0248157e-06 7.817533e-05 4.9062096e-06
000070 53 3d 3f 34 60 8b 31 38 47 a1 b3 35 cf 50 9e 37
       1.7810571e-07 4.232989e-05 1.3383477e-06 1.8872697e-05
000080 96 75 c9 38 1d a1 7e 36 1d 60 ca 38 8d 9d 8b 37
       9.606329e-05 3.794273e-06 9.650013e-05 1.6643457e-05
000090 6d 64 a7 38 b4 b2 3e 36 aa e9 be 36 03 57 aa 37
       7.981886e-05 2.8416225e-06 5.6896433e-06 2.0306097e-05
0000a0 b4 44 c3 39 ba 4f cf 39 ec 15 36 3a f0 24 b1 39
       0.00037244486 0.00039541518 0.00069460156 0.0003378759
0000b0 ce d7 1d 3a fb ac 74 39 75 54 08 3c 98 74 8e 39
       0.0006021232 0.00023334094 0.008320917 0.0002717122
0000c0 66 50 d5 38 14 80 81 3b ca 7b ff 36 59 d4 5f 3a
       0.00010171607 0.0039520357 7.614003e-06 0.0008538417
0000d0 b0 2a 88 3b 21 6d 81 3a c2 ed 77 3c 30 76 1f 3a
       0.0041554794 0.0009874442 0.0151323695 0.000608298
0000e0 5a 38 a6 3b 43 e0 b4 38 4a 4b 04 3a 4d bb 08 39
       0.0050726356 8.624841e-05 0.00050466193 0.00013039746
0000f0 ca 9a 35 38 db 15 07 37 b2 a2 83 38 3b c8 98 37
       4.329792e-05 8.051716e-06 6.276871e-05 1.8213052e-05
000100 4e ff 96 37 c5 19 84 36 2a 6a c0 38 3d f4 b9 36
       1.8000279e-05 3.9369065e-06 9.175048e-05 5.5418627e-06
000110 75 e3 f5 34 f8 94 10 38 ad 52 e3 36 46 e9 3b 37
       4.5800303e-07 3.4471013e-05 6.774752e-06 1.1200382e-05
000120 35 25 ac 38 80 00 f8 35 7a 18 c6 38 20 a1 db 37
       8.2085295e-05 1.8477585e-06 9.445935e-05 2.6181864e-05
000130 04 79 75 38 e0 64 8f 36 fd 62 95 36 df a9 ff 37
       5.8525256e-05 4.2734755e-06 4.45207e-06 3.0477471e-05

exp_avg f4 [80]
000000 3a 9f ed b9 62 b9 63 b8 93 22 e8 39 59 f7 b5 ba
       -0.00045322796 -5.429367e-05 0.00044276248 -0.001388292
000010 d2 4c 1a bb a1 bf b1 ba 61 f8 8e ba c1 0e 36 ba
       -0.0023544324 -0.0013561138 -0.0010907763 -0.00069449475
000020 a3 7e fb b9 40 6b 8c ba b3 9d 83 b9 40 b4 cb b9
       -0.00047968802 -0.0010713115 -0.00025103762 -0.00038853474
000030 a9 27 af ba 10 ed 1f ba 91 68 1c ba b4 f1 0e ba
       -0.001336326 -0.0006100694 -0.00059665093 -0.00054528867
000040 2f c4 65 3a 47 88 08 ba b3 f6 82 ba 60 5b 6e b9
       0.00087648904 -0.0005208295 -0.0009991735 -0.00022731489
000050 96 74 27 ba 91 4f af 39 6e 6d 66 39 22 53 fa ba
       -0.0006387917 0.00033437883 0.00021975275 -0.0019098262
000060 81 7a 75 bb 6d 45 d4 ba b2 1a 1e bb 61 74 6f 38
       -0.0037457051 -0.0016195007 -0.0024124798 5.7090427e-05
000070 62 f7 d2 39 40 c5 b4 ba 36 da ad b9 95 e2 8f 3a
       0.00040238636 -0.0013791695 -0.0003315971 0.0010977561
000080 02 9b f0 ba e7 d5 46 3a 2a 27 05 bb 4d df 05 3a
       -0.0018356743 0.00075849745 -0.0020317533 0.0005106822
000090 ad e2 86 3a 6b 63 9a b9 3a f4 dc 3a c9 aa 08 ba
       0.0010290943 -0.0002944724 0.0016857453 -0.0005213437
0000a0 23 24 0a b9 18 07 d3 39 ed 41 0a 3b 41 b2 1a bb
       -0.00013174168 0.0004025034 0.0021096424 -0.0023604783
0000b0 3c 1f 01 ba b6 ff a8 bb 06 d2 8b bc 88 73 e2 bb
       -0.0004925614 -0.0051574362 -0.01706792 -0.006910745
0000c0 7d d1 bc bb 4f b1 79 3c be f5 88 b9 d3 1a c9 bb
       -0.0057622776 0.015240028 -0.00026123034 -0.006137231
0000d0 e0 95 4e 3c a6 5c 13 bc ef d7 31 bd 40 eb 1b bb
       0.012608975 -0.008994257 -0.04341882 -0.0023791343
0000e0 cf 84 66 bc 41 2f 91 ba 9e ba 08 3b 21 ab 36 b9
       -0.01406975 -0.0011076705 0.0020863186 -0.00017420623
0000f0 61 d0 c7 ba 34 73 b6 b8 b5 88 c9 39 40 1e 01 bb
       -0.0015244597 -8.6998945e-05 0.00038439562 -0.0019701868
000100 a3 ab 9e bb c7 33 e9 ba 0b 40 02 bb 4d 38 fe ba
       -0.004842238 -0.001779192 -0.0019874598 -0.0019395441
000110 92 24 16 ba 4f 8c 89 ba 34 fc f1 ba 7f 61 43 b9
       -0.00057274953 -0.0010494086 -0.0018462003 -0.0001863297
000120 b7 29 e2 ba 0b 7d 39 ba 48 4a 4c ba bd c1 00 ba
       -0.0017254864 -0.0007075823 -0.0007793051 -0.0004911682
000130 21 9b 49 3a 3b 9b 9c ba d4 8c 64 ba 75 f5 d5 b9
       0.00076906575 -0.0011948118 -0.0008718495 -0.00040809406

exp_avg_sq f4 [80]
000000 17 b4 a5 37 29 66 63 36 2b 36 1f 38 6f 1a 4c 37
       1.9753394e-05 3.38851e-06 3.7959002e-05 1.2165502e-05
000010 d1 6b 11 37 ab 7a 1c 36 04 eb 05 38 d9 65 5d 36
       8.6677765e-06 2.3317214e-06 3.1928546e-05 3.299085e-06
000020 83 02 c4 34 4c c5 9d 37 56 73 81 35 0f bf 04 37
       3.6509672e-07 1.8807732e-05 9.644816e-07 7.912297e-06
000030 8d f0 45 38 4d 65 c3 35 7a a2 b8 37 2e 8b 61 37
       4.719249e-05 1.4558115e-06 2.2010168e-05 1.344345e-05
000040 39 f4 ee 37 3e a8 c7 35 dd 1b f4 36 e8 d4 6c 37
       2.8485536e-05 1.487562e-06 7.2750104e-06 1.4116267e-05
000050 f2 a0 e9 37 33 85 af 36 69 20 1e 38 09 b3 9d 37
       2.785071e-05 5.230913e-06 3.770032e-05 1.8799228e-05
000060 ab ca b3 37 f0 fd 4a 36 10 f2 a3 38 05 a0 a4 36
       2.1432837e-05 3.0248157e-06 7.817533e-05 4.9062096e-06
000070 53 3d 3f 34 60 8b 31 38 47 a1 b3 35 cf 50 9e 37
       1.7810571e-07 4.232989e-05 1.3383477e-06 1.8872697e-05
000080 96 75 c9 38 1d a1 7e 36 1d 60 ca 38 8d 9d 8b 37
       9.606329e-05 3.794273e-06 9.650013e-05 1.6643457e-05
000090 6d 64 a7 38 b4 b2 3e 36 aa e9 be 36 03 57 aa 37
       7.981886e-05 2.8416225e-06 5.6896433e-06 2.0306097e-05
0000a0 b4 44 c3 39 ba 4f cf 39 ec 15 36 3a f0 24 b1 39
       0.00037244486 0.00039541518 0.00069460156 0.0003378759
0000b0 ce d7 1d 3a fb ac 74 39 75 54 08 3c 98 74 8e 39
       0.0006021232 0.00023334094 0.008320917 0.0002717122
0000c0 66 50 d5 38 14 80 81 3b ca 7b ff 36 59 d4 5f 3a
       0.00010171607 0.0039520357 7.614003e-06 0.0008538417
0000d0 b0 2a 88 3b 21 6d 81 3a c2 ed 77 3c 30 76 1f 3a
       0.0041554794 0.0009874442 0.0151323695 0.000608298
0000e0 5a 38 a6 3b 43 e0 b4 38 4a 4b 04 3a 4d bb 08 39
       0.0050726356 8.624841e-05 0.00050466193 0.00013039746
0000f0 ca 9a 35 38 db 15 07 37 b2 a2 83 38 3b c8 98 37
       4.329792e-05 8.051716e-06 6.276871e-05 1.8213052e-05
000100 4e ff 96 37 c5 19 84 36 2a 6a c0 38 3d f4 b9 36
       1.8000279e-05 3.9369065e-06 9.175048e-05 5.5418627e-06
000110 75 e3 f5 34 f8 94 10 38 ad 52 e3 36 46 e9 3b 37
       4.5800303e-07 3.4471013e-05 6.774752e-06 1.1200382e-05
000120 35 25 ac 38 80 00 f8 35 7a 18 c6 38 20 a1 db 37
       8.2085295e-05 1.8477585e-06 9.445935e-05 2.6181864e-05
000130 04 79 75 38 e0 64 8f 36 fd 62 95 36 df a9 ff 37
       5.8525256e-05 4.2734755e-06 4.45207e-06 3.0477471e-05

exp_avg f4 [1, 20]
000000 61 57 18 3c 30 b2 70 bb cc 8c ff 3a 32 23 15 bc
       0.0092981765 -0.0036727302 0.0019496917 -0.0091026295
000010 66 e0 df 3c da c0 35 bc cc e8 a4 bb 0c 01 da bc
       0.027328681 -0.011093343 -0.0050326344 -0.026611827
000020 b8 09 e5 bb 95 a8 57 3b 55 74 40 bc cd 13 01 bc
       -0.006989684 0.003290688 -0.011746486 -0.007878256
000030 fc 0f 08 3c 4c 43 c2 bb f4 ef 5b 3b ec 9d aa ba
       0.008304592 -0.0059284326 0.0033559771 -0.0013017035
000040 1f ea 8e 3a 01 49 72 bb aa 87 b9 b9 d1 e8 a0 bb
       0.0010903514 -0.0036969783 -0.00035387027 -0.0049105664

exp_avg_sq f4 [1, 20]
000000 cb 90 dd 3a e7 ce 07 3b ce 1b a6 3a 4b 42 d3 3a
       0.0016904114 0.0020722689 0.0012673081 0.0016117779
000010 cf 00 69 3b d3 95 b2 3a 05 32 61 3b ac 4b a4 3a
       0.003555346 0.0013624973 0.003436209 0.0012534759
000020 a4 66 0e 3a ad c4 98 3b dc 73 df 3b a4 c3 8f 3b
       0.0005432165 0.0046621175 0.0068192314 0.004387336
000030 b2 d7 63 3b 7b 9c 41 3a d0 7e b1 3b c6 2f 54 3b
       0.0034766016 0.0007385683 0.0054167286 0.0032377108
000040 1a 9b 0f 3b 8d 0c 18 3b c7 4f 6c 3a c0 22 40 3b
       0.0021912516 0.002320084 0.00090145733 0.0029317588
