Topic 2.1/4.2 Cross-validation methods/lightning_logs/version_0/checkpoints/epoch=9-step=1340.ckpt (torch, 8754 bytes, 9 tensors)

net.0.weight f4 [10, 10]
000000 f7 f5 20 40 61 06 97 3f cc 32 34 3f d4 8e 61 3e
       2.5150125 1.1798822 0.7039001 0.22027141
000010 69 df 31 3f 0e 68 c9 bf dd 60 a3 bf e9 48 91 3e
       0.6948152 -1.573488 -1.2763935 0.2837594
000020 fc 1c 9d 3f a3 58 a0 3f ef 86 df 3f 8e 3b 47 3f
       1.227447 1.252705 1.7463053 0.7782525
000030 57 2b 14 be 22 76 9b 3f e7 80 8e 3f 79 5b f6 bf
       -0.14469658 1.2145426 1.1133088 -1.9246665
000040 53 8a cb be 6c a4 0a bf 9a 64 98 3f 08 9d 78 3d
       -0.3975397 -0.5415714 1.1905701 0.06069663
000050 61 c8 1e c0 b2 52 42 bf 3d 83 c0 3e f9 69 c6 3e
       -2.4809802 -0.75907433 0.37600127 0.38752726
000060 2a 19 d1 be 01 2a 99 bd f9 1b a1 3f 59 9f af 3e
       -0.4083951 -0.07478715 1.2586662 0.3430126
000070 22 60 1a c0 46 87 95 3f 51 2b 89 3f 5d 6d a3 3f
       -2.4121175 1.1681907 1.0716344 1.276775
000080 50 c4 22 bd 12 26 fd 3e 33 5e 35 3f 74 f2 fd bd
       -0.039738 0.49443108 0.7084686 -0.1239976
000090 80 55 05 bf f6 06 71 be 99 84 37 40 5b 2a a1 bf
       -0.5208359 -0.23537812 2.867468 -1.2591051
0000a0 af 2c 41 bf 1e b4 f5 3e f0 07 72 be 12 cf bc 3e
       -0.75458807 0.4798898 -0.2363584 0.36876732
0000b0 32 c7 14 3f 4b 87 1e c0 b2 96 24 bf c2 fe 09 40
       0.5811645 -2.4770076 -0.6429244 2.1561742
0000c0 6a b4 45 bf c5 82 9c 3f b7 16 e0 bf aa f8 7a be
       -0.77228415 1.2227408 -1.7506932 -0.2450892
0000d0 60 cc b5 bf e3 77 83 be b8 53 15 bf f5 d7 4a bf
       -1.4202995 -0.25677404 -0.5833087 -0.79235774
0000e0 ec db 0b c0 07 6d a5 3e 5f fd c6 bf a9 6f e8 bf
       -2.185298 0.32309744 -1.5546073 -1.8159076
0000f0 60 30 3d bf 83 2d 85 be fc 48 06 3f 3d eb 4f bf
       -0.7390194 -0.26011285 0.52455115 -0.8121832
000100 7f 14 37 bf 6a cc f6 3f a0 e6 be bf 90 8b dd 3f
       -0.7151565 1.9281132 -1.4914131 1.7308216
000110 e7 c7 9a bf b7 ad 99 bf 02 11 18 40 2a 66 13 3f
       -1.2092255 -1.2006139 2.376038 0.57577765
000120 cd bb e0 be 64 95 91 3f ff 07 7f 3f 78 52 ad 3d
       -0.4389328 1.1373715 0.99621576 0.08462995
000130 ef 3a 53 be 16 82 5e be e6 dd 08 40 61 03 14 3f
       -0.2062795 -0.21729311 2.1385436 0.57817656
000140 6f ad db be 00 cd 10 3d d9 47 8e be 2f 31 11 40
       -0.42905757 0.035351753 -0.2778919 2.268627
000150 9a b5 07 40 3a e6 24 c0 f8 a2 09 bf e1 8c 58 3f
       2.120459 -2.576552 -0.53764296 0.84589964
000160 44 c2 c2 3e 31 7b a7 3f 2e f8 8a 3f b0 1f 71 3e
       0.38038838 1.308447 1.0856988 0.23547244
000170 57 27 0b 3f 86 3c 17 3f 66 7c 89 3f 97 a8 ab 3d
       0.543569 0.59076726 1.0741088 0.08381765
000180 a0 1b 9c bf a2 fb 07 3f 26 e4 b9 3f 75 88 67 40
       -1.219593 0.53118336 1.452275 3.6177037

net.0.bias f4 [10]
000000 d6 d5 07 bd 03 25 31 3e 5d 1c 9a 3d ee 0e fd 3f
       -0.033162914 0.17299275 0.07524941 1.9770181
000010 6b 0a af 3e ab 5d 3d bd 6a 17 92 3e f3 2b 1b 40
       0.34187636 -0.046231907 0.2853349 2.4245574
000020 74 0c 3b 3e 13 62 92 3e
       0.18266469 0.2859045

net.2.weight f4 [1, 10]
000000 3c cb 1a 3f 7b da ea 3c 80 a4 a6 3e 98 3c b4 bf
       0.6046636 0.028668633 0.3254738 -1.4080992
000010 8b 0e 48 be aa 0d aa 3d c9 b9 50 bd 28 3c b9 bf
       -0.19536798 0.083033875 -0.05095843 -1.4471483
000020 3a 77 8c bd 79 f2 b4 be
       -0.06858678 -0.35341242

exp_avg f4 [10, 10]
000000 d6 4a ed 39 13 b6 e9 ba 3a 8d 94 3a 74 54 47 bb
       0.0004525992 -0.0017830752 0.0011333593 -0.0030415328
000010 00 ac 42 bb d0 c3 5d 3b ac ca 5f 3b e3 48 67 ba
       -0.002970457 0.0033838637 0.0034147901 -0.00088228117
000020 70 0a 90 3b ee 69 03 3b b5 6d 36 39 02 77 19 39
       0.0043957755 0.0020052153 0.00017397742 0.00014635551
000030 d5 94 ef 38 05 bd 3b b9 b4 1d 3d b9 ef 86 76 b9
       0.0001142413 -0.00017904125 -0.0001803551 -0.00023510655
000040 d7 34 0c b9 dc b7 ad 37 12 07 7e b9 5f d7 79 38
       -0.00013371125 2.0708823e-05 -0.00024225962 5.9566806e-05
000050 de ec 39 3b a1 af ae 3a b2 f4 61 3b 7a 61 9c bb
       0.0028369944 0.0013327488 0.0034478125 -0.0047723623
000060 c6 2a 99 bb fe fa 19 bb dc 45 0a 3b d5 4a 8e ba
       -0.0046742884 -0.002349555 0.0021098768 -0.0010856042
000070 4e 2c 51 ba 86 bd 02 3a 6e a9 a2 bb 21 e2 91 3a
       -0.0007979319 0.00049873476 -0.0049640452 0.0011130014
000080 a3 74 c8 bb cc 13 1d 3c 2a dc 21 3c 21 f0 8f 3b
       -0.00611742 0.0095872395 0.009879151 0.0043926393
000090 97 11 4a bc 4f 56 1f 3b 20 88 0b 3d d6 f5 9b bc
       -0.012333295 0.0024312919 0.034065366 -0.019038122
0000a0 73 b2 10 3a 9d e0 1a 3a 7c 7b a2 b8 c2 36 db 39
       0.0005519755 0.0005908104 -7.747763e-05 0.00041811733
0000b0 98 ae ed 39 a0 c8 6c 38 a8 b7 eb b9 0a ab 80 3a
       0.00045334245 5.645363e-05 -0.00044959527 0.0009816599
0000c0 a5 6e 55 3a 44 71 73 b9 71 74 69 b9 a8 75 e7 b9
       0.00081417925 -0.0002321648 -0.0002226399 -0.00044147414
0000d0 85 d6 17 b8 8c 3f ff 38 a2 8c 62 39 28 a6 22 39
       -3.6200992e-05 0.00012171184 0.0002160543 0.00015511422
0000e0 2a c6 2b ba 0e 15 60 b8 e2 10 0d 3a 62 bb 5c 3a
       -0.0006552661 -5.342537e-05 0.0005381239 0.0008420256
0000f0 a7 e4 24 38 53 0d 8e 38 9e da 81 37 9a 8e 91 37
       3.9313596e-05 6.7735695e-05 1.54798e-05 1.7351751e-05
000100 10 f2 fb 37 8e 2f a7 38 9c b9 1c b7 9d a5 09 b8
       3.003425e-05 7.972038e-05 -9.34154e-06 -3.2817585e-05
000110 a0 23 f9 38 a1 cb 62 b9 e8 35 a2 3b b7 1c 09 3c
       0.00011879881 -0.00021628897 0.004950274 0.008368663
000120 31 b1 02 bc 95 14 b0 3c 46 5c b4 3c e7 18 29 3b
       -0.007976816 0.02149419 0.022016656 0.0025802196
000130 05 49 8d bc a8 cf dd 3a 08 bf 2d 3d 96 53 95 bb
       -0.017246732 0.0016922848 0.04241851 -0.0045570834
000140 7e fa 13 3a 7f c4 0a 3a 08 aa cd 39 32 f8 8d b7
       0.0005644931 0.00052935624 0.0003922733 -1.6924085e-05
000150 f4 06 79 38 24 51 b2 3a ac 6f 79 39 4e e6 e3 b7
       5.93727e-05 0.0013604504 0.00023788091 -2.7167753e-05
000160 a7 b2 4f 39 2c a8 7c ba 6c 80 b7 b8 d5 c3 dc 3a
       0.00019807612 -0.00096380967 -8.7500404e-05 0.001684303
000170 98 70 08 b9 36 bc 9a 3a e5 ed af 3a 5c 56 25 3a
       -0.00013011915 0.0011805359 0.0013422339 0.0006307119
000180 05 3f 7d bb e3 38 d9 39 7e da 25 3b 49 c3 23 bb
       -0.00386423 0.0004143185 0.0025307233 -0.0024988225

exp_avg_sq f4 [10, 10]
000000 45 17 83 38 f6 5c 63 38 c4 90 7d 38 81 71 9a 38
       6.250901e-05 5.4207594e-05 6.0454724e-05 7.364434e-05
000010 c3 62 9f 38 33 eb e1 37 8c f4 e3 37 a2 07 8e 37
       7.6001066e-05 2.6931613e-05 2.7174385e-05 1.6931273e-05
000020 b2 fb c1 39 0e a4 51 38 33 6d cd 38 8b 08 89 38
       0.00036999356 4.998227e-05 9.795502e-05 6.53426e-05
000030 44 62 87 38 ed 6d a4 38 dc 89 a4 38 ce 09 de 37
       6.455605e-05 7.840605e-05 7.845808e-05 2.6469028e-05
000040 99 f8 11 38 a3 0d da 37 ec 4a df 39 bf a2 a2 38
       3.480222e-05 2.5993975e-05 0.00042589696 7.755076e-05
000050 51 68 ff 38 f1 f5 f8 38 aa bc 14 39 6f 33 1f 39
       0.00012178778 0.00011871372 0.00014184663 0.00015182582
000060 75 b1 1f 39 53 7c ad 38 41 1c a1 38 0d 45 85 38
       0.0001522953 8.27244e-05 7.682341e-05 6.354796e-05
000070 78 bb 87 3a 33 7f 49 39 18 94 21 39 c4 75 0e 39
       0.0010355553 0.00019216239 0.00015409326 0.00013586046
000080 2f d1 4e 39 76 ab 6f 39 12 c7 73 39 b0 a3 dc 38
       0.00019723618 0.0002285669 0.00023248445 0.00010520907
000090 b7 4b 47 39 30 2c a4 38 30 71 68 3a a2 64 a4 39
       0.00019006325 7.82836e-05 0.0008866964 0.00031355495
0000a0 12 54 b8 37 6e 63 cf 37 9e b0 d9 37 1c 43 33 38
       2.1973658e-05 2.4722623e-05 2.595066e-05 4.2739426e-05
0000b0 e5 67 3b 38 8a 0b 7e 37 f2 07 b0 36 ec 60 92 36
       4.4681034e-05 1.5142266e-05 5.2461337e-06 4.3624223e-06
0000c0 7c 5e fc 38 06 97 90 37 39 05 f8 38 24 87 a3 38
       0.000120338955 1.7236463e-05 0.00011826534 7.7976176e-05
0000d0 6e 62 12 39 a8 a6 f4 38 2c 72 f0 38 fd 93 d4 37
       0.00013960313 0.00011665869 0.00011465358 2.5341282e-05
0000e0 64 b7 af 37 48 16 1d 37 29 ef cf 38 9f 89 84 38
       2.0947024e-05 9.363117e-06 9.915076e-05 6.3198844e-05
0000f0 49 82 5d 38 6a 7e 4d 38 e2 97 91 38 29 59 fd 38
       5.2811843e-05 4.899354e-05 6.942429e-05 0.000120805875
000100 75 73 05 39 79 0b 60 37 11 f2 b4 37 95 45 ac 37
       0.0001272688 1.3354112e-05 2.1570393e-05 2.05364e-05
000110 63 b4 a2 39 f6 01 02 38 16 cc 25 39 f5 fe e9 38
       0.00031033446 3.099624e-05 0.00015811654 0.00011157795
000120 93 08 7f 39 30 bd ba 39 44 bb b9 39 b3 7e 02 39
       0.00024321889 0.0003561764 0.00035425473 0.00012444965
000130 10 97 a7 39 44 ed a2 38 7f 3d 88 3a 2c c1 9f 39
       0.00031965273 7.768956e-05 0.0010394304 0.00030470768
000140 31 81 29 38 25 df f5 37 f8 f0 29 38 23 ca 99 38
       4.041306e-05 2.9310186e-05 4.051716e-05 7.3332594e-05
000150 7f 79 a5 38 59 2f 86 37 4c 42 bf 37 77 03 04 37
       7.8904435e-05 1.5996093e-05 2.2799846e-05 7.86862e-06
000160 16 a8 fc 38 c9 14 c2 37 7f 85 82 38 f6 db 48 38
       0.00012047605 2.3136281e-05 6.223749e-05 4.788857e-05
000170 d8 76 3e 38 bd df 7d 38 ea b9 83 38 ea a8 9d 37
       4.5410212e-05 6.0528273e-05 6.281196e-05 1.8794515e-05
000180 c1 f0 e1 37 9e 7a f1 37 6f bd 97 39 bb bd 20 38
       2.69342e-05 2.8786537e-05 0.00028942103 3.8323673e-05

exp_avg f4 [10]
000000 d5 03 81 3c 13 bb d0 ba 85 79 98 3c 32 ee 99 bd
       0.015748898 -0.0015924893 0.018612633 -0.07516135
000010 57 4a e2 bb 74 65 80 3b 50 6f 61 ba 40 66 aa bd
       -0.0069058347 0.003918344 -0.00085996557 -0.08320284
000020 ce 92 e0 bb 32 dd 3d bc
       -0.006853438 -0.011588382

exp_avg_sq f4 [10]
000000 ea 2b af 3a 3b 3d cc 3a ff 0e 23 3b df f2 8a 3b
       0.0013364528 0.0015582213 0.0024880765 0.0042403783
000010 78 b4 ba 39 71 f7 35 3a b5 cd 99 3a c5 5c 93 3b
       0.00035611144 0.00069414737 0.0011734279 0.004497143
000020 d4 2c 01 3a 8b ed 86 3a
       0.00049276394 0.0010294182

exp_avg f4 [1, 10]
000000 c2 74 5b bc fb d5 91 bc 65 bd 69 3d 1c 00 8c 3c
       -0.013394536 -0.01780223 0.057065386 0.017089896
000010 00 b6 8e 3c e3 86 53 bc 73 57 52 3c 24 85 b7 3d
       0.017420769 -0.0129105775 0.012838232 0.089609414
000020 b3 da 86 bc 67 01 85 3c
       -0.016461706 0.01623602

exp_avg_sq f4 [1, 10]
000000 8d 70 3f 3b 1a 0a ca 3b 65 86 3e 3c f4 9d 96 3b
       0.0029211373 0.006165755 0.011628722 0.004596466
000010 5e 66 a7 3b fc 23 b4 3b d1 f0 a4 3b d0 94 46 3c
       0.0051086387 0.0054974537 0.0050335904 0.012120441
000020 e0 44 b4 3b e7 17 23 3b
       0.0055013746 0.0024886073
