Topic 2.1/4.2 Cross-validation methods/lightning_logs/version_4/checkpoints/epoch=9-step=1340.ckpt (torch, 8754 bytes, 9 tensors)

net.0.weight f4 [10, 10]
00000000: c743 fc3e f535 6fbf c81b b23e 5dc0 d73f
00000010: efc3 d93f 0d82 243f ffe7 8740 bd7b 5bbf
00000020: 153a 7b3f 5aa4 f23f 2195 aa3e a587 c9be
00000030: e037 77bf 744c 363f dfc3 9e3f 53bd 9ac0
00000040: 2877 19c0 3cf5 4cbe 7e2b cdbe 1a79 b13f
00000050: 2784 b03f cb35 583f e8a3 863d 3cf4 4c3f
00000060: 8cd8 d13e 00cf 113e 2114 0fbe c55a 1ebe
00000070: 1706 3040 137f 52bf af82 cb3e 4063 cd3e
00000080: 21d0 743e 13e8 85be ce21 13bf d801 333e
00000090: f7f1 1f40 9174 c1be 97aa 44be da67 9f3e
000000a0: ada8 13bf 1446 60bf 6fa5 303f 24d3 a53e
000000b0: e4d7 4f3f de68 11c0 0417 2c3e 8942 b43e
000000c0: 9b8c 6abf ad9e 1240 cc64 28c0 6d0d f2be
000000d0: 6a2a 95be a594 12bf 9b98 1abf 2cc3 8ebd
000000e0: c463 b63e 053f 7bbe 1d3c adbf 5b09 fcbf
000000f0: b62b 3cbf 04f2 73be 9c4e 24be 4214 633e
00000100: a34f 263e 818c b1be 4795 c53f 6b5f 7040
00000110: 1e2c 91bf 2bff 103e 7c3b b4bf bceb 043e
00000120: ded5 cebe 365a c0bf 1e44 b6bf 8591 f83e
00000130: 02d1 ba3e 271c 6f3e 1ba8 87bf 7c0b 23c0
00000140: 4c5f 2240 70d0 1a3f a60a 0cbf c7cb 67bf
00000150: 2fbc 3fbd a84d 073e 4f52 6ebf 4bab 97be
00000160: 6080 3440 0492 31be 3aab 873e d28b 5bbd
00000170: 2277 3540 9faf 2d3f dee7 163e 7451 5a3f
00000180: 4840 c93f b22e 5cbc 29e9 02bf 5bf9 0c40
0.4927046 -0.93441707 0.3478682 1.685558 1.7012919 0.6426094 4.24707 -0.85735685
0.981355 1.8956406 0.333169 -0.393613 -0.96569633 0.7121041 1.2403525 -4.835611
-2.3978977 -0.20015424 -0.40072244 1.3865082 1.379033 0.8445708 0.065742314 0.8006017
0.40985525 0.1423912 -0.13972522 -0.15464313 2.7503717 -0.8222515 0.3974814 0.40114784
0.2390752 -0.2615362 -0.57473457 0.17481172 2.4991434 -0.37784246 -0.192057 0.3113392
-0.57679254 -0.8760693 0.6900243 0.3238765 0.811888 -2.2720256 0.16805655 0.35207012
-0.91620797 2.2909348 -2.6311522 -0.47275868 -0.29133922 -0.57258064 -0.6038911 -0.0697082
0.3562299 -0.24535759 -1.353397 -1.9690355 -0.735042 -0.2382279 -0.16045612 0.22175696
0.16241316 -0.34677508 1.5436181 3.7558239 -1.1341588 0.14159839 -1.4080653 0.1298055
-0.40397543 -1.502753 -1.4239538 0.48548523 0.36487585 0.23350583 -1.0598177 -2.547576
2.5370665 0.604743 -0.5470375 -0.90545315 -0.046810325 0.13213217 -0.9309434 -0.29622874
2.8203354 -0.17340857 0.26497823 -0.05360014 2.8353963 0.678461 0.14736888 0.8528054
1.5722742 -0.013438867 -0.51137024 2.2027194

net.0.bias f4 [10]
00000000: b454 cd3d 7745 0e3f 4a61 0840 ab55 dbbf
00000010: c201 373f b79d e7be 6c6d 8a3e 018b 4fbf
00000020: 5a6a a9be f86b 123f
0.100259215 0.55574745 2.130938 -1.7135519 0.7148706 -0.45237514 0.27036607 -0.8107148
-0.33088952 0.57196

net.2.weight f4 [1, 10]
00000000: 803f 8ebe 84c2 c13d 7950 f7bf e427 543f
00000010: 7353 9fbe 397f 833d f199 42be 229f 0a3f
00000020: 509f e5be 951f 84be
-0.27782822 0.09460929 -1.9321433 0.8287337 -0.31118354 0.0642075 -0.19004036 0.5414907
-0.44848108 -0.25805345

exp_avg f4 [10, 10]
00000000: bdb9 b33a 33b3 bc3a 47a1 bf39 03fb 343a
00000010: f0b6 603a ece4 0cb9 1645 17bb 4009 9eb7
00000020: 9d5a e739 975b c33a fb03 003a e18e eb39
00000030: 4938 193a 7b47 4eba 644a 54ba 52ab 3e37
00000040: f408 ef38 f065 1db7 7520 93b9 2a01 04b9
00000050: 5998 16bc 9613 853a d8ac 38bc 2662 b43c
00000060: 5ca3 c43c 0f70 b53b d779 c6bc ba5d eb3a
00000070: 211e 6d3d 13c1 8dbc 391d 483a 5125 baba
00000080: 67ae 853b 3778 07bc 9e0d 09bc 4f5e e53a
00000090: 88d2 e33b e94f 08bb 9841 57bb 450e 0f3b
000000a0: 0690 9e3a 1ada 4d3a 0cae bc39 1325 2f3a
000000b0: d6c5 6c3a 96c5 e0ba 885b 74ba e8ad d9b8
000000c0: a308 b03a a22a b03a 22b4 61b9 b265 fbb9
000000d0: 0402 8b38 dc90 05ba 4752 04ba e4fd bf39
000000e0: df8e 153a 9718 25b9 380b 21b9 0c49 0339
000000f0: 60bf 363a ba03 e13a 9c51 3d3a 3ee4 7bb9
00000100: b254 d6b6 cafb 3eba 8ede 43ba 5745 723a
00000110: 3511 233a 8427 823a 0f46 8bb9 acd1 bbba
00000120: 9ab3 96b9 7e2b 60bb 9df8 68bb ce0d ff3a
00000130: be93 c03b 047c 65ba db74 fbba 4032 6439
00000140: 8a07 e0bb 6ed1 8abb 9fde e4bb 6674 1a3c
00000150: 84ed 163c 9e00 5b3b c399 d8bb 7802 10b8
00000160: cb2f c93a e98a 83bb ea6e 3e3a 5527 543a
00000170: 7c35 2e3a 3071 6f37 30c9 5a38 8375 3eba
00000180: 102a 78b7 a2e3 4c39 743e c839 90c3 813a
0.001371197 0.0014396667 0.0003655052 0.0006903859 0.00085721817 -0.0001343672 -0.002308195 -1.8839375e-05
0.00044127266 0.0014904615 0.00048834056 0.00044929146 0.0005844874 -0.0007868928 -0.0008098243 1.1364771e-05
0.00011398076 -9.381663e-06 -0.00028062207 -0.00012588935 -0.009191596 0.0010152932 -0.011271678 0.022019457
0.024003677 0.00553704 -0.02422802 0.001795701 0.05789006 -0.017303979 0.0007633749 -0.0014201795
0.0040796283 -0.008268408 -0.008365063 0.001749942 0.0069525875 -0.0020799583 -0.0032845493 0.0021828574
0.0012097366 0.0007852629 0.0003598783 0.00066812447 0.00090321654 -0.0017148729 -0.00093215005 -0.00010379759
0.0013430308 0.001344044 -0.00021524777 -0.0004795022 6.628412e-05 -0.0005095133 -0.00050476607 0.00036619522
0.00057051884 -0.00015744787 -0.00015358336 0.00012520346 0.0006971266 0.0017167248 0.00072219386 -0.00024022252
-6.387557e-06 -0.00072854443 -0.0007471823 0.00092419 0.00062205206 0.000992999 -0.00026564344 -0.0014329455
-0.00028744043 -0.003420561 -0.0035548576 0.001945907 0.0058769872 -0.00087541365 -0.0019184606 0.00021762494
-0.006836836 -0.0042363917 -0.0069845463 0.009427166 0.009211902 0.0033417116 -0.0066101267 -3.4334575e-05
0.0015349326 -0.004014362 0.0007264452 0.0008093019 0.0006645543 1.4271864e-05 5.216262e-05 -0.00072654354
-1.4791745e-05 0.00019539756 0.00038193504 0.0009900201

exp_avg_sq f4 [10, 10]
00000000: d80d 1a38 7246 f537 23bc bc37 e105 2638
00000010: b5c1 2c38 92c5 3137 9259 2237 8826 f636
00000020: 2423 8c38 3c80 b537 332b eb37 a51d b037
00000030: 9a89 b737 3930 1738 826d 1a38 519d 1437
00000040: 44f0 c236 f646 9f36 0c87 b037 326b 5337
00000050: 4042 8639 e77b 5639 eb06 ab39 5dd5 af39
00000060: b1b5 ad39 ae41 4a39 b76b bb39 fd6f 3539
00000070: edbe 9e3a 6d72 cc39 8ed0 2c38 e921 f337
00000080: 92fe b637 a631 1f38 ff14 1f38 f09e 8437
00000090: a3bb 2c37 4783 de36 f747 8a38 1405 8737
000000a0: 1baf 3f38 cdf5 0938 e8e5 eb37 0362 1038
000000b0: ea1e 0a38 813b 6337 4b2d 5837 39f1 1937
000000c0: 1e09 1539 f810 cc37 e02a a638 5dba 8638
000000d0: b0b7 7e38 a9ab ab38 eae8 a638 91ac 2038
000000e0: c46d 4638 8cb8 0c38 bb4b d439 2e47 9b38
000000f0: 6acb 2c38 6dd0 3c38 fca0 5c38 6437 bd38
00000100: 1399 c238 4027 1d37 672f 0537 8df1 2837
00000110: 5207 e438 44aa e737 6333 3e39 ed5e 0639
00000120: 75a6 9938 8e75 b138 eeed b538 e7ad 9b38
00000130: 5bbd 5d38 80b0 d637 cd00 0f3a d976 4f38
00000140: 3190 4439 68b2 4e39 a133 8039 440c 8b39
00000150: 6ffb 8839 91e1 1639 92e0 2839 2a2f 1f39
00000160: 3de6 973a 7887 6139 2ed2 a738 3aab 4838
00000170: 7856 6f38 6cbf 7d38 3c75 7838 705f 0338
00000180: 034a f337 431f 9c37 1b24 3339 390f 2c38
3.6729354e-05 2.923908e-05 2.2498954e-05 3.958296e-05 4.11884e-05 1.0596023e-05 9.676807e-06 7.335857e-06
6.682266e-05 2.1636595e-05 2.80343e-05 2.099464e-05 2.1879376e-05 3.6046116e-05 3.681845e-05 8.8581155e-06
5.809621e-06 4.74683e-06 2.1043721e-05 1.2601538e-05 0.00025607832 0.00020454788 0.00032620816 0.0003353757
0.00033132502 0.00019288689 0.00035747673 0.00017303224 0.0012111344 0.00038995166 4.1202227e-05 2.8983648e-05
2.1814634e-05 3.7954793e-05 3.792811e-05 1.5809637e-05 1.02956865e-05 6.6313983e-06 6.593757e-05 1.6095619e-05
4.570103e-05 3.2892265e-05 2.8121241e-05 3.4423556e-05 3.2930555e-05 1.3544109e-05 1.2885149e-05 9.175675e-06
0.00014213144 2.4326597e-05 7.923483e-05 6.424331e-05 6.072939e-05 8.1858896e-05 7.9588805e-05 3.8307688e-05
4.7309106e-05 3.3550474e-05 0.00040492215 7.404234e-05 4.119744e-05 4.5016805e-05 5.2602016e-05 9.0225396e-05
9.279153e-05 9.367068e-06 7.9384545e-06 1.0069821e-05 0.00010873251 2.7616632e-05 0.00018138955 0.00012814598
7.3266136e-05 8.461914e-05 8.6750704e-05 7.423368e-05 5.2866857e-05 2.5592977e-05 0.00054551364 4.946333e-05
0.00018745732 0.00019712152 0.0002445253 0.00026521285 0.00026127274 0.00014389145 0.00016105387 0.00015180992
0.0011589002 0.00021508138 8.0023296e-05 4.7843183e-05 5.706257e-05 6.0498176e-05 5.923699e-05 3.1321717e-05
2.9002322e-05 1.8611207e-05 0.0001708422 4.1022173e-05

exp_avg f4 [10]
00000000: 445f 1bbc 61ef 28ba a7d7 e0bd 5a5c b83c
00000010: d0b9 12bc d47e 313b 6416 bdbb 85c7 c43c
00000020: aefe d6bc 46d8 ebbb
-0.009483162 -0.00064443616 -0.109786324 0.022504974 -0.008955434 0.0027083652 -0.0057704914 0.02402092
-0.026244488 -0.0071974127

exp_avg_sq f4 [10]
00000000: 38ec af39 6b26 7439 0d20 e83b 4f96 ff39
00000010: 1603 e039 da91 e53a ec8c e339 26f1 1f3b
00000020: dbcc 963b 8384 453a
0.00033554598 0.00023283965 0.007083899 0.0004874938 0.0004272691 0.0017514781 0.0004340181 0.002440521
0.0046020574 0.00075346994

exp_avg f4 [1, 10]
00000000: d51c 843c aebb 06bc b570 0b3d a5be 0cbd
00000010: 9751 753c a09f 413a 6482 a33c a8c4 46ba
00000020: c789 4abd 5add d73c
0.01612703 -0.008223457 0.034043033 -0.0343615 0.014973066 0.00073861517 0.019959636 -0.00075824047
-0.0494478 0.026350666

exp_avg_sq f4 [1, 10]
00000000: 593c a23b 5113 963b 343e 563b 442f b03b
00000010: 8757 953b 1df0 393b d3f0 b63b 8abd 8f3b
00000020: e33d d03b 85a8 ae3b
0.0049510417 0.0045799394 0.0032690885 0.0053767283 0.004557553 0.0028371878 0.0055829077 0.0043866085
0.0063550337 0.0053301477
