Topic 2/4.2 Cross-validation methods/lightning_logs/version_7/checkpoints/epoch=9-step=1340.ckpt (torch, 8754 bytes, 9 tensors)

net.0.weight f4 [10, 10]
0	0xc01381d6	-2.3047996
1	0xbfc0920c	-1.504457
2	0xbee7f42a	-0.4530347
3	0xbf2af7ac	-0.6678417
4	0xbe8678f6	-0.2626416
5	0x3fe7d239	1.811103
6	0x3e3f80fc	0.18701547
7	0xbe51c069	-0.20483555
8	0xbf2daee5	-0.6784499
9	0xc0092795	-2.143041
10	0xbff457ba	-1.9089272
11	0x3c2dbb51	0.010603742
12	0xbfd10b0e	-1.6331499
13	0xbe95927f	-0.2921333
14	0xbf462e66	-0.7741455
15	0xbac9612b	-0.0015364041
16	0xbff5d9bb	-1.9207071
17	0x3e1e9a83	0.15488629
18	0xbea2799a	-0.317334
19	0xc032a7c1	-2.791489
20	0xbf890a88	-1.0706339
21	0xbf85f9bc	-1.0466838
22	0xbdd9b197	-0.10629576
23	0x3d86806b	0.065674625
24	0x3da8bc1d	0.08239005
25	0x404ce097	3.2012079
26	0x400f8498	2.2424679
27	0xbf767d0c	-0.96284556
28	0x3f72943c	0.9475744
29	0xbf87a592	-1.0597403
30	0xbfd92691	-1.6964895
31	0xbf7d1b62	-0.9886991
32	0xbe9480a3	-0.29004392
33	0xbcb4dff8	-0.022079453
34	0xbf297a44	-0.6620219
35	0x4062617b	3.5371997
36	0x4004f5b5	2.0774968
37	0xbe7f3888	-0.24923909
38	0xbeaca19f	-0.33717057
39	0xbfcc74c2	-1.5973132
40	0xbedba0df	-0.42896172
41	0xbf43ace1	-0.7643567
42	0x3e621428	0.22078001
43	0x3f323b03	0.69621295
44	0x3f0f0f35	0.5588258
45	0x406130ba	3.518599
46	0x400842c2	2.1290746
47	0x3f67059a	0.9024292
48	0x3d2a0a6a	0.041513838
49	0x3f29288f	0.6607751
50	0xc04a934a	-3.1652398
51	0xbf9eacfb	-1.239654
52	0x3e7306f4	0.23733121
53	0x3e897ec3	0.26854524
54	0x3deebfbe	0.11657666
55	0x3ecd1e83	0.4006234
56	0x3f7f8906	0.99818456
57	0x3ea043b1	0.31301644
58	0xc029311a	-2.643622
59	0x3e64f483	0.22358899
60	0x3fa5864e	1.2931612
61	0xbf5c3735	-0.8602174
62	0x3fefdadb	1.8738664
63	0x3f018873	0.5059883
64	0x3f2e1ac7	0.6800961
65	0xbf820b21	-1.0159646
66	0x3fa94350	1.3223667
67	0x3f378f14	0.71702695
68	0x3c0a708b	0.008449684
69	0x403014d8	2.7512722
70	0xbda88fb2	-0.08230533
71	0x3f8635ce	1.048517
72	0x3f9c2ed6	1.2201793
73	0xbf363b28	-0.71184015
74	0xbe883224	-0.26600754
75	0xc06217ed	-3.5327103
76	0x3fa89b87	1.3172463
77	0x40134f66	2.301721
78	0xbf4719eb	-0.7777392
79	0x3ec1d725	0.37859455
80	0xbf00aa3e	-0.5025977
81	0x3e9fcf1d	0.31212702
82	0x3efa2862	0.48858935
83	0x3d297ac0	0.04137683
84	0xbe8eb69d	-0.27873698
85	0xc02c6c30	-2.6941032
86	0xbf855413	-1.0416282
87	0x3e805006	0.25061053
88	0xbfc283e4	-1.51965
89	0x3f7fadae	0.9987439
90	0xbfa2da7d	-1.2722927
91	0xbf75923f	-0.9592628
92	0xbe9ddfcc	-0.30834806
93	0xbf691d6b	-0.91060513
94	0xbf087db3	-0.533168
95	0x3eeae544	0.4587804
96	0x3f2914bb	0.6604726
97	0x3e3b19c7	0.18271552
98	0xc028b6ea	-2.6361642
99	0x3f15aa65	0.58463126

net.0.bias f4 [10]
0	0x3e665c86	0.22496232
1	0xbeb01279	-0.34389094
2	0x3e98850e	0.29789013
3	0xbc71f46b	-0.014767746
4	0x3f182d10	0.5944376
5	0x3f08bbfc	0.5341184
6	0x3e9171b1	0.28407052
7	0xbf982297	-1.1885556
8	0xbf42d79d	-0.7611025
9	0xc00aa39e	-2.1662364

net.2.weight f4 [1, 10]
0	0xbe441aa0	-0.19150782
1	0x3e98e5ee	0.29862922
2	0xbe346d28	-0.17619765
3	0x3d70e896	0.05881556
4	0xbea225be	-0.3166942
5	0x3f0e6d3b	0.5563542
6	0xbec0eee4	-0.3768226
7	0x3f20b979	0.6278301
8	0x3dc32d90	0.09530175
9	0x4012b34d	2.2921937

exp_avg f4 [10, 10]
0	0x3a3d6369	0.0007224591
1	0x3a4b6aa9	0.0007759729
2	0xb771d080	-1.4413265e-05
3	0x3a4559f2	0.00075283565
4	0x3a416ff2	0.0007379047
5	0xb8a664b2	-7.934253e-05
6	0xb7e73ce5	-2.7565702e-05
7	0xba4e9259	-0.0007880084
8	0x3970847e	0.00022937541
9	0xbaafdc69	-0.0013417128
10	0xba6a3048	-0.0008933586
11	0xb9a9f7d2	-0.00032418832
12	0xba272098	-0.0006375401
13	0x399df828	0.00030130264
14	0x39bb671f	0.0003574425
15	0xb96803f3	-0.00022126715
16	0xbb04141b	-0.0020153585
17	0x3addffb1	0.0016937164
18	0xba21d060	-0.0006172713
19	0x3ac23dfe	0.00148195
20	0x3aed08fd	0.0018084344
21	0x3a830c0c	0.0009998097
22	0x3a76a2da	0.0009408422
23	0xba07166b	-0.0005153182
24	0xb996c28a	-0.00028755172
25	0xb85a6bf4	-5.207579e-05
26	0x39822074	0.00024819712
27	0xb954ed0d	-0.00020306204
28	0x3ae9e90c	0.0017845943
29	0xba347c03	-0.0006884934
30	0xb9ccf78b	-0.00039094346
31	0xb99eb82c	-0.00030273327
32	0xb99b4649	-0.0002961627
33	0x398efa3b	0.00027270787
34	0x397f2b90	0.00024334923
35	0xb89c9d65	-7.467977e-05
36	0xb8effb07	-0.000114431656
37	0xb71fd61a	-9.526988e-06
38	0x372d37c4	1.03245875e-05
39	0x3931a6c2	0.00016942158
40	0x3aa8372c	0.0012833825
41	0x3a5bb27b	0.00083807827
42	0x3a1e99ad	0.0006050121
43	0x39c39aae	0.00037308544
44	0x3a42b3c7	0.00074273016
45	0x3afd3541	0.0019318239
46	0xba2b46d9	-0.00065336894
47	0xba9eded4	-0.0012120851
48	0x3a742d18	0.0009314581
49	0xba9e952a	-0.0012098898
50	0x3b920899	0.0044565913
51	0x3ad88e0b	0.0016521824
52	0x3b802991	0.003911205
53	0xbbb4040d	-0.005493647
54	0xbbadd5f5	-0.0053050467
55	0xbbdc5907	-0.00672448
56	0x3b0e0373	0.0021669536
57	0x3a8e77fe	0.0010869501
58	0xb93bd3a1	-0.00017912548
59	0x3bcd8035	0.006271387
60	0x3ab04bb8	0.00134503
61	0x3a70014a	0.00091554655
62	0x3a9e77ab	0.0012090107
63	0xb9be8efa	-0.0003634615
64	0xb9baff90	-0.00035667093
65	0x3969e128	0.00022304489
66	0x3b1428c5	0.0022607308
67	0xba909cbb	-0.0011033037
68	0x3a6ca815	0.0009027732
69	0xba87c276	-0.0010357636
70	0x3aaf1fc1	0.0013360904
71	0x3a8c407a	0.0010700368
72	0x3b18f00c	0.0023336438
73	0xbb911530	-0.0044275746
74	0xbb89c2aa	-0.004204114
75	0xbaf856c3	-0.0018946755
76	0xbb18313c	-0.0023222705
77	0xbaee8028	-0.0018196153
78	0xbb8642cc	-0.0040973183
79	0x3ac81f0b	0.0015268041
80	0xbadac450	-0.0016690586
81	0xba84471b	-0.0010091992
82	0xba7ec55e	-0.0009718741
83	0x3a3cca49	0.00072017737
84	0x3a166420	0.00057369657
85	0xb7e29ba0	-2.7013768e-05
86	0xb9e61e88	-0.00043891766
87	0x398edc69	0.0002724857
88	0xbb0afe39	-0.0021208657
89	0x3a086e0f	0.0005204388
90	0xbb79b572	-0.0038102535
91	0xbc34d98e	-0.011038197
92	0x39b57fd8	0.0003461826
93	0xbc0c966f	-0.008580788
94	0xbc187793	-0.009305852
95	0xbc757262	-0.014980884
96	0x3cb9865f	0.022647081
97	0xbb800a48	-0.0039074756
98	0xbd95ec6f	-0.07320487
99	0x3d09dcc0	0.03365779

exp_avg_sq f4 [10, 10]
0	0x389e53ae	7.549614e-05
1	0x3853da49	5.0509614e-05
2	0x3860b3db	5.3573265e-05
3	0x38bb7631	8.93887e-05
4	0x38b96002	8.83937e-05
5	0x3804e2a3	3.1682324e-05
6	0x37f7cd21	2.9540215e-05
7	0x378189b9	1.544213e-05
8	0x393f025b	0.00018216057
9	0x383f6403	4.563109e-05
10	0x383b49f1	4.4653138e-05
11	0x382ed84e	4.1686282e-05
12	0x383a2726	4.4382316e-05
13	0x388fe3a2	6.861171e-05
14	0x3893cfa2	7.048181e-05
15	0x3766ed24	1.3764282e-05
16	0x3713724c	8.788495e-06
17	0x36ca52dc	6.029715e-06
18	0x389ca881	7.470046e-05
19	0x37bc3351	2.2435242e-05
20	0x38216894	3.8482787e-05
21	0x384bb34d	4.856596e-05
22	0x3844f500	4.6958216e-05
23	0x38a4cc72	7.85821e-05
24	0x38a58a96	7.893627e-05
25	0x37136638	8.785682e-06
26	0x36da878f	6.5126874e-06
27	0x36b7f8e2	5.4827988e-06
28	0x38d2f7b7	0.00010059721
29	0x37e9053a	2.7778198e-05
30	0x3865179c	5.4619843e-05
31	0x3832e2a7	4.2649594e-05
32	0x381ceb45	3.741241e-05
33	0x38610238	5.3646247e-05
34	0x385dd4b4	5.28886e-05
35	0x37a244b5	1.93439e-05
36	0x37acd62d	2.0603731e-05
37	0x37414e0a	1.1521866e-05
38	0x390ac7fa	0.00013235203
39	0x37eb6289	2.8060067e-05
40	0x3805a159	3.1859938e-05
41	0x38026b0e	3.1094118e-05
42	0x3804fd1d	3.1706983e-05
43	0x389cc5b1	7.4754826e-05
44	0x38a843d3	8.0234975e-05
45	0x372aa299	1.0170647e-05
46	0x378d5733	1.6849115e-05
47	0x37c1fc6a	2.3124932e-05
48	0x3914cd8f	0.00014190956
49	0x379b1a8e	1.8489805e-05
50	0x38efa8da	0.00011427859
51	0x39008007	0.00012254725
52	0x391b0b3a	0.00014786134
53	0x39290227	0.00016117898
54	0x3918c604	0.00014569616
55	0x38e830c5	0.00011071706
56	0x38b8671b	8.7930086e-05
57	0x389a54a2	7.359056e-05
58	0x3aae7e6b	0.0013312822
59	0x39647022	0.00021785547
60	0x38087d82	3.2541815e-05
61	0x3800806f	3.063719e-05
62	0x38117b1f	3.468536e-05
63	0x38620832	5.389023e-05
64	0x386e5af8	5.6828343e-05
65	0x37718657	1.4395998e-05
66	0x371e5bf8	9.438947e-06
67	0x3784e6a1	1.5843021e-05
68	0x38c17180	9.224098e-05
69	0x37b98022	2.2113385e-05
70	0x3853740c	5.0414397e-05
71	0x3847abc4	4.7605266e-05
72	0x38c0c712	9.192353e-05
73	0x3944dcd9	0.00018774289
74	0x394a23b5	0.00019277523
75	0x376da0c9	1.41637365e-05
76	0x380f3fe7	3.415337e-05
77	0x37815614	1.5418082e-05
78	0x38956d56	7.125239e-05
79	0x38447d01	4.684646e-05
80	0x38580952	5.1507093e-05
81	0x3856bf0c	5.1199502e-05
82	0x38843c8a	6.305527e-05
83	0x38b29500	8.515455e-05
84	0x38ab17e3	8.158365e-05
85	0x37c7c8c7	2.3816143e-05
86	0x380a88bc	3.3029108e-05
87	0x37c27f4a	2.3185876e-05
88	0x39cdceb6	0.0003925466
89	0x38516017	4.9918974e-05
90	0x3a19682e	0.0005852011
91	0x39e58f5f	0.00043785103
92	0x3a39d71f	0.00070892455
93	0x3a396f2f	0.00070737576
94	0x3a317042	0.0006768742
95	0x39e68741	0.0004396979
96	0x3a33775d	0.00068460946
97	0x39c8cdb0	0.00038300222
98	0x3b292077	0.0025806704
99	0x3a9c4006	0.0011920936

exp_avg f4 [10]
0	0xbbaa61fa	-0.005199668
1	0x3c170452	0.009217339
2	0xbbc67318	-0.0060562007
3	0x3a98a87c	0.0011646892
4	0xbc03d0cd	-0.008045387
5	0x3ca1c4c2	0.019747142
6	0xbc401dff	-0.011725902
7	0x3c6d7c0d	0.014494908
8	0x3beb2441	0.0071759527
9	0x3e0a73c2	0.1352072

exp_avg_sq f4 [10]
0	0x3a4e0f6e	0.00078605756
1	0x39c543b5	0.00037625214
2	0x39db8d8c	0.00041876396
3	0x3a1788f8	0.0005780603
4	0x3a03bf1f	0.00050257327
5	0x3b2e0ede	0.0026559155
6	0x39de664c	0.00042419357
7	0x3a11fc0d	0.00055688695
8	0x3abd4caf	0.0014442409
9	0x3c603e20	0.013686687

exp_avg f4 [1, 10]
0	0x3b83bdb4	0.004020417
1	0xbc9d2306	-0.01918174
2	0xbc5148df	-0.0127737215
3	0xbbd3f2e6	-0.0064681647
4	0xbbaecb06	-0.005334261
5	0x3d246e3f	0.0401442
6	0x3d016a6e	0.03159564
7	0xbbde2e40	-0.006780416
8	0x3c93e401	0.018053057
9	0xbd3c7582	-0.0460105

exp_avg_sq f4 [1, 10]
0	0x3b9b2724	0.0047348905
1	0x3bb17f51	0.0054167886
2	0x3bb110ed	0.005403629
3	0x3b94d80f	0.0045423578
4	0x3b9f5f62	0.0048636654
5	0x3c1889d2	0.009310203
6	0x3bb3f38a	0.0054916786
7	0x3be617eb	0.007021894
8	0x3b5564a7	0.0032561214
9	0x3b87f4c0	0.0041490495
