Topic 2.1/4.2 Cross-validation methods/lightning_logs/version_8/checkpoints/epoch=9-step=1340.ckpt (torch, 8754 bytes, 9 tensors)

net.0.weight f4 [10, 10]
-0.48805 -0.9559328 0.5357819 -0.74085 -1.096295 3.532928 1.115155 -0.0009444865
-0.76730484 -2.5876422 -2.9839697 -0.2582487 0.40813625 0.17151915 0.49496308 0.30143893
-2.5699224 -2.4540553 -0.86355966 -1.3271084 0.70582294 -0.14896496 0.9264757 -0.1312968
-0.3722974 -0.059339207 4.7467117 0.7191919 0.3729901 1.0900476 1.473451 -0.13168323
0.20792498 1.9710567 1.7869854 -2.729043 -1.5664003 0.030764712 1.047057 1.7936836
0.9529552 0.9635708 0.15915388 0.65910614 0.5602295 -0.043268114 -0.16171063 -0.2291603
2.3871846 -0.21934706 1.3414813 0.8095619 0.09426648 1.102148 0.758899 -3.5779397
-2.1863914 0.05577706 0.14612652 2.4409902 3.2156775 0.039109208 -0.70426947 0.14988711
0.63677496 0.3923088 -0.8016327 0.071348235 2.7996767 0.122632176 -0.8878543 -1.0839757
-0.5826914 -0.6786516 -0.36106417 3.225746 1.1531383 0.25679845 -0.46922264 -2.0667522
1.7245632 0.51080704 0.70226765 0.5719434 0.82794005 1.6422361 3.0926666 0.32367417
0.5991184 0.5749521 -1.4465293 0.19415846 -1.6460327 -0.20279387 -0.4501286 1.1483799
-1.5578582 0.30413997 -0.04954413 -3.1471858
00000000: b1e1 f9be 03b8 74bf 0129 093f 58a8 3dbf
00000010: 6553 8cbf 7e1b 6240 66bd 8e3f 6b97 77ba
00000020: 176e 44bf ee9b 25c0 5cf9 3ec0 2c39 84be
00000030: 3cf7 d03e b7a2 2f3e cd6b fd3e 3456 9a3e
00000040: 9c79 24c0 3e0f 1dc0 3f12 5dbf b0de a9bf
00000050: d0b0 343f 458a 18be 832d 6d3f ab72 06be
00000060: c49d bebe ab0d 73bd 10e5 9740 f61c 383f
00000070: 8ff8 be3e ae86 8b3f 0b9a bc3f f8d7 06be
00000080: 49ea 543e 964b fc3f f0bb e43f a4a8 2ec0
00000090: ce7f c8bf 4706 fc3c f705 863f 6d97 e53f
000000a0: dff4 733f 93ac 763f 3cf9 223e 2ebb 283f
000000b0: 336b 0f3f e839 31bd 7997 25be ffa8 6abe
000000c0: a2c7 1840 849c 60be a9b5 ab3f 733f 4f3f
000000d0: c90e c13d 3013 8d3f 3447 423f f7fc 64c0
000000e0: d6ed 0bc0 7d76 643d 31a2 153e 2f39 1c40
000000f0: a9cd 4d40 fa30 203d 014b 34bf 027c 193e
00000100: af03 233f b3dc c83e cd37 4dbf 061f 923d
00000110: e72d 3340 9426 fb3d 6b4a 63bf b7bf 8abf
00000120: 432b 15bf 1cbc 2dbf 67dd b8be 9f72 4e40
00000130: 099a 933f 167b 833e f33d f0be ab45 04c0
00000140: 7dbe dc3f 40c4 023f d0c7 333f e26a 123f
00000150: e1f3 533f cb34 d23f 40ee 4540 9fb8 a53e
00000160: d35f 193f 1030 133f df27 b9bf 7ad1 463e
00000170: 33b1 d2bf 32a9 4fbe 4177 e6be 1dfe 923f
00000180: e667 c7bf 3cb8 9b3e c9ee 4abd 7e6b 49c0

net.0.bias f4 [10]
-0.34860465 0.22918913 -0.08108996 0.24490248 2.2009847 0.546141 -0.087972514 -0.27093118
0.26704413 0.28946075
00000000: 4f7c b2be 8eb0 6a3e 7e12 a6bd b7c7 7a3e
00000010: efdc 0c40 e6cf 0b3f ef2a b4bd 7eb7 8abe
00000020: 02ba 883e 3334 943e

net.2.weight f4 [1, 10]
0.012511527 -0.20314421 0.027345313 -0.11802307 -2.2709105 0.076827906 -0.53764963 -0.10963791
-0.03671589 -0.15184455
00000000: 26fd 4c3c 0905 50be 4703 e03c 14b6 f1bd
00000010: 9956 11c0 f357 9d3d 68a3 09bf d789 e0bd
00000020: 6763 16bd 237d 1bbe

exp_avg f4 [10, 10]
-0.00015551948 -0.000124774 -0.00013455405 0.00015601469 0.0001491928 4.6479177e-05 -1.6129485e-05 -1.0343755e-05
4.5396966e-05 -1.13431515e-05 0.00045449106 0.0008965815 -0.0005342296 0.001026806 0.0009783573 -9.113815e-05
0.00019970961 0.0011753424 0.00012936961 -0.0021473325 8.479999e-05 9.726679e-05 3.2689586e-05 8.8329725e-06
-1.5996156e-06 -0.00011627107 -7.639089e-05 1.3538878e-05 -0.00019754852 3.4262393e-05 0.0014370668 0.0009960332
0.00083904545 -0.0007491377 -0.00088470185 0.0002613176 -0.00060290983 6.5821936e-05 8.560344e-05 -0.0012105952
0.0018423689 0.020904405 -0.0027351468 0.017141081 0.019387297 0.009405504 -0.0417533 0.010226263
0.096045926 -0.03444587 -0.000789854 -0.0006665237 -0.0006048909 0.00054459163 0.00050356245 0.00028777527
0.0001086022 -2.3749839e-05 -9.957299e-05 0.00026010693 -0.005570408 -0.0010381681 -0.0047205416 0.0039422824
0.003370473 0.00263083 -0.0072440878 -0.0010690956 0.000698575 -0.008295227 0.0015194988 0.0012386449
0.001090373 -0.0012528129 -0.0011744695 -0.00053251797 -0.00018422806 3.017481e-05 -9.109449e-05 -0.0005390273
0.00049839186 0.00041952223 0.0003111208 -0.0005149147 -0.00054674887 -0.00022131314 -6.2100255e-05 -3.6743917e-05
-0.0001483191 -6.3531574e-05 0.00096044334 0.0013287156 0.0006922392 -0.0004374119 -0.00048960577 -0.0011640314
-0.0003714032 -0.00048075715 7.485965e-05 -0.00119566
00000000: f112 23b9 c4d5 02b9 1417 0db9 e097 2339
00000010: a370 1c39 a3f2 4238 ce4d 87b7 178a 2db7
00000020: 9f68 3e38 774e 3eb7 c248 ee39 9108 6b3a
00000030: 8b0b 0cba e495 863a 393c 803a 6c21 bfb8
00000040: 2469 5139 f20d 9a3a 64a7 0739 43ba 0cbb
00000050: a6d6 b138 b6fb cb38 2d1c 0938 5431 1437
00000060: 60b2 d6b5 8ed6 f3b8 0c34 a0b8 0a25 6337
00000070: 0725 4fb9 f7b4 0f38 f65b bc3a 548d 823a
00000080: 63f3 5b3a c861 44ba 56eb 67ba 7401 8939
00000090: 980c 1eba e209 8a38 ff85 b338 d6ac 9eba
000000a0: a47b f13a b73f ab3c 2640 33bb 746b 8c3c
000000b0: 1cd2 9e3c 8b19 1a3c 8205 2bbd 0e8c 273c
000000c0: bab3 c43d 1d17 0dbd 340e 4fba a6b9 2eba
000000d0: 8b91 1eba edc2 0e3a 8101 043a 8be0 9639
000000e0: 5dc1 e338 643a c7b7 d8d1 d0b8 f65e 8839
000000f0: f887 b6bb 2413 88ba c6ae 9abb 432e 813b
00000100: 27e3 5c3b 016a 2c3b d05f edbb e520 8cba
00000110: 9320 373a b4e8 07bc eb29 c73a 075a a23a
00000120: d9ea 8e3a 6d35 a4ba a8f0 99ba ad98 0bba
00000130: 582d 41b9 e91f fd37 fb09 bfb8 834d 0dba
00000140: 83a6 023a 52f3 db39 ed1d a339 57fb 06ba
00000150: b253 0fba 4b10 68b9 d23b 82b8 7b1d 1ab8
00000160: 1b86 1bb9 413c 85b8 43c6 7b3a 4c28 ae3a
00000170: 6377 353a 6e54 e5b9 e358 00ba 6a92 98ba
00000180: e5b8 c2b9 220e fcb9 f8fd 9c38 b1b7 9cba

exp_avg_sq f4 [10, 10]
3.6439476e-05 3.609015e-05 2.7428505e-05 4.734971e-05 4.9472757e-05 9.612684e-06 2.9315062e-05 1.444238e-05
0.00010214909 1.9215211e-05 2.996471e-05 2.846939e-05 2.9910021e-05 5.0887902e-05 5.2021165e-05 1.0433988e-05
2.9887979e-05 1.3059636e-05 0.00012705696 3.0509147e-05 4.9167822e-05 4.5796107e-05 5.327499e-05 9.577533e-05
9.83329e-05 1.12299895e-05 1.1858776e-05 1.4628559e-05 9.077274e-05 3.131109e-05 7.6137614e-05 4.2533753e-05
4.765865e-05 6.649341e-05 6.8580855e-05 1.649125e-05 1.8743767e-05 2.0059928e-05 0.0002824688 2.8767205e-05
0.00048374617 0.0004227984 0.0005221193 0.0005641411 0.0005577672 0.00031715716 0.0007682131 0.00035060523
0.0033781275 0.0010158075 6.369512e-05 4.4865144e-05 5.7176305e-05 9.373601e-05 9.3875606e-05 1.7444589e-05
1.3743626e-05 1.01134265e-05 6.980202e-05 2.8551874e-05 0.00016393405 0.00016519893 0.00018917829 0.00021843705
0.00021169358 8.796495e-05 0.00015200171 8.397158e-05 0.0014598875 0.00020867429 6.1324085e-05 6.0465798e-05
3.87303e-05 6.1119e-05 6.145713e-05 1.766169e-05 2.2136728e-05 1.58954e-05 0.0001497186 2.582846e-05
7.849825e-05 5.6029352e-05 4.6865396e-05 6.136241e-05 6.0716487e-05 2.1979327e-05 1.9927316e-05 1.4666057e-05
0.00020280493 3.723955e-05 2.4584862e-05 2.497934e-05 2.7209064e-05 5.043437e-05 5.2241805e-05 1.0799499e-05
8.287937e-06 5.877388e-06 0.00010010249 1.6219474e-05
00000000: 97d6 1838 815f 1738 4416 e637 5d99 4638
00000010: f880 4f38 2a46 2137 9ee9 f537 8d4d 7237
00000020: e038 d638 5a30 a137 ba5c fb37 8dd1 ee37
00000030: 48e7 fa37 7870 5538 4d31 5a38 a30d 2f37
00000040: f2b7 fa37 b61a 5b37 983a 0539 e5ed ff37
00000050: 8c39 4e38 3215 4038 9673 5f38 fdda c838
00000060: 1338 ce38 7068 3c37 0ef5 4637 2f6d 7537
00000070: 3e5d be38 0754 0338 12ac 9f38 4566 3238
00000080: 16e5 4738 6172 8b38 11d3 8f38 b156 8a37
00000090: ef3b 9d37 5e46 a837 5218 9439 1a51 f137
000000a0: 509f fd39 0aab dd39 d5de 083a dee2 133a
000000b0: 2037 123a 1d48 a639 e961 493a 70d1 b739
000000c0: 9363 5d3b d824 853a 0f94 8538 952d 3c38
000000d0: 97d0 6f38 2394 c438 15df c438 f855 9237
000000e0: 6d94 6637 d6ac 2937 ad62 9238 af82 ef37
000000f0: b6e5 2b39 4039 2d39 295e 4639 400c 6539
00000100: 10fa 5d39 d379 b838 a662 1f39 e619 b038
00000110: b259 bf3a 94cf 5a39 1e9b 8038 a89c 7d38
00000120: 5872 2238 032d 8038 8ce2 8038 3128 9437
00000130: 43b2 b937 1d57 8537 c8fd 1c39 32aa d837
00000140: 6d9f a438 0f01 6b38 5691 4438 b1af 8038
00000150: d5a9 7e38 3f60 b837 9629 a737 3c0e 7637
00000160: 09a8 5439 aa31 1c38 973b ce37 b98a d137
00000170: 053f e437 7e89 5338 361e 5b38 7f2f 3537
00000180: 6b0c 0b37 6136 c536 1dee d138 0e0f 8837

exp_avg f4 [10]
0.00030672934 -0.008440175 -0.00032066324 -0.0068738307 -0.16404028 0.0022558689 -0.025735943 -0.0041017765
-0.0015364389 -0.005843331
00000000: 84d0 a039 a948 0abc b11e a8b9 df3d e1bb
00000010: 2dfa 27be 33d7 133b 2fd4 d2bc 3268 86bb
00000020: 5662 c9ba 6a79 bfbb

exp_avg_sq f4 [10]
0.00045987804 0.000628423 0.00042150143 0.0007734395 0.015736125 0.00054591545 0.003420923 0.0005213552
0.00080018333 0.0003171093
00000000: c91b f139 c1bc 243a f7fc dc39 a5c0 4a3a
00000010: 0ce9 803c c41b 0f3a 9031 603b 8eab 083a
00000020: 65c3 513a b141 a639

exp_avg f4 [1, 10]
-0.014335884 0.0016183205 -0.0018905771 0.0014849415 0.0657326 0.009537682 -0.05374841 0.0033581764
0.011524929 -0.014009799
00000000: 0ee1 6abc d31d d43a 3ecd f7ba 5ea2 c23a
00000010: d09e 863d f043 1c3c 4b27 5cbd da14 5c3b
00000020: 0ed3 3c3c 5b89 65bc

exp_avg_sq f4 [1, 10]
0.0029161137 0.0058914092 0.007054945 0.004466086 0.005735122 0.0029242828 0.00908756 0.0050642514
0.0047859345 0.005138257
00000000: 451c 3f3b b90c c13b 2b2d e73b 3f58 923b
00000010: b1ed bb3b 53a5 3f3b fde3 143c 05f2 a53b
00000020: 54d3 9c3b d35e a83b
