Topic 2/4.2 Cross-validation methods/lightning_logs/version_3/checkpoints/epoch=9-step=1340.ckpt (torch, 8754 bytes, 9 tensors)

net.0.weight f4 [10, 10]
000000 05 7e 80 bf d5 81 7b be cb 51 1e bf 21 d7 a1 3e
       -1.0038458 -0.24561246 -0.61843556 0.31609443
000010 22 58 b5 3e 7c 9d 05 c0 00 2c 01 40 2d d6 61 40
       0.35418802 -2.087737 2.0183105 3.5286973
000020 fa 47 ec be db ab 63 3e a8 6a bb be 81 9c 51 3e
       -0.46148664 0.22233526 -0.3660481 0.20469858
000030 ff c5 65 40 af 25 57 3e 5d 05 e8 3e 84 98 2a 40
       3.5902097 0.21010469 0.45316592 2.6655588
000040 1c 5b ed 3f 40 45 0c bf d9 77 f5 3c f9 c5 28 40
       1.8543429 -0.5479317 0.029964374 2.6370833
000050 2f cb df 3f 4b 04 d4 3e b5 12 8d 3f e4 8d 36 bf
       1.7483882 0.41409525 1.1021334 -0.7131026
000060 f2 a0 72 be 93 03 10 3f cc 0b 3d 40 1a eb 7f be
       -0.23694208 0.56255454 2.953845 -0.24992028
000070 84 9c 97 3f 99 f2 39 3f c8 86 bb bd 49 73 f8 3b
       1.184464 0.726358 -0.09156567 0.0075821024
000080 9c 1c 72 bf e4 a7 a1 3f 70 77 5e 3f 25 18 57 c0
       -0.94574904 1.2629361 0.86901 -3.3608487
000090 7c 67 9a bf be 65 86 bd 3d 9f e8 3e 21 ff ff 3e
       -1.2062831 -0.065623745 0.4543399 0.49999335
0000a0 b7 63 3a bf 3b 56 10 3e be a3 85 be 59 9e 40 bf
       -0.728084 0.14095394 -0.26101488 -0.7524162
0000b0 c4 ad 9e bf 7c 7a 84 bd d8 74 8f be c0 35 56 be
       -1.2396779 -0.064686745 -0.28018832 -0.20918941
0000c0 65 8b bb bf 54 6c 2a c0 c9 9d 51 bf 4f f8 51 bf
       -1.4651915 -2.6628618 -0.81881386 -0.82019514
0000d0 10 44 47 be 0e 34 e5 3e ea 0c 13 3f 51 95 63 3e
       -0.19459558 0.44766277 0.5744158 0.22224928
0000e0 16 39 4a c0 8b 84 b8 3e d1 32 15 3e 42 ef 8f be
       -3.1597342 0.36038622 0.14570166 -0.28112227
0000f0 60 6d 6f 40 ad 62 b3 3f d3 f2 14 bf ce 5e fe 3d
       3.7410507 1.4014488 -0.5818302 0.12420426
000100 2f b0 27 be 4a 8d f6 3d c2 ee 10 bf cb 5c dc bd
       -0.16375802 0.120386675 -0.56614316 -0.10759886
000110 18 83 11 40 ba 86 3f bf c4 62 1a 3e 49 83 fa 3e
       2.2736263 -0.7481495 0.15076739 0.48928288
000120 39 8c 46 bf e7 3d f7 be a4 06 0b bf c8 28 5a be
       -0.7755771 -0.48289415 -0.5430701 -0.2130462
000130 5f ce 88 c0 d2 30 98 be 4e c3 88 bf 1a 20 03 c0
       -4.275192 -0.29724747 -1.0684602 -2.0488343
000140 83 8d 09 c0 36 24 f5 3e 32 fd 95 3e ed aa f4 be
       -2.1492622 0.4787919 0.29294735 -0.47786656
000150 7e 9d 39 bf 2d 16 6e 3f cb 08 c7 bf 0a 76 e0 be
       -0.7250594 0.9300259 -1.5549558 -0.43840057
000160 3c 3e 1d c0 0a d6 3c c0 87 61 8c 3f 7b 8f 86 3e
       -2.4569235 -2.950564 1.0967263 0.26281342
000170 fe 71 09 3f 24 4b 55 3f df 58 1e 3f 93 5f 4d 3e
       0.53689563 0.8331778 0.61854357 0.2005599
000180 be 5b d7 be e4 af c9 be 57 c7 4b 40 c7 a9 8d bf
       -0.4206218 -0.39392006 3.1840417 -1.1067437

net.0.bias f4 [10]
000000 c2 96 d5 3e 74 91 80 3e 03 50 fc 3d 6b cd 92 3f
       0.41716582 0.25110972 0.123199485 1.1468939
000010 08 e6 99 bf 8e 67 9a 3f c7 c3 9b bf ab b8 28 be
       -1.2023325 1.2062852 -1.2169122 -0.16476695
000020 42 8b 3f bf 2e ce 1c 40
       -0.74821866 2.4500842

net.2.weight f4 [1, 10]
000000 87 de 8e be 69 b2 e7 bd 80 65 bc bd e5 6b ea be
       -0.2790415 -0.11313326 -0.09199047 -0.45785442
000010 d7 f5 44 3f 7a b8 21 bf ea 82 50 bf 12 70 75 3e
       0.7693762 -0.63172114 -0.8144976 0.23968533
000020 8f 74 9a 3e d1 32 e8 bf
       0.30167052 -1.8140508

exp_avg f4 [10, 10]
000000 8c 2f 8b 3a 2f 27 0f 3b 71 82 2a 3a dc 6b 6f 39
       0.0010619028 0.0021843424 0.00065044226 0.00022832997
000010 ac 62 03 3a ab fb ec ba 42 bd 9f ba 5b 72 73 3a
       0.00050119567 -0.0018080374 -0.001218714 0.00092867546
000020 9d 58 f3 3a 20 76 af 3a 27 db 51 b8 b4 a3 33 39
       0.0018565838 0.0013386644 -5.0033585e-05 0.00017131754
000030 a0 0d 84 37 bc 4d f4 38 d2 87 0c 39 c8 05 68 39
       1.574197e-05 0.00011649306 0.00013402037 0.00022127398
000040 4a f1 8b b9 28 15 20 37 5b 31 af 39 c8 84 5d b7
       -0.0002669192 9.541669e-06 0.00033415374 -1.3203542e-05
000050 47 8c 2b ba 05 c1 14 ba 1b 69 2c ba 40 34 75 3a
       -0.0006544035 -0.0005674514 -0.0006576941 0.0009353794
000060 1b f4 71 3a 6c d6 72 b8 e5 f2 6b 38 b0 de d2 b7
       0.0009229795 -5.7896992e-05 5.625458e-05 -2.5137648e-05
000070 28 84 e0 39 da d5 d1 b8 ca ed 22 3b 5e e1 a6 3a
       0.00042823073 -0.000100057296 0.0024860972 0.001273196
000080 11 d3 8b ba d0 9b 0c 3b 44 26 26 3b a9 9b 7f ba
       -0.0010667761 0.0021455176 0.0025352398 -0.0009750673
000090 d7 cb 09 bb ab 43 c2 3a d0 bb 84 3b 6c 8f c2 3a
       -0.002102604 0.0014821192 0.0040507093 0.0014843768
0000a0 a4 da 58 3a 4e aa db ba 7c e7 cf 3a 2b c3 b4 bb
       0.0008272326 -0.0016759129 0.0015861834 -0.00551643
0000b0 dc df c1 bb c2 bf 6b 3b 88 b2 d5 3b fb 65 63 bb
       -0.0059165787 0.003597245 0.0065215267 -0.0034698236
0000c0 36 b8 e2 bb 32 81 16 bb 74 4b 92 3a 56 8f 63 3a
       -0.0069189323 -0.002296519 0.0011161403 0.00086807215
0000d0 12 c4 15 bb 7f aa a7 3b a6 eb aa 3b 5e 95 94 bb
       -0.0022852463 0.0051167603 0.0052160798 -0.0045344075
0000e0 50 0a 3a bb 4b 60 68 3a 71 bd 64 3b 63 5b 17 3b
       -0.0028387494 0.00088644464 0.0034902955 0.0023095242
0000f0 55 87 2d bc c6 8e be bb f0 44 1f bc c5 ce 51 3c
       -0.010591348 -0.0058153598 -0.009721026 0.012805645
000100 cf db 4c 3c 8e 58 4a 3b d2 af 15 bc 4c 15 47 3b
       0.012503578 0.0030875537 -0.009136157 0.0030377684
000110 fb 02 5d bb 66 c8 0b bb 4d bf 06 bb ef 00 0c bb
       -0.00337237 -0.0021329164 -0.0020560801 -0.002136286
000120 c6 d5 82 ba 1f f8 54 3a b0 eb 26 3a 9f ac 03 3b
       -0.0009981922 0.0008124131 0.00063675176 0.0020091904
000130 72 9a 9f 3a dc 13 08 ba 21 fe 54 ba c2 ed dc ba
       0.0012176766 -0.00051909476 -0.00081250264 -0.0016855525
000140 4f fa 6c ba c1 28 af ba af 80 81 b9 02 b8 59 ba
       -0.00090399844 -0.0013363586 -0.00024700674 -0.00083053124
000150 2e 54 83 ba d0 05 34 3b df b7 a3 3a 46 bf 90 ba
       -0.0010019594 0.0027469285 0.0012490711 -0.0011043332
000160 7a 28 ae ba 2a b4 00 39 8d e1 90 bb a0 49 03 3b
       -0.001328721 0.00012274148 -0.004421419 0.0020032898
000170 24 75 26 bc ff ad a9 3c e9 63 b4 3c 62 aa 23 bc
       -0.010159764 0.02071285 0.022020297 -0.009989353
000180 16 95 89 bc 5f cb ed 3b ef 4a 2e 3d 06 38 25 bc
       -0.016794723 0.0072569097 0.04255193 -0.010084158

exp_avg_sq f4 [10, 10]
000000 05 5b fb 37 f1 76 05 38 1a 00 0f 38 6a 0b 8a 38
       2.9963916e-05 3.1820444e-05 3.409395e-05 6.582479e-05
000010 43 25 8f 38 59 68 0d 37 8f 8e 0e 37 d5 48 2e 37
       6.825712e-05 8.42855e-06 8.497052e-06 1.0388166e-05
000020 60 14 11 39 0c 6b a0 37 c7 fc 5e 38 9a 5e 0f 38
       0.00013835868 1.9123334e-05 5.316434e-05 3.418196e-05
000030 c0 91 1a 38 30 6a 5a 38 05 de 5f 38 38 ab 85 37
       3.68522e-05 5.2074145e-05 5.3374115e-05 1.5934565e-05
000040 a1 1f bc 37 dc 94 00 37 8c f1 c1 38 34 34 03 38
       2.2426075e-05 7.664054e-06 9.247949e-05 3.128145e-05
000050 32 f3 c6 38 b9 78 ab 38 8f 53 8c 38 3a c2 bb 38
       9.4866744e-05 8.176402e-05 6.691284e-05 8.9530324e-05
000060 90 e5 b9 38 46 80 eb 37 ef eb 1c 38 ad 56 9d 37
       8.864247e-05 2.8073915e-05 3.741303e-05 1.875622e-05
000070 b6 42 11 3a ec 86 84 38 f6 c4 06 38 b9 38 e7 37
       0.0005541252 6.319382e-05 3.2131524e-05 2.756376e-05
000080 41 cb 20 38 e2 71 c6 38 42 66 cc 38 11 58 3a 37
       3.8336268e-05 9.462588e-05 9.746525e-05 1.11069685e-05
000090 23 8b 6b 37 72 3e 0c 37 b6 49 e6 38 fd d3 a0 37
       1.4039487e-05 8.359189e-06 0.000109809844 1.9172201e-05
0000a0 a2 8c d4 38 04 b9 9e 38 9d b5 68 38 67 1b 96 38
       0.00010135143 7.568489e-05 5.548225e-05 7.1576615e-05
0000b0 61 14 93 38 86 60 0b 38 5e 0b 32 38 6e ed c7 37
       7.013302e-05 3.3230077e-05 4.2449094e-05 2.383321e-05
0000c0 b1 8a ac 39 b2 25 43 38 24 b9 13 38 bb 67 ce 37
       0.0003290973 4.652673e-05 3.5219957e-05 2.4605417e-05
0000d0 0f ba f6 37 fa 48 6c 38 66 31 73 38 60 b2 3b 37
       2.9412126e-05 5.633475e-05 5.798172e-05 1.11876e-05
0000e0 ac 80 06 37 d4 9d f2 36 86 e6 0d 39 34 20 98 37
       8.016981e-06 7.2305356e-06 0.00013532685 1.8134808e-05
0000f0 34 79 66 39 2b 35 4e 39 8b a8 c1 39 ce 03 c8 39
       0.00021979661 0.00019665498 0.00036937403 0.00038149807
000100 65 ad c1 39 18 b5 5d 39 7b e9 5d 39 5f b9 31 39
       0.00036941018 0.00021143665 0.0002116318 0.00016949092
000110 d7 96 15 3b ca 42 ed 39 91 c4 3d 38 50 92 34 38
       0.0022825503 0.00045253924 4.524418e-05 4.305161e-05
000120 19 14 3f 38 1d cc aa 38 5b fa ae 38 85 e0 49 37
       4.5556666e-05 8.144251e-05 8.343599e-05 1.2032809e-05
000130 b7 97 1c 37 b3 d1 d0 36 45 a6 ed 38 02 99 0f 38
       9.333648e-06 6.2232953e-06 0.00011332011 3.4236356e-05
000140 6f 6a 75 38 7e df 44 38 68 ae 65 38 f7 c9 91 38
       5.8511676e-05 4.6938185e-05 5.4760283e-05 6.951758e-05
000150 5b 99 8d 38 7b 08 64 38 df 0e 8c 38 f3 d0 07 38
       6.7519686e-05 5.4367334e-05 6.67849e-05 3.2381107e-05
000160 5b 54 75 39 49 b5 aa 38 e8 88 1f 39 69 4c 02 39
       0.00023396446 8.139999e-05 0.00015214423 0.00012426231
000170 85 e1 5d 39 cb f8 83 39 cf 44 83 39 4d 6f 19 39
       0.00021160215 0.00025171632 0.00025037533 0.0001463268
000180 d7 8d 33 39 15 b3 f4 38 d6 67 67 3a 59 8b 84 39
       0.0001712361 0.00011668183 0.00088274234 0.00025280824

exp_avg f4 [10]
000000 f4 0e 04 bc 54 4b e4 ba 40 c1 3a 3a d4 e7 79 bc
       -0.008060206 -0.0017417469 0.00071241334 -0.015253026
000010 60 5e f6 3c 24 bc 89 bc 05 87 fa bc 9d 65 f5 3b
       0.030074298 -0.016813345 -0.03058196 0.00748892
000020 a5 95 08 3c 4e 9a ab bd
       0.008336459 -0.08379041

exp_avg_sq f4 [10]
000000 c2 ca e6 39 8d 32 f2 39 72 3d c8 3a 46 a2 f0 39
       0.00044020085 0.000461955 0.0015277101 0.0004589727
000010 a8 27 9c 3a f5 6d f8 39 cb e2 8c 3b 73 61 eb 39
       0.0011913674 0.0004738417 0.0042994968 0.00044895298
000020 3b 8f c2 3a 43 6a 8a 3b
       0.0014843711 0.004224093

exp_avg f4 [1, 10]
000000 0f f7 06 3c 7f 2c 9e 3c d7 94 81 3c 84 ec f9 ba
       0.008237614 0.019308327 0.015818043 -0.001906768
000010 42 84 8e bb ff 85 7a 3c 5a a9 be bd b8 b3 4c bc
       -0.0043492625 0.015290736 -0.09309645 -0.01249402
000020 73 1d c1 3b a0 aa a1 3c
       0.005893403 0.01973468

exp_avg_sq f4 [1, 10]
000000 79 03 c3 3b 51 73 9b 3b 28 91 94 3b a6 55 78 3b
       0.0059513417 0.0047439714 0.0045339055 0.0037892847
000010 ff b7 58 3b 70 f1 80 3b 9f 93 af 3c 64 69 e2 3b
       0.0033068655 0.0039350316 0.021432696 0.006909536
000020 ef 3f b8 3b 4c 11 a6 3b
       0.005622856 0.00506798
