Topic 2/4.3 Quality metric uncertainty estimation/lightning_logs/version_0/checkpoints/epoch=6-step=525.ckpt (torch, 8818 bytes, 9 tensors)

net.0.weight f4 [10, 10]
0	0xbb760ab8	-0.003754301
1	0x3f72acd1	0.94794947
2	0xbeb74149	-0.35791996
3	0x3f63a376	0.88921297
4	0x3d49334c	0.049121186
5	0xbe1c5107	-0.15265284
6	0xbd19b590	-0.037526667
7	0xbc27fc02	-0.010252954
8	0x3fcecb87	1.6155862
9	0xbee02bb7	-0.43783352
10	0x3f9441ab	1.158254
11	0xbf6d6dfd	-0.92745954
12	0x3f04fb0d	0.51945573
13	0xbe48b898	-0.19601667
14	0x3d4537dc	0.048148975
15	0xbecbcb78	-0.39803672
16	0xbea3c979	-0.3198965
17	0xbd19b217	-0.037523355
18	0x3dd7b6c4	0.10532907
19	0x3f6acc00	0.9171753
20	0xbfacea9e	-1.35091
21	0x3df59485	0.119912185
22	0x3f04b88c	0.51844096
23	0x3f1817c1	0.59411246
24	0x3eccd835	0.40008703
25	0x3d61d91a	0.055138685
26	0x3f26611e	0.6499194
27	0x3c0cc7ba	0.00859254
28	0xbf1a3be2	-0.60247624
29	0x3e64ea36	0.2235497
30	0xbf32eec9	-0.6989561
31	0xbe863b40	-0.2621708
32	0x3d5ff249	0.05467442
33	0xbd3b0721	-0.045661096
34	0x3d188eac	0.037245438
35	0x3dca64fb	0.09882542
36	0x3eab6981	0.3347893
37	0xbd5f14b5	-0.054463107
38	0x3f27c454	0.6553395
39	0x3fb2824d	1.3946015
40	0x3e6bd9d4	0.23032314
41	0x3df0ad7c	0.117518395
42	0xc0284bc4	-2.6296244
43	0xbf0d94a5	-0.5530494
44	0xbd8c2b73	-0.06844225
45	0xbd9be82f	-0.07612645
46	0xbe944bf8	-0.2896421
47	0x3cdc83de	0.026918348
48	0xbdf537d9	-0.11973543
49	0x3c3a32b0	0.011364624
50	0x3ea43e78	0.3207891
51	0xbf60b78b	-0.87780064
52	0x3d3fbb3e	0.046809427
53	0xbeeca1d1	-0.46217206
54	0xbe8dc17e	-0.27686685
55	0x3e21a149	0.15784182
56	0x3d8fbcd2	0.070184365
57	0xbb3cdd23	-0.0028818331
58	0xbfb8db6b	-1.4441961
59	0x3f10951e	0.56477535
60	0x3f58f9e7	0.8475632
61	0xbf027666	-0.5096191
62	0x3eda1215	0.4259192
63	0xbe9416b0	-0.2892356
64	0xbea2a04b	-0.3176292
65	0x3d9d37e4	0.07676676
66	0xbf52b481	-0.8230668
67	0xbe6680ac	-0.22510022
68	0x3f57ba09	0.8426824
69	0xbf68d617	-0.90951675
70	0x3f75e549	0.96052986
71	0xc02d773f	-2.7104032
72	0x3f981f4f	1.1884555
73	0x3e526193	0.20545034
74	0x3dec7a34	0.11546746
75	0x3e6fecc4	0.23430163
76	0x3c872680	0.01649785
77	0x3daadbce	0.08342706
78	0x3e6117f2	0.2198179
79	0xbea68dac	-0.32529962
80	0x3fbb58ad	1.4636437
81	0x3e8d7a0b	0.27632174
82	0xbfc366a5	-1.52657
83	0x3f616ea2	0.8805944
84	0x3e5c2d19	0.21501578
85	0xbe531b95	-0.2061599
86	0x3dbdecd3	0.09273686
87	0x3db7b4a4	0.08970001
88	0x3dabe194	0.08392635
89	0x3ebb9dab	0.3664373
90	0x3e5e1893	0.21689062
91	0x3fc20d48	1.5160303
92	0xbeb3aece	-0.35094303
93	0xbe550015	-0.20800813
94	0xbca7e423	-0.020494526
95	0xbe782e7c	-0.24236482
96	0x3c9a54ac	0.018839203
97	0xbd5670a3	-0.052353512
98	0x3ca67c63	0.020322984
99	0xbcdb8300	-0.026795864

net.0.bias f4 [10]
0	0x3ffaacf4	1.9584031
1	0x3ea0dc22	0.31417948
2	0x3f64edea	0.8942553
3	0xbf723527	-0.94612354
4	0xbf5da3ac	-0.8657787
5	0xbfd81e96	-1.6884334
6	0xbeed52bc	-0.46352184
7	0xbfb5fbc4	-1.4217458
8	0x3f97a893	1.184832
9	0xbfba65ea	-1.4562352

net.2.weight f4 [1, 10]
0	0xbfa722e8	-1.3057528
1	0xbf01d633	-0.5071747
2	0x3f733ed0	0.9501772
3	0xbf46fd9b	-0.7773072
4	0x3fc36964	1.5266538
5	0x3fb5ab12	1.4192832
6	0xbe929f8b	-0.28637347
7	0xbfae5129	-1.3618518
8	0xbfbaeb1b	-1.4602998
9	0xbf7c4271	-0.9853888

exp_avg f4 [10, 10]
0	0x3a88a34b	0.0010424642
1	0x39e03f2e	0.00042771682
2	0x3b0f73ee	0.0021889168
3	0xbb360d17	-0.0027778798
4	0xbb09faa7	-0.0021053941
5	0x3aa6719a	0.0012698651
6	0xba66e03e	-0.00088072184
7	0x39e824e0	0.00044277962
8	0xbbd068a4	-0.0063601304
9	0x3a5c0acd	0.00083939434
10	0xbb26cb21	-0.0025450664
11	0xbb146e0a	-0.0022648596
12	0xbb17a468	-0.0023138765
13	0x3b0e0d90	0.0021675564
14	0x3b26122d	0.0025340423
15	0x3a07c09e	0.00051785435
16	0xbad1aac2	-0.0015996324
17	0xba0c5c32	-0.00053543143
18	0xbb8c83e6	-0.0042881845
19	0xb931d36c	-0.00016958796
20	0xba37e6fa	-0.0007015314
21	0xba8b5e98	-0.001063305
22	0xbacd042d	-0.0015641503
23	0x394fa8a0	0.00019803876
24	0x38b8c420	8.810335e-05
25	0x3972bcc2	0.00023149236
26	0x386d4300	5.6567602e-05
27	0x3b90b0f0	0.004415624
28	0x3bde7142	0.0067884037
29	0xbac13343	-0.0014740009
30	0xbabd47fc	-0.0014441009
31	0xbaf85204	-0.0018945341
32	0xbb42b9f2	-0.0029712883
33	0x3b287430	0.0025704019
34	0x3b11e118	0.002225941
35	0xb93fbc38	-0.00018285296
36	0xbb284bf6	-0.0025680042
37	0xb907b75e	-0.00012942913
38	0xbaf42fc2	-0.0018629956
39	0x3a9d2900	0.0011990368
40	0x3b2b4696	0.0026134602
41	0x3b6115ad	0.0034345195
42	0x3ac8c871	0.0015318525
43	0x3a319040	0.0006773509
44	0x3a57b148	0.0008228016
45	0x397b6ce4	0.0002397779
46	0x3b1cced3	0.0023926988
47	0x3adbad4a	0.0016760018
48	0x3c219705	0.009862666
49	0xbbd8f584	-0.0066210646
50	0xb98282ed	-0.0002489308
51	0x3a188010	0.00058174226
52	0xbad43cd3	-0.0016192443
53	0x3b03ad1c	0.0020092195
54	0x3aaee788	0.0013344148
55	0xbb02774c	-0.0019907532
56	0x3a559f23	0.00081490184
57	0xb93d2480	-0.00018038042
58	0x3bc9f81e	0.006163611
59	0xbacd119c	-0.0015645507
60	0xb87c9600	-6.022118e-05
61	0xb7fdf260	-3.0272815e-05
62	0x3a041493	0.0005038466
63	0xb987687a	-0.00025827048
64	0xb9c674ea	-0.0003785261
65	0x3994559c	0.00028292544
66	0xb9a29241	-0.00031008016
67	0x39c1e9d2	0.00036986038
68	0xbaa96c6e	-0.0012925991
69	0x3a28834e	0.00064282573
70	0xbaa8aef3	-0.0012869522
71	0xba8012f7	-0.0009771277
72	0xbb09ee34	-0.002104652
73	0x3a045592	0.00050481514
74	0xba5550ab	-0.00081373256
75	0x3b3fe7fe	0.0029282565
76	0xbab4807f	-0.0013771205
77	0xba19efa7	-0.0005872198
78	0xbc08d546	-0.00835163
79	0x3891c6d0	6.9511705e-05
80	0xbaa62173	-0.0012674764
81	0xbb4be5f3	-0.0031112402
82	0x3a251bc5	0.00062983885
83	0x3a750d4c	0.00093479897
84	0x3afd1d47	0.0019311093
85	0xba2fd732	-0.0006707787
86	0xba991166	-0.0011678159
87	0xbb00f8eb	-0.0019679617
88	0xbbaefa89	-0.0053399247
89	0xba152b8e	-0.0005690389
90	0x3973d68c	0.00023254211
91	0xbae57026	-0.0017504736
92	0xba0ff63c	-0.0005491709
93	0x3a796f00	0.00095151365
94	0x3a8abc74	0.0010584728
95	0xba0cc977	-0.0005370597
96	0xba90144c	-0.0010992377
97	0xbaf86288	-0.0018950263
98	0xbb5fe8e0	-0.0034165904
99	0x3b8e46e4	0.004341947

exp_avg_sq f4 [10, 10]
0	0x37dc4858	2.6259731e-05
1	0x37b53af3	2.1604332e-05
2	0x3810b995	3.4505112e-05
3	0x38118977	3.4698718e-05
4	0x3805c208	3.1890377e-05
5	0x3887a084	6.4672e-05
6	0x38543358	5.0592556e-05
7	0x3844dbbc	4.6934685e-05
8	0x38554526	5.0847557e-05
9	0x386e39f3	5.679759e-05
10	0x386414ce	5.4378812e-05
11	0x38425d4f	4.6340105e-05
12	0x38af5652	8.360729e-05
13	0x38f70767	0.000117792566
14	0x390617d4	0.00012788113
15	0x38013bff	3.0811872e-05
16	0x37c714cf	2.3732338e-05
17	0x37b82cd0	2.1955377e-05
18	0x38d7ec3c	0.00010296001
19	0x384ff5aa	4.958144e-05
20	0x3831e76a	4.241561e-05
21	0x381739e7	3.605513e-05
22	0x388540e9	6.354025e-05
23	0x384e8cb6	4.9245275e-05
24	0x383f6547	4.563227e-05
25	0x3822f4f1	3.885193e-05
26	0x3807e97c	3.2403957e-05
27	0x382dc603	4.1430827e-05
28	0x39148ab1	0.00014166046
29	0x38e21ba2	0.00010781667
30	0x384a120a	4.8177353e-05
31	0x37f4e42b	2.9193316e-05
32	0x3887c75d	6.474436e-05
33	0x38bfc465	9.144171e-05
34	0x38d895a8	0.00010327558
35	0x37df29c5	2.6603122e-05
36	0x37b4d46b	2.1556587e-05
37	0x37bc89d2	2.2475524e-05
38	0x38c461eb	9.364247e-05
39	0x3834f688	4.3144944e-05
40	0x3988cf67	0.00026094468
41	0x39206248	0.00015295402
42	0x39995daa	0.0002925222
43	0x3a0f2406	0.0005460385
44	0x3a262823	0.00063383783
45	0x38cb7ad8	9.702676e-05
46	0x38b33117	8.544529e-05
47	0x3871a9a9	5.7616886e-05
48	0x39cc62e9	0.00038983606
49	0x39cca3c2	0.0003903192
50	0x38485198	4.7759706e-05
51	0x3824852b	3.922467e-05
52	0x388dbec5	6.7589375e-05
53	0x38a2a635	7.7557204e-05
54	0x3893d69b	7.0494796e-05
55	0x38bc96f9	8.9926594e-05
56	0x388ed0b8	6.8099645e-05
57	0x38933c7c	7.020772e-05
58	0x389ed6eb	7.574059e-05
59	0x38a60244	7.915919e-05
60	0x36a03249	4.7742255e-06
61	0x365ae7ec	3.2619528e-06
62	0x36d1fa10	6.2577965e-06
63	0x370886dd	8.137632e-06
64	0x370c4f41	8.363103e-06
65	0x365b3e24	3.2669714e-06
66	0x3618e166	2.2780964e-06
67	0x361a356f	2.297889e-06
68	0x37211f05	9.60357e-06
69	0x372ed49b	1.0420709e-05
70	0x38bf7f53	9.131306e-05
71	0x38902d12	6.87485e-05
72	0x390a8afd	0.00013212483
73	0x397a73c0	0.00023884978
74	0x398f270e	0.00027304183
75	0x381036de	3.4383374e-05
76	0x383ee525	4.5512938e-05
77	0x3785b900	1.5940983e-05
78	0x38fe2df8	0.00012120226
79	0x396f68be	0.00022831836
80	0x38625d71	5.3969623e-05
81	0x38751a61	5.843712e-05
82	0x385432a4	5.05919e-05
83	0x3843d57d	4.669045e-05
84	0x38301081	4.197704e-05
85	0x387a0696	5.961078e-05
86	0x38444a8e	4.6799476e-05
87	0x3887585b	6.453759e-05
88	0x3908ea84	0.00013057335
89	0x392757c9	0.00015959064
90	0x37b7ac1b	2.1895443e-05
91	0x378979f4	1.6388462e-05
92	0x37f67e9c	2.9384442e-05
93	0x37ec29bc	2.8152826e-05
94	0x37e38ec2	2.7126986e-05
95	0x37f814ad	2.9573532e-05
96	0x37f026c8	2.8628288e-05
97	0x37ce9860	2.4628069e-05
98	0x3861ab22	5.380356e-05
99	0x383c7c87	4.4938668e-05

exp_avg f4 [10]
0	0x3c01cebe	0.007922826
1	0x3b2d462e	0.0026439535
2	0xb897d8b0	-7.240602e-05
3	0x3b3f3af3	0.0029179424
4	0xbbe1db0a	-0.0068925666
5	0xbc00b1d0	-0.007854894
6	0x3a58c9a2	0.0008269792
7	0x3b905367	0.0044044736
8	0x3bd1fe27	0.006408471
9	0xba21860e	-0.00061616383

exp_avg_sq f4 [10]
0	0x38b6cc68	8.71651e-05
1	0x38f68457	0.00011754844
2	0x3887fb3a	6.484096e-05
3	0x38a6a522	7.946255e-05
4	0x3a26677c	0.0006347818
5	0x390fc58b	0.00013711133
6	0x370bc54c	8.330982e-06
7	0x394bd5b6	0.00019439202
8	0x39090c97	0.00013070028
9	0x37e9b864	2.7861628e-05

exp_avg f4 [1, 10]
0	0x3aae1f25	0.0013284428
1	0xbb7cd653	-0.0038579896
2	0xbc0df75f	-0.008664935
3	0x3a749ff6	0.00093316974
4	0x3bf12681	0.0073593264
5	0xbad674fa	-0.0016361766
6	0x3c097226	0.0083890315
7	0x3b851cba	0.0040622624
8	0xbb03c1b6	-0.0020104474
9	0x3bbf95af	0.005846701

exp_avg_sq f4 [1, 10]
0	0x3a18cba1	0.0005828683
1	0x397cca20	0.0002410789
2	0x3a003706	0.00048910116
3	0x39c35ace	0.00037260953
4	0x394f4e58	0.00019770244
5	0x3a0ccf2e	0.00053714484
6	0x398e8e6c	0.00027190463
7	0x3995d384	0.00028577086
8	0x39fbdf85	0.00048040986
9	0x3a0efdea	0.0005454706
