Topic 2/4.2 Cross-validation methods/lightning_logs/version_9/checkpoints/epoch=9-step=1340.ckpt (torch, 8754 bytes, 9 tensors)

net.0.weight f4 [10, 10]
000000 35 1a 80 be 95 a9 92 bf bf e5 b5 bf 41 f5 5a 3f
       -0.25019994 -1.1458002 -1.4210738 0.8553048
000010 ec f8 88 3e 3a a6 46 40 0d e9 99 3f a3 5b 11 3e
       0.26752412 3.1038957 1.2024246 0.14195113
000020 7d c6 6c 3f 66 52 82 3e ec 3b ee bf f5 15 b0 bf
       0.9249037 0.2545349 -1.8612037 -1.3756701
000030 58 93 8b be c2 d5 0b bf d3 95 1f bf 27 63 1b 40
       -0.27260852 -0.54623044 -0.6233799 2.4279268
000040 04 dd 1c 3f bd 04 19 bf 7e 6e 5d bf df 9a fb bf
       0.61274743 -0.59772855 -0.8649672 -1.9656638
000050 1a 54 66 3e b6 89 47 bf b7 94 7f bf 58 76 55 3f
       0.2249302 -0.77944505 -0.99836296 0.83383703
000060 8d be 72 3f f2 cf e6 3e a4 84 8a c0 e5 61 ac bd
       0.9482201 0.45080525 -4.3286915 -0.084171094
000070 0b c8 28 be 39 0a f1 bd c7 8e 91 bf 80 57 8e bf
       -0.1648256 -0.11769528 -1.1371697 -1.1120453
000080 4e 5a ed be c5 38 08 bf a0 a0 15 bf a4 1e 05 3f
       -0.4635796 -0.53211623 -0.5844822 0.5199988
000090 fa fb b0 3e 67 9e a7 3e 7c be 32 c0 9d f9 18 3f
       0.34567243 0.3273804 -2.7928762 0.5975588
0000a0 5d 79 97 be d1 d3 6e 3f 33 45 99 bf 84 55 4d bf
       -0.2958478 0.93291956 -1.1974243 -0.8020861
0000b0 3d da 4e bf 3a 9d c4 bf fd 57 ac c0 02 6b 38 be
       -0.80801755 -1.5360482 -5.3857408 -0.1800957
0000c0 f6 13 9f 3b 61 d9 2b bf 64 93 94 3f 58 1e 28 3d
       0.0048546745 -0.6712857 1.160748 0.041044563
0000d0 fd e7 01 3f 42 5e 89 be 96 db 25 bf a6 43 53 3f
       0.5074461 -0.26829726 -0.64788187 0.825251
0000e0 3e 29 dc bf 61 43 66 c0 1b 18 e6 3e 75 ab 0d 3e
       -1.7200086 -3.5978625 0.44940266 0.13834937
0000f0 c0 45 a7 3f 05 32 b7 3e 5f 60 2c 3e 09 2a 22 3f
       1.3068161 0.3578035 0.16833638 0.6334539
000100 34 4b 9e 3f 78 3b 56 bf 75 21 9c bf 87 20 57 3f
       1.23667 -0.8368449 -1.219771 0.8403401
000110 ab 29 99 3f 80 30 44 40 d7 bd d0 bf f5 ab 15 3f
       1.1965841 3.0654602 -1.6307935 0.5846551
000120 4c 06 05 c0 9c a8 f6 be 6f 43 11 bf 08 d5 81 3e
       -2.0785093 -0.48175514 -0.5674352 0.25357842
000130 8b 17 c0 bf ea e4 0d 3e 68 64 10 be 2a 6b 4f c0
       -1.5007185 0.13856855 -0.14100802 -3.2409158
000140 82 e4 04 40 7e 74 b2 3f 10 79 45 3e 1d ae 9a 3d
       2.076447 1.39418 0.19284463 0.07552741
000150 7c a2 a0 3e a5 8a e3 bf 36 8b c6 3e 6d 5d 0b 3f
       0.31373966 -1.7776686 0.38778085 0.5443943
000160 4e b7 82 3f ec 5f d8 3f f9 8e 84 c0 93 a6 5c bf
       1.021219 1.6904273 -4.1424527 -0.8619167
000170 54 80 f7 3e 85 f8 2d 3f 8e 72 22 3f 7d a5 82 3e
       0.48340094 0.67957336 0.63456047 0.25516883
000180 f9 75 8e 3f 4a 23 be 3e 71 db 28 c0 6f c6 72 bc
       1.1129752 0.37136298 -2.6383936 -0.014817818

net.0.bias f4 [10]
000000 83 68 71 3f dc ca 31 3e 21 90 ac 3f 25 c3 0b c0
       0.943001 0.17362541 1.3481485 -2.1837857
000010 51 cd 3d 3e e4 67 04 bd 00 6d d9 3e 2e 5e b5 be
       0.18535353 -0.03232564 0.42465973 -0.35423416
000020 e5 fd 5b bd 60 c8 71 3f
       -0.05370893 0.94446373

net.2.weight f4 [1, 10]
000000 3d 21 49 bf f8 35 c4 be 4b 9a 2c bf 79 03 08 40
       -0.7856634 -0.38322425 -0.6742293 2.125212
000010 8d a6 68 3e 91 01 97 3e 22 78 d1 be 67 95 a3 3e
       0.22719784 0.29493383 -0.40911967 0.31949922
000020 cc 7f 8c 3d 7c 36 31 3f
       0.06860313 0.6922376

exp_avg f4 [10, 10]
000000 c2 11 e3 b9 de da 4a b9 ad 93 17 bb 95 9d 9c 3b
       -0.00043310045 -0.00019345756 -0.0023128793 0.0047795274
000010 57 9c a5 3b 30 84 40 b9 ea 3e ff ba 7c 54 0b 3a
       0.0050540376 -0.0001835979 -0.0019473706 0.00053150184
000020 35 b9 0d 3b 20 a5 34 b9 dd 30 55 3a 9a 04 a6 3a
       0.0021625285 -0.00017227652 0.00081325864 0.0012666166
000030 4a f4 2b 39 64 1b 4b 39 ae c2 59 39 1e dc 1c ba
       0.00016398836 0.00019369792 0.00020767257 -0.0005983728
000040 e3 ec 9a ba c1 bc cf b9 b3 e0 0b 3a e1 84 16 bb
       -0.0011819865 -0.0003962275 0.0005335912 -0.0022967386
000050 60 07 69 39 06 01 5b ba 52 54 33 bb 56 8e 92 3b
       0.00022223359 -0.00083543395 -0.0027363491 0.004472534
000060 83 c9 8e 3b 47 fb 43 ba ee 0e 61 ba 11 31 09 ba
       0.004357518 -0.0007476103 -0.00085852935 -0.0005233447
000070 bd ca 11 3b 57 d2 0f bb 40 8c 50 3a 96 b8 14 bc
       0.0022246086 -0.002194544 0.0007955469 -0.009077212
000080 c0 44 b1 3b 09 91 6b bc f2 0f 7d bc 06 33 e6 bb
       0.005409807 -0.014377841 -0.015445696 -0.0070251254
000090 1b 76 d7 3c 76 51 6b bc 37 87 81 bd 5e 47 da 3c
       0.026301434 -0.0143626835 -0.06324618 0.026645359
0000a0 5e fa ac ba a6 0b 6f ba a5 a4 9c ba c7 0d 3f 3a
       -0.0013197174 -0.0009118862 -0.0011950923 0.0007288125
0000b0 05 88 18 3a 1c 6c 09 ba e9 eb 4e 3a 43 bb b7 b8
       0.00058186083 -0.0005242245 0.000789343 -8.761e-05
0000c0 36 85 c8 b9 c6 d1 c3 b9 4c 89 36 ba 6e e6 2f bb
       -0.00038246223 -0.00037349592 -0.0006963208 -0.0026840228
0000d0 d9 ef 92 ba 46 32 68 39 92 bd 6f b9 2e 72 10 b9
       -0.0011210396 0.00022143972 -0.00022863437 -0.00013775445
0000e0 2d b2 1d 3a a6 78 05 ba 83 46 03 bb 73 4a b8 39
       0.0006015625 -0.00050915254 -0.0020031042 0.00035150684
0000f0 fe 70 08 3a d5 bc 96 3a 11 55 a1 39 61 a4 53 3a
       0.00052048254 0.0011500368 0.00030771692 0.00080735056
000100 9d c3 83 3a c2 bf 9c 39 d7 fe 0b bb 1a 8b cd 3a
       0.0010052804 0.0002989751 -0.0021361613 0.0015681714
000110 73 9e 01 3b 9a 0f e1 ba dd 51 6f ba 5e 1a 6a ba
       0.001977828 -0.0017170787 -0.0009129325 -0.00089303206
000120 70 45 1b ba 09 d2 d0 b8 bd c0 ec b8 d2 43 4f 3a
       -0.0005923128 -9.957335e-05 -0.00011289257 0.00079065294
000130 0d 2b f7 b9 5b ef be b8 02 78 d1 b9 58 bb b5 39
       -0.00047143587 -9.1044894e-05 -0.00039953 0.00034662592
000140 3a a9 b6 b9 c6 f6 0a ba 4e 8c c5 b8 7d 37 92 b9
       -0.0003483983 -0.00053010543 -9.419826e-05 -0.00027888632
000150 b4 15 50 b9 70 d6 1f 3a 13 99 00 3a 85 f0 5a b9
       -0.00019844511 0.00060973223 0.00049056223 -0.000208797
000160 42 c0 3c 39 b6 53 24 3a 93 4a da 3b 8b 86 86 3a
       0.00018000699 0.00062685774 0.006661722 0.0010263486
000170 fc 63 d8 3b 33 90 1a bc e1 b4 1b bc 0d e8 82 bb
       0.006603716 -0.009433794 -0.009503574 -0.0039949478
000180 83 d1 f6 3b 46 e9 c5 ba f0 cf 93 b9 af 9d e0 3b
       0.0075323 -0.0015099428 -0.0002819295 0.006854735

exp_avg_sq f4 [10, 10]
000000 fb 98 48 38 83 76 0d 38 ef 33 37 38 e1 96 b4 38
       4.782619e-05 3.3727392e-05 4.3678967e-05 8.611172e-05
000010 0f 1f bb 38 86 20 84 37 94 90 a9 37 0d 75 26 37
       8.92264e-05 1.5750771e-05 2.0213694e-05 9.921624e-06
000020 5e e7 49 39 da 05 d1 37 90 18 a2 38 75 67 53 38
       0.00019255045 2.4917466e-05 7.729337e-05 5.0402672e-05
000030 1c 4d 71 38 91 8d 64 38 f0 5a 5f 38 fb c1 e1 37
       5.753069e-05 5.449128e-05 5.3252035e-05 2.691242e-05
000040 09 3d c4 37 02 51 82 37 b5 75 7b 39 ce 29 62 38
       2.3393442e-05 1.553493e-05 0.00023981075 5.3921533e-05
000050 cd 2b 12 38 f9 5d de 37 e6 05 1c 38 bc 1b 89 38
       3.4849905e-05 2.6508222e-05 3.719879e-05 6.537835e-05
000060 b1 6c 92 38 44 d7 08 37 11 11 95 37 22 00 38 37
       6.982068e-05 8.156352e-06 1.7770131e-05 1.0967286e-05
000070 aa 14 f8 37 5e 3a c9 37 d1 1e b7 39 7c 20 95 39
       2.9573526e-05 2.3988247e-05 0.0003492744 0.00028443697
000080 a8 be e6 39 98 79 dc 39 8f 91 d9 39 a9 23 9a 39
       0.00044011069 0.00042052264 0.00041497915 0.00029399738
000090 c7 be 01 3a 54 1a 94 39 ce ee e1 3a 25 6c 2a 3a
       0.00049493875 0.00028248376 0.0017237307 0.00065011
0000a0 83 38 25 38 54 4c e3 37 81 bc f8 37 3f 7c 19 38
       3.9391696e-05 2.7096052e-05 2.9651683e-05 3.6593756e-05
0000b0 1d 67 1f 38 f4 bc 41 37 ab 1e 13 37 00 fe 8d 36
       3.8004586e-05 1.15476905e-05 8.769023e-06 4.231697e-06
0000c0 7f c2 10 38 e5 f0 92 37 43 8c 12 38 5c 34 43 38
       3.4513414e-05 1.7516732e-05 3.493974e-05 4.6540386e-05
0000d0 a7 db 4c 38 b6 c5 b8 38 14 9f c2 38 22 be 56 37
       4.8841957e-05 8.81063e-05 9.2802715e-05 1.2799663e-05
0000e0 77 d9 30 37 7b e8 cc 36 66 55 34 39 17 cb cc 37
       1.054105e-05 6.106738e-06 0.00017197951 2.4413266e-05
0000f0 6e 51 ba 38 6b 78 7d 38 18 88 5d 38 d9 84 9a 38
       8.8843386e-05 6.043205e-05 5.2817253e-05 7.368037e-05
000100 ea 64 a5 38 e8 fd 0d 38 2e 7e 33 38 97 98 d5 37
       7.88661e-05 3.385349e-05 4.279444e-05 2.5462634e-05
000110 9d 27 b0 39 5e 8b 6a 38 66 c9 49 38 d8 db 1e 38
       0.0003359885 5.5919743e-05 4.81097e-05 3.787488e-05
000120 db 89 4c 38 78 7b 94 38 9d 2d a3 38 c4 fa 89 37
       4.8765778e-05 7.080188e-05 7.780942e-05 1.6448445e-05
000130 bc 4b 80 37 11 9e 01 37 72 30 ea 38 be ae c5 37
       1.5294056e-05 7.725802e-06 0.00011167013 2.35656e-05
000140 39 80 2f 38 23 41 04 38 35 e0 cd 37 66 a6 de 37
       4.1842668e-05 3.1531916e-05 2.4542309e-05 2.6541948e-05
000150 3b 41 d5 37 ec 10 a4 37 e1 1b a1 37 8d fc 1d 37
       2.5421954e-05 1.9558203e-05 1.9205678e-05 9.416731e-06
000160 70 d3 32 39 e2 af d1 37 23 74 fc 38 81 30 e0 38
       0.0001705417 2.4996643e-05 0.000120379285 0.00010690187
000170 05 b3 57 39 bd e1 83 39 1e 5a 81 39 8f 65 00 39
       0.00020570688 0.00025154455 0.0002467194 0.00012244865
000180 ff 98 29 39 06 15 bd 38 b1 61 b8 3a e2 2d 79 39
       0.00016174091 9.016138e-05 0.00140672 0.00023763583

exp_avg f4 [10]
000000 5d 61 5c bc db 8e 05 bc 9f 28 6a bc ea 90 f2 3d
       -0.013450948 -0.008151735 -0.014291911 0.118440464
000010 7d ae 94 3b 8e d1 1c 3c 47 65 44 bc bb 6d f5 3b
       0.004537402 0.009571446 -0.011987037 0.0074898875
000020 16 43 50 3b 95 83 bf 3c
       0.0031778268 0.023378173

exp_avg_sq f4 [10]
000000 82 98 f3 39 2b 36 83 3a 1e d2 99 39 4b 2e 17 3c
       0.000464622 0.001001065 0.00029338984 0.009227346
000010 3a aa 8e 39 00 60 07 3a d3 e1 a0 3a 30 f8 fa 39
       0.0002721118 0.00051641464 0.0012274332 0.0004786863
000020 13 25 16 3a d8 86 49 3b
       0.00057275704 0.003075054

exp_avg f4 [1, 10]
000000 1e a0 27 3c b1 d6 60 3c 35 cd 77 3c b4 4d f4 bc
       0.010231046 0.013723061 0.015124609 -0.029822208
000010 74 95 d8 bc 01 3d 90 bb d1 b1 7a 3c 5b 08 fb bc
       -0.026438452 -0.0044018035 0.015301184 -0.030643633
000020 08 be 13 3a c0 c7 3a 3d
       0.0005635922 0.045600653

exp_avg_sq f4 [1, 10]
000000 bc 5e e8 3b 19 73 92 3b 3c 25 bc 3b b2 7b 6f 3b
       0.0070913713 0.004469287 0.0057417434 0.0036542234
000010 7c d8 80 3b cd 96 ac 3b 93 7f 66 3b cd a5 a2 3b
       0.003932057 0.0052670003 0.0035171255 0.0049636126
000020 8f d5 5d 3b d4 b2 48 3c
       0.0033849215 0.012249667
