Topic 2/4.1 Quality metrics for classification/lightning_logs/version_0/checkpoints/epoch=9-step=750.ckpt (torch, 8818 bytes, 9 tensors)

net.0.weight f4 [10, 10]
0	0xbf5cdb43	-0.86272067
1	0xbf4b6697	-0.79453415
2	0x3f54c499	0.83112484
3	0x3eb817eb	0.35955748
4	0x3e89a79a	0.26885682
5	0xbe1d13c2	-0.15339568
6	0x3f2190d2	0.63111603
7	0x3e2cf86b	0.16891639
8	0x3f4cc25b	0.7998406
9	0x3f7f2125	0.9965995
10	0x3fd6fba6	1.6795547
11	0xbcaa0750	-0.02075544
12	0xbf89bcb5	-1.0760714
13	0x3f564755	0.83702594
14	0x3e548dea	0.20757261
15	0xbe3a4ed3	-0.18194132
16	0xbde0e9d5	-0.109821
17	0xbc016f01	-0.007900001
18	0x3ceb3632	0.028712366
19	0x3f039594	0.51400113
20	0xbd30a087	-0.04312184
21	0xbf089504	-0.5335238
22	0x3ea74d75	0.32676283
23	0x3db6c1e9	0.08923704
24	0xbe450d37	-0.19243322
25	0x3d68985e	0.056785934
26	0xbc35765f	-0.011075585
27	0xbe2e8b0d	-0.17045231
28	0xbe0fd57b	-0.1404628
29	0xbce10b5b	-0.027471235
30	0xbf9b797a	-1.2146447
31	0x3ed4ecc9	0.41586903
32	0xbc07e0cd	-0.008293343
33	0xbf18eae6	-0.59733427
34	0xbf0c138c	-0.54717326
35	0xbd8b3b52	-0.06798424
36	0xbd09cd60	-0.033643126
37	0x3e7fd323	0.24982886
38	0xbfd39370	-1.6529369
39	0x3daa9340	0.08328867
40	0x3d45edfa	0.048322655
41	0x3e52d181	0.20587732
42	0xbf2e2e68	-0.6803956
43	0x3e0cc867	0.13748322
44	0xbbce39be	-0.0062935045
45	0xbf586a98	-0.8453765
46	0xbe72f39d	-0.23725744
47	0xbe9f1741	-0.3107243
48	0xbea8cc7e	-0.32968515
49	0xbfde4c92	-1.7367117
50	0xbea7a405	-0.32742324
51	0x400bce8e	2.184482
52	0xbe7c2166	-0.24622115
53	0xbcba0191	-0.022705825
54	0x3e944093	0.28955516
55	0xbf0abd2e	-0.54194915
56	0x3dbfa9a2	0.09358527
57	0x3d358418	0.044315428
58	0xbef06d79	-0.4695852
59	0xbe18dcd6	-0.14927992
60	0xbeba2f4a	-0.36364204
61	0x3fa90998	1.3206053
62	0xbec70c19	-0.38876417
63	0x3f164e39	0.5871311
64	0x3e6f4a8f	0.23368286
65	0x3e1227d6	0.14273009
66	0xbdb3459a	-0.0875351
67	0xbc960c94	-0.018316545
68	0x3ffa3ad0	1.9549198
69	0xbf1f2f50	-0.6218157
70	0x3eac193b	0.33613
71	0x3f333802	0.70007336
72	0x3f49469a	0.78623354
73	0x3ecbde4d	0.3981804
74	0x3f0cf4de	0.5506114
75	0xbe7d32cd	-0.2472641
76	0xbabc2c2a	-0.0014356424
77	0x3cd53ef1	0.02603099
78	0xbdde64eb	-0.10859092
79	0xbd93d062	-0.0721748
80	0xbf0ff4ed	-0.562331
81	0xbe9b69d6	-0.30354184
82	0x403cd9b6	2.950788
83	0x3f12aed7	0.57298034
84	0x3d54aff5	0.05192562
85	0xbed1c0bc	-0.40967357
86	0x3e451040	0.1924448
87	0x3d2d426c	0.042299673
88	0xbd03fe10	-0.032224715
89	0xbc004e69	-0.007831194
90	0xbfb1270b	-1.384004
91	0xbf1b4c13	-0.60662955
92	0x3f6e35da	0.9305092
93	0x3eb6062e	0.3555159
94	0x3f17b307	0.5925755
95	0x3dc4b53b	0.096048795
96	0x3efebb56	0.497523
97	0x3e39719d	0.18109746
98	0xbf078314	-0.52934384
99	0x3da202d9	0.079106994

net.0.bias f4 [10]
0	0x3fdeb080	1.7397614
1	0x3fa62978	1.2981405
2	0x3dc6e9ce	0.097125635
3	0xbf263d4e	-0.64937294
4	0x3f185dc1	0.5951806
5	0x3f98e159	1.1943771
6	0x40208df2	2.5086637
7	0xbf99f48f	-1.2027758
8	0x3f4a7251	0.79080683
9	0x3f2c789d	0.6737154

net.2.weight f4 [1, 10]
0	0x3fa28249	1.269601
1	0xbfd66b45	-1.6751486
2	0xbd11dcd1	-0.035610978
3	0x3f5b9ef7	0.85789436
4	0x3f0bfdbe	0.54684055
5	0x3f983add	1.1892964
6	0xc0109534	-2.2591066
7	0xbf1fbcc5	-0.62397414
8	0xbff71c2e	-1.9305475
9	0x3f733f5f	0.9501857

exp_avg f4 [10, 10]
0	0xbacda41a	-0.0015689165
1	0x3ad8d158	0.0016541881
2	0xbaa1f840	-0.001235731
3	0x3ac0981f	0.0014693773
4	0x3a97f72b	0.0011594048
5	0x3b31620a	0.0027066492
6	0x3b76587b	0.003758936
7	0x3aeeb059	0.0018210515
8	0x39469300	0.00018937513
9	0xbb56210e	-0.003267351
10	0xb8a82da8	-8.0193684e-05
11	0xbac169b2	-0.0014756231
12	0x3b26b898	0.0025439616
13	0xbb253f74	-0.0025214823
14	0xbad9fc46	-0.001663097
15	0xb9838278	-0.00025083474
16	0xbba2f777	-0.0049733478
17	0xbba954ce	-0.00516758
18	0xbb3bba20	-0.0028644875
19	0x3af3149a	0.0018545568
20	0x3990f673	0.0002764944
21	0xb8b36582	-8.5542924e-05
22	0x392c296a	0.00016418626
23	0xb8a84c14	-8.025035e-05
24	0x37002c88	7.639763e-06
25	0xb881957b	-6.179042e-05
26	0xb997215b	-0.00028825816
27	0x38805096	6.118526e-05
28	0xba088439	-0.0005207691
29	0x39f47700	0.0004662797
30	0xbb1d8626	-0.0024036258
31	0x3a323cc6	0.0006799217
32	0xbaad712e	-0.0013232583
33	0x3a44c3d5	0.0007505988
34	0x39958726	0.00028520188
35	0xba8455a6	-0.0010096326
36	0xba1f8ff9	-0.0006086822
37	0x3a3d1b17	0.00072138145
38	0x3aefc61e	0.0018293296
39	0xbaf945b3	-0.0019017964
40	0x39349518	0.0001722168
41	0x3aed5424	0.0018106741
42	0x3a2f1cff	0.0006680041
43	0xba86e070	-0.0010290276
44	0xbb1926d4	-0.002336909
45	0xba990a45	-0.0011676034
46	0x3a9a9024	0.0011792225
47	0x3a55ff75	0.0008163371
48	0x3ab36c99	0.0013688981
49	0xba2dd640	-0.0006631352
50	0xbaea9de6	-0.0017899841
51	0xbb206f48	-0.0024480391
52	0xbabe6594	-0.0014526122
53	0x3b7bd2df	0.003842525
54	0x3b3b04ec	0.002853687
55	0xbb45ef95	-0.0030202616
56	0x39d1cbd0	0.0004001544
57	0xbaa49ee6	-0.0012559562
58	0x3c300ba2	0.010744961
59	0xbc100d6d	-0.008792263
60	0x3b07adba	0.0020702914
61	0x38877510	6.459106e-05
62	0x3b1467bd	0.002264484
63	0xbb3506d8	-0.0027622487
64	0xbac5bf36	-0.0015086893
65	0xbb3201d7	-0.002716174
66	0xbb4cc25e	-0.0031243782
67	0xbbb156a2	-0.0054119388
68	0xbbd3ff19	-0.006469619
69	0x3b6f47db	0.0036511335
70	0x3a6b3a2e	0.0008973208
71	0xba05c273	-0.00051025226
72	0x39b15c98	0.00033829059
73	0xb9d07d2f	-0.0003976612
74	0x39623e84	0.00021576328
75	0xbadd68e0	-0.0016892217
76	0xbaa6b0ef	-0.0012717525
77	0x3a1c0f65	0.00059532217
78	0xbb249112	-0.0025110883
79	0x3b56a0d6	0.0032749674
80	0x3b8ce4ba	0.0042997273
81	0xbb13ca21	-0.0022550898
82	0xb99d381c	-0.00029987178
83	0xba158128	-0.00057031447
84	0x3afb7a7c	0.0019186283
85	0x3a9bf4f9	0.0011898569
86	0xbbdb8f2a	-0.006700416
87	0xbb572aaa	-0.0032831826
88	0xbb48436a	-0.003055776
89	0x3b8059ce	0.0039169556
90	0xbb1b1326	-0.0023662536
91	0x3a55a9a5	0.0008150584
92	0xbb01d1a8	-0.0019808803
93	0x3adc0e10	0.0016788859
94	0x3abeae90	0.0014547873
95	0x3a6da1f9	0.00090649683
96	0x3a9d2f55	0.0011992255
97	0x396d858a	0.00022651828
98	0x3b6d4adc	0.003620795
99	0xbaef4d4a	-0.0018257287

exp_avg_sq f4 [10, 10]
0	0x38736fe2	5.8039914e-05
1	0x38365b1f	4.3477045e-05
2	0x388db24f	6.7566165e-05
3	0x38976862	7.219684e-05
4	0x389f8aea	7.6075856e-05
5	0x3883aa25	6.278259e-05
6	0x387d378d	6.0371636e-05
7	0x387cd21e	6.027717e-05
8	0x385c44c1	5.251612e-05
9	0x3925ae84	0.00015800638
10	0x38ab64ff	8.1727274e-05
11	0x389b999f	7.41959e-05
12	0x38b03e7d	8.403973e-05
13	0x38d5a795	0.00010187846
14	0x38dc2ea0	0.00010499102
15	0x38d86f77	0.000103204446
16	0x38ddeba4	0.00010581993
17	0x38e6119d	0.000109705354
18	0x3919e1b2	0.00014675295
19	0x398b4fe2	0.00026571663
20	0x3607d5ae	2.0240946e-06
21	0x35b59120	1.3527788e-06
22	0x359041e6	1.0748015e-06
23	0x35d2244e	1.5656785e-06
24	0x35dac42f	1.6299363e-06
25	0x35920187	1.0878292e-06
26	0x357e9d57	9.4851333e-07
27	0x354b6b89	7.577988e-07
28	0x3723ca24	9.762622e-06
29	0x3599208f	1.1408864e-06
30	0x383c2277	4.485479e-05
31	0x3825d638	3.9538572e-05
32	0x386362af	5.4212924e-05
33	0x38527669	5.017818e-05
34	0x38430551	4.6496574e-05
35	0x382b5e4c	4.0857398e-05
36	0x3819d8eb	3.6680063e-05
37	0x3831d62a	4.2399544e-05
38	0x380c3755	3.3430133e-05
39	0x38bb0e2c	8.9194946e-05
40	0x37eb561a	2.8054277e-05
41	0x37aaf48a	2.0379452e-05
42	0x381843d4	3.6302794e-05
43	0x3863e1ad	5.4331194e-05
44	0x3867a263	5.5225926e-05
45	0x37deca3d	2.6558637e-05
46	0x37798c26	1.4874187e-05
47	0x3784af31	1.5817206e-05
48	0x381bc56d	3.7138747e-05
49	0x3795480d	1.7795735e-05
50	0x38c3d014	9.337082e-05
51	0x388b994a	6.656589e-05
52	0x3911c40b	0.0001390131
53	0x39468ff9	0.00018936385
54	0x393c369d	0.00017949422
55	0x386cbaea	5.6440862e-05
56	0x388d401d	6.735346e-05
57	0x380205a1	3.0999658e-05
58	0x3954e649	0.00020303683
59	0x39201a4f	0.0001526859
60	0x38d00647	9.919382e-05
61	0x38b378df	8.557899e-05
62	0x38edccff	0.00011339224
63	0x3907e78e	0.00012960864
64	0x3900284b	0.00012222042
65	0x3970ce66	0.00022965073
66	0x3923cfd5	0.00015622315
67	0x39096da3	0.00013106181
68	0x3909fc6b	0.00013159371
69	0x395f19c8	0.00021276542
70	0x38395928	4.419047e-05
71	0x380db53d	3.378581e-05
72	0x38714ac3	5.7528505e-05
73	0x38c60421	9.442145e-05
74	0x38de670b	0.00010604978
75	0x3819f157	3.6702808e-05
76	0x380bd4a7	3.333823e-05
77	0x37d8ee19	2.586008e-05
78	0x388105a0	6.152247e-05
79	0x3897702b	7.221134e-05
80	0x39cc5950	0.00038976455
81	0x395e74f0	0.00021215132
82	0x39ba24f1	0.00035504208
83	0x3a3a99fa	0.0007118281
84	0x3a570a90	0.0008203173
85	0x393a3fe6	0.00017762146
86	0x395034d7	0.0001985611
87	0x38f4823a	0.00011659083
88	0x39f3c49b	0.00046495054
89	0x3a0aa96a	0.0005289527
90	0x3860f49c	5.3633572e-05
91	0x382d5eab	4.133458e-05
92	0x388c00a7	6.675842e-05
93	0x3894f20f	7.102277e-05
94	0x388cf369	6.721059e-05
95	0x389f3a55	7.592576e-05
96	0x387ec216	6.0739076e-05
97	0x388120bd	6.157297e-05
98	0x38e370ab	0.000108451895
99	0x390aefaa	0.00013249987

exp_avg f4 [10]
0	0xbad50f18	-0.0016255109
1	0x3b4b1a44	0.0030990997
2	0xb6ffd9c0	-7.6249416e-06
3	0xba8e44d1	-0.0010854249
4	0xbb322562	-0.0027182926
5	0xbb38a9e0	-0.0028177425
6	0x3bbbfd39	0.0057369736
7	0x3abfc53c	0.0014630924
8	0x3b0695e8	0.0020536128
9	0xba9aa7f6	-0.0011799324

exp_avg_sq f4 [10]
0	0x38d3f17e	0.000101062455
1	0x395c04a5	0.00020982565
2	0x367bd395	3.7525072e-06
3	0x38b0f480	8.437876e-05
4	0x3836b143	4.355727e-05
5	0x393e85a6	0.000181696
6	0x397ca216	0.00024092974
7	0x388927c1	6.540074e-05
8	0x3a26b706	0.000635967
9	0x38ea642e	0.000111766494

exp_avg f4 [1, 10]
0	0xbb347a81	-0.0027538838
1	0xbb345e28	-0.0027521942
2	0xbb936a5a	-0.004498762
3	0xbaa6b5c4	-0.0012718965
4	0x3b6d7376	0.003623215
5	0xbb85c45f	-0.004082247
6	0x3be4cb58	0.0069822483
7	0x39b327e8	0.00034171273
8	0xbb4b4cb6	-0.0031021065
9	0x3a5ca494	0.0008416858

exp_avg_sq f4 [1, 10]
0	0x39dfc5f9	0.00042681376
1	0x39bfded9	0.00036596393
2	0x3846b0c4	4.7371504e-05
3	0x39b0a2d8	0.00033690664
4	0x39c4bb56	0.0003752361
5	0x396c10b0	0.0002251293
6	0x3a0d2f48	0.00053857686
7	0x39bb3293	0.000357051
8	0x398f2a3e	0.00027306558
9	0x39c0554d	0.00036684648
