Topic 2.1/4.2 Cross-validation methods/lightning_logs/version_1/checkpoints/epoch=9-step=1340.ckpt (torch, 8754 bytes, 9 tensors)

net.0.weight f4 [10, 10]
000000 ae 85 b3 bf 07 1f 36 bf ca 33 02 bf 8e 04 d2 3e
       -1.4025171 -0.71141094 -0.50860274 0.410191
000010 c2 08 3f 3e 28 c0 a0 3f bb b8 e9 be f1 c3 89 40
       0.18655685 1.2558641 -0.4564875 4.3051686
000020 f9 f3 78 be 8a 1c d5 be 91 e3 b3 bf f4 f5 61 bf
       -0.24311818 -0.41623336 -1.4053823 -0.8826592
000030 f0 5c 96 be da df ec be 9b 66 43 bf db 7e 87 3e
       -0.2936778 -0.46264535 -0.7632844 0.2646397
000040 8e d9 88 3e 88 90 2f 3f f9 37 2d c0 3c 51 0c 3f
       0.2672848 0.6857991 -2.7065413 0.54811454
000050 9e cc 12 c0 b1 fa 84 bf 08 13 c3 bf ef 94 9a 3f
       -2.2937388 -1.0389005 -1.5240183 1.2076701
000060 3f 40 ac 3f 32 2c a5 3f 20 70 58 bf 8d cb a0 be
       1.3457106 1.2904112 -0.8454609 -0.31405297
000070 bd ed 89 be 4b fe e6 bf 86 d3 a0 3f 3d 32 29 3f
       -0.26939192 -1.8046354 1.2564552 0.6609228
000080 3f 1d 97 3e a6 9f 9a be 15 80 ed 3c 7e e1 30 3f
       0.295145 -0.30199927 0.028991738 0.69094074
000090 06 4a c0 bf 93 da 3f c0 24 47 30 3f 62 05 81 3f
       -1.502259 -2.9977157 0.6885855 1.0079768
0000a0 e4 b9 63 c0 89 fc ce bf f3 59 38 3f 22 c9 f7 3e
       -3.5582209 -1.6170818 0.7201225 0.4839564
0000b0 48 64 0f be 1c 2c ce 3e fd 8a 86 3f 4b 07 34 3d
       -0.14003098 0.40268028 1.0511166 0.043952268
0000c0 26 c1 14 c0 45 d4 e8 3d b9 5f 83 3f 71 89 1f bf
       -2.3242888 0.11368612 1.0263587 -0.62319094
0000d0 87 76 5b 3f 34 f8 07 3f c5 b8 8c 3e 1e 7c 42 bf
       0.85727733 0.531131 0.27484718 -0.7597064
0000e0 19 f8 18 40 b5 41 85 be a2 67 37 3f 77 bc 3a 40
       2.3901427 -0.26026693 0.71642506 2.917753
0000f0 23 76 84 be 06 27 95 be 56 6f 35 be 96 c0 fb 3e
       -0.2587138 -0.29131335 -0.17718253 0.4917037
000100 b6 54 b0 3e af 23 72 bd 5f cc 0c c0 ea ba 2b be
       0.3443963 -0.05911606 -2.1999738 -0.16770521
000110 27 b7 e7 3d 85 51 8d be 1a e3 ac 3f 14 af 03 3e
       0.113142304 -0.27601257 1.3506806 0.12859756
000120 ec eb 99 3f 16 45 22 bf b3 36 04 be e2 77 98 bf
       1.2025123 -0.63386667 -0.12911491 -1.1911585
000130 b5 b5 36 3f 10 e2 df bf 57 5a 33 3d 51 82 8c 40
       0.7137101 -1.7490864 0.043787327 4.390908
000140 c1 75 98 bf 4d bc b7 3e 02 b4 d2 bf e8 09 b4 bf
       -1.1910936 0.3588585 -1.6461184 -1.4065523
000150 bc 7f 79 bf 11 98 89 bf e7 39 4e c0 52 f8 7a 3f
       -0.9746053 -1.0749532 -3.222284 0.98035157
000160 7d 5f 91 bf 21 7c 4a c0 34 36 32 40 85 df f3 3f
       -1.1357266 -3.1638262 2.7845583 1.9052588
000170 73 32 a2 3f 7b 21 d2 3e ff 8e 3e 3e f9 5a 7c bf
       1.2671646 0.4104117 0.18609236 -0.98576313
000180 b3 6c 33 bf 91 c6 24 3f 0d 05 12 40 93 01 bb 3f
       -0.70087737 0.6436549 2.2815583 1.4609855

net.0.bias f4 [10]
000000 a0 1e 5a 3f d5 45 02 c0 50 0c 5d bf 79 70 05 bf
       0.8520298 -2.0355122 -0.8634691 -0.52124745
000010 83 3b 6c 3f ef 36 2e 3f a7 d6 e8 3f 09 75 07 3f
       0.9227831 0.6805257 1.8190507 0.52912956
000020 78 db d7 be 0d 34 11 3f
       -0.4215963 0.5672005

net.2.weight f4 [1, 10]
000000 d2 52 0e bf 27 94 04 40 1f 01 d4 bd 27 37 b5 3e
       -0.55595124 2.0715425 -0.10351776 0.3539364
000010 24 59 19 3f 26 29 16 bf 89 bd 59 bf e7 ea 2c be
       0.5990164 -0.5865654 -0.8505483 -0.16886483
000020 6d a2 c7 3e 36 d8 a6 3d
       0.3899111 0.08146708

exp_avg f4 [10, 10]
000000 2a 76 d4 39 70 55 54 3b 66 34 89 3a 55 68 c6 3a
       0.0004052383 0.0032399558 0.0010467886 0.0015137295
000010 61 1c fd 3a dc 9a c7 37 2a 7e cc ba 95 d2 23 3b
       0.0019310826 2.379476e-05 -0.0015601565 0.0024997343
000020 43 ed 0f 3b 2a fd 49 ba 34 ca 40 ba 94 9d 1d bc
       0.0021961487 -0.0007705266 -0.00073543494 -0.009620089
000030 c2 57 a0 3b 76 15 92 bc 8e 8d a1 bc 8b e4 9c 3b
       0.004893274 -0.017832499 -0.019720819 0.0047879866
000040 8d 5f bd 3c 4f cd 77 bc 56 9a 81 bd 60 c9 25 3c
       0.023116851 -0.015124633 -0.06328265 0.010118812
000050 f9 8f 5f 3a c1 0f 99 3a 78 1a c0 39 81 b4 6a 3a
       0.00085282285 0.0011677669 0.00036640815 0.0008953289
000060 91 8a 78 3a 0b b6 86 ba 47 8c 8f 37 50 10 18 3a
       0.0009481097 -0.0010277642 1.711225e-05 0.00058007706
000070 48 19 0d 3a c5 57 2a 3a 9b ca 61 b9 84 84 1c bb
       0.00053824903 0.0006498064 -0.00021533149 -0.0023882696
000080 fb 6e 70 ba b1 38 95 ba 46 e3 cb ba 21 60 b7 3a
       -0.0009171811 -0.0011384693 -0.0015555404 0.0013990441
000090 d4 30 e4 3a c2 f0 19 bb e5 30 a9 ba 90 81 cb b7
       0.0017409571 -0.002348945 -0.0012908248 -2.4259818e-05
0000a0 ec e3 75 3b 8c ca d6 3a 49 53 8b 3b 8a ac cf bb
       0.0037519885 0.0016387268 0.0042518717 -0.006337707
0000b0 d2 30 cb bb e9 23 35 bb 67 eb 80 3b 9d b1 50 bb
       -0.006200888 -0.0027639812 0.003934312 -0.0031844147
0000c0 1d 9a c1 3b d4 a0 40 3b 67 9e e1 37 8b 95 54 3a
       0.0059082643 0.0029392736 2.6895852e-05 0.0008109442
0000d0 f5 1f 89 3a 1e 4f 2c 39 a8 94 ef 39 32 f2 82 ba
       0.0010461794 0.00016432672 0.0004569639 -0.0009990393
0000e0 4d b4 08 3b 3d 64 03 3b d1 01 03 3b 39 48 e6 39
       0.002085942 0.002004876 0.0019990096 0.0004392283
0000f0 5e 06 e0 ba ab 4e 11 3b a4 b7 9f bb 60 9d 16 3c
       -0.0017091741 0.0022172134 -0.0048741866 0.009192795
000100 42 36 14 3c 92 d1 54 bb 49 c9 17 bc 0a e6 6c 3b
       0.009046139 -0.0032473546 -0.009264299 0.0036147856
000110 db 12 96 3b 61 1e 44 bb 40 a5 af b7 c1 5a ab 39
       0.0045798845 -0.0029925334 -2.0938576e-05 0.0003268328
000120 58 f1 06 39 0c 2f a9 39 3c da b8 39 d8 73 1a ba
       0.00012869143 0.00032269245 0.00035257812 -0.0005891896
000130 e0 43 7d b5 16 04 f4 38 d1 ee d6 38 a0 af 25 39
       -9.4348616e-07 0.00011635588 0.00010248798 0.00015801052
000140 f9 0d 02 bb f6 fc ec ba af 77 ab ba 80 23 58 3a
       -0.0019844754 -0.0018080759 -0.0013081933 0.0008245036
000150 b8 64 24 3a 28 6a 50 3a 7f bc ac b9 01 f7 2e ba
       0.0006271112 0.0007950389 -0.00032946837 -0.00066743797
000160 22 5f 2b ba 88 2f d0 39 b8 d2 8d b7 7f 1e 09 b9
       -0.0006537308 0.00039708265 -1.6906633e-05 -0.00013076699
000170 d5 77 37 39 4e 95 09 ba 0d b2 07 ba ae 21 e2 39
       0.00017496881 -0.00052483834 -0.0005176373 0.00043131172
000180 4a 7c b4 39 e9 4c c2 b9 80 44 6d 38 4f f7 e2 35
       0.00034424878 -0.00037059866 5.6569e-05 1.6910288e-06

exp_avg_sq f4 [10, 10]
000000 51 40 a6 37 86 48 e0 37 d4 78 de 37 1a d0 52 38
       1.9818692e-05 2.6736652e-05 2.6520727e-05 5.026171e-05
000010 7d 6b 5e 38 93 13 10 37 86 dc 6a 37 4e bb d8 36
       5.302903e-05 8.587626e-06 1.39988315e-05 6.4591068e-06
000020 76 8d e8 38 16 82 49 37 ab 90 9b 39 41 c1 84 39
       0.00011088971 1.2010822e-05 0.0002967169 0.00025320987
000030 42 c4 b9 39 90 2c e7 39 7d bb e6 39 a3 b4 6f 39
       0.00035432173 0.00044092955 0.00044008708 0.00022860109
000040 78 f4 ce 39 21 88 61 39 d9 dc 00 3b 4a f0 fb 39
       0.00039473525 0.00021508384 0.0019662885 0.0004805348
000050 75 76 b9 38 fc 4a 5e 38 81 69 bb 38 5e d9 e5 38
       8.843552e-05 5.299876e-05 8.9365065e-05 0.00010960059
000060 e0 4e e7 38 21 9d 18 38 c3 54 dd 37 68 82 7e 37
       0.0001102963 3.638596e-05 2.6384723e-05 1.5169942e-05
000070 00 3a 84 39 b1 34 c0 38 ba 49 95 37 51 f7 a6 37
       0.00025220215 9.165088e-05 1.7796516e-05 1.9903908e-05
000080 ba d0 ee 37 f1 66 5f 38 f5 8d 74 38 79 83 1e 37
       2.8469007e-05 5.3263215e-05 5.830634e-05 9.448145e-06
000090 f6 37 dc 36 d8 6d e1 36 d3 12 06 39 4e c9 46 37
       6.5630256e-06 6.71831e-06 0.00012786248 1.184859e-05
0000a0 fe 07 f0 38 0d c0 e5 38 65 ac 30 39 2f bd 29 39
       0.000114455805 0.00010955343 0.0001684889 0.00016187572
0000b0 24 b5 24 39 44 9a d2 38 a3 8f d0 38 ad fc d1 38
       0.00015707739 0.000100423145 9.944967e-05 0.00010012961
0000c0 25 c7 d9 3a 27 d7 8b 39 f7 08 f8 37 6d cf f7 37
       0.0016615136 0.00026672447 2.9568078e-05 2.9541285e-05
0000d0 c3 5b 18 38 5d 14 83 38 59 78 89 38 ce 47 7d 37
       3.6325084e-05 6.25036e-05 6.5550856e-05 1.50966935e-05
0000e0 f3 c3 08 37 45 f9 00 37 1f 2e c1 38 03 ac a2 37
       8.151855e-06 7.687432e-06 9.211548e-05 1.9392004e-05
0000f0 76 c7 16 38 4e c3 d6 37 1a c2 34 38 40 4c c8 38
       3.594855e-05 2.5601734e-05 4.3096115e-05 9.550946e-05
000100 06 f6 d5 38 45 20 92 37 a3 4b 1a 38 cb 70 48 37
       0.00010202457 1.7419583e-05 3.6786903e-05 1.1947191e-05
000110 cd 00 38 38 31 97 d4 37 95 6a 3a 38 df 73 f8 37
       4.3869764e-05 2.5342773e-05 4.4445118e-05 2.961786e-05
000120 c5 c5 2a 38 c3 17 37 38 34 dc 34 38 6a df 05 37
       4.0715346e-05 4.365273e-05 4.3120424e-05 7.979435e-06
000130 a2 09 cd 36 f4 5b a2 37 43 29 0c 38 67 40 ad 37
       6.1105975e-06 1.9354724e-05 3.341703e-05 2.0653197e-05
000140 34 d1 4d 38 16 d3 30 38 12 75 52 38 34 94 a8 38
       4.9070644e-05 4.215826e-05 5.0176932e-05 8.038469e-05
000150 a7 03 b4 38 ef 80 76 37 cf 6b f4 36 fb 1f ea 36
       8.583749e-05 1.4692762e-05 7.2843172e-06 6.9774665e-06
000160 0d ae cc 38 80 8f 94 37 a0 46 09 39 69 90 d3 38
       9.7598975e-05 1.7709797e-05 0.00013091648 0.000100881625
000170 a2 94 f6 38 99 28 05 39 b8 18 01 39 fa 4b 97 38
       0.00011757879 0.00012698992 0.00012311607 7.214393e-05
000180 82 ff 21 39 84 e0 53 38 4a 52 c9 39 0d 98 1e 39
       0.0001544934 5.0515417e-05 0.00038399018 0.00015124698

exp_avg f4 [10]
000000 7d 6e 77 bc 83 16 fb 3d c6 98 8d bb d0 77 3b 3c
       -0.015102026 0.12260153 -0.0043211905 0.01144214
000010 36 ec ab 3c 1c d3 70 bc 21 97 b5 bc 49 4a 11 bb
       0.020986658 -0.01469877 -0.02216679 -0.0022169522
000020 e8 27 2f 3c cd a3 cc 3a
       0.010690667 0.0015612781

exp_avg_sq f4 [10]
000000 ca de d0 39 5c dc 0f 3c 68 82 59 3a 77 4e db 39
       0.00039838842 0.008780565 0.0008297325 0.00041829396
000010 cb 01 2c 3b 8d 57 c6 39 90 2c 06 3a 90 0b bc 39
       0.0026246186 0.00037830733 0.00051183347 0.0003586677
000020 92 b0 e3 39 22 bf 4a 3b
       0.0004342837 0.0030936678

exp_avg f4 [1, 10]
000000 62 3b 4d 3c ec ee 07 bd d2 ba 00 bd 79 7a 85 bc
       0.012526365 -0.033186838 -0.031428166 -0.016293751
000010 27 c3 88 3d 69 45 ae 3c 46 44 5f 3d 74 7c 98 3c
       0.06677847 0.021273332 0.05450847 0.018614031
000020 a2 61 0d bc ce 34 14 bc
       -0.0086292345 -0.009045793

exp_avg_sq f4 [1, 10]
000000 5c 79 a4 3b 5f 53 af 3b 81 6b e1 3b 61 ca b5 3b
       0.00501935 0.005350515 0.0068792705 0.005547807
000010 2b 5e 99 3c 78 28 9d 3b b6 30 e8 3b 17 ea 88 3b
       0.01872166 0.004796084 0.007085885 0.0041782963
000020 ff 5d 8d 3b 75 79 2d 3b
       0.0043141837 0.00264701
