Topic 2.2/Batchnorm layer/lightning_logs/version_3/checkpoints/epoch=9-step=15630.ckpt (torch, 332588 bytes, 16 tensors)

fc1.weight f4 [100, 784]
0	0x3c329390	0.010899439
1	0xbc721314	-0.014775056
2	0x3bad299e	0.005284502
3	0x3c9c3039	0.019065963
4	0x3b3e0aed	0.0028998211
5	0x3c98cc5f	0.01865214
6	0x3dfb59cc	0.12272987
7	0x3d987897	0.07444876
8	0x3d97f176	0.07419102
9	0xbd5fcf09	-0.054640803
10	0xbd7f14e3	-0.06227578
11	0xbc8caa7e	-0.01717114
12	0xbbdc9668	-0.006731797
13	0xbba923a7	-0.005161721
14	0x39142040	0.00014126394
15	0x3ca1a133	0.019730186
16	0xbb7a1b4f	-0.003816325
17	0x3d4192be	0.047259085
18	0x3d49e3c7	0.04928949
19	0xbd4addaa	-0.0495278
20	0x3d3ad697	0.045614805
21	0x3d24ede9	0.04026595
22	0x3d405e5d	0.04696499
23	0x3d203c81	0.0391202
24	0x3c61db5b	0.013785209
25	0x3c124e8f	0.008929863
26	0xbd9e8984	-0.07741073
27	0xbbabec4f	-0.005246676
28	0x3d00693f	0.03135037
29	0xbd281778	-0.041038007
30	0xbcd6a589	-0.02620198
31	0xbd30d905	-0.043175716
32	0x3d4ed7e9	0.050498877
33	0xbb979d79	-0.0046269265
34	0x3d2ded0f	0.042462405
35	0x3b0f00ca	0.0021820539
36	0x3ce70516	0.028200667
37	0xbc1da983	-0.009622934
38	0xbcf2b580	-0.029627562
39	0xbd3a648f	-0.045506056
40	0xbdb2ca8e	-0.087300405
41	0xbbbc7b98	-0.005752038
42	0x39ff6b33	0.0004871726
43	0xbd015abd	-0.031580675
44	0x3d10965c	0.035299644
45	0xbd27bb6b	-0.04095022
46	0x3c29c659	0.010362231
47	0x3ce685a7	0.028139902
48	0x3b2be7d4	0.002623071
49	0x3d117c31	0.03551883
50	0xb9051b38	-0.00012694008
51	0xbd084c61	-0.033275966
52	0x3c99744d	0.018732214
53	0xbc59b299	-0.01328721
54	0xbdb929d9	-0.09041185
55	0xbcf2ccd9	-0.029638695
56	0x3a2905b0	0.0006447686
57	0xbc191236	-0.009342721
58	0xbccb0f42	-0.024787549
59	0xbdd602d8	-0.10449761
60	0x3abf1c30	0.0014580544
61	0x3b1f3ed8	0.0024298932
62	0x3c127232	0.008938359
63	0x3d324d49	0.043530736
64	0x3b821484	0.003969731
65	0xbd6c6f69	-0.057723437
66	0x3c06a4b0	0.0082179755
67	0x3bf1f639	0.0073840884
68	0xbd5dc49a	-0.054142572
69	0xbd217fc3	-0.039428484
70	0x3cbfb753	0.023402845
71	0xbcf9272d	-0.030414188
72	0xbc774097	-0.015091083
73	0xbce29d73	-0.027662968
74	0xbd57659c	-0.052587137
75	0xbd058b96	-0.032603823
76	0x3d2c781e	0.04210674
77	0xbc2e730d	-0.010647547
78	0x3d243ba9	0.04009596
79	0x3c17b861	0.009260268
80	0xbcc7e42b	-0.024400791
81	0xbd3a2081	-0.045441154
82	0x3cd01a45	0.025403151
83	0xbc04335f	-0.008068888
84	0x3c98bb80	0.018644094
85	0xbb5ddebb	-0.0033854682
86	0xbc7f0124	-0.015564237
87	0x3b5908d5	0.0033116837
88	0xbcd5fa77	-0.026120408
89	0x3baf51a5	0.005350309
90	0x3bc301a0	0.0059511214
91	0x3d6b9efe	0.057524674
92	0x3b05da56	0.0020424328
93	0x3c422093	0.011848587
94	0xbd45dd6d	-0.04830687
95	0xbcff0725	-0.031131336
96	0x3c752072	0.014961349
97	0xbc894cbc	-0.016760223
98	0x3d10b80e	0.03533178
99	0x3bf0274d	0.007328904
100	0xbd17d6d2	-0.037070103
101	0x3c6cfd96	0.0144647565
102	0xbcaeffc3	-0.021362191
103	0x3d02cb94	0.03193243
104	0x3c291bf8	0.01032161
105	0x3ceb3e6e	0.028716292
106	0x3c7005d8	0.014649831
107	0xbcbac554	-0.022799172
108	0x3b162834	0.0022912147
109	0xbd802d9b	-0.062586986
110	0x3ca015e3	0.019541686
111	0xbd4596e8	-0.04823962
112	0x3b4d66c4	0.003134177
113	0xbc8533aa	-0.016259987
114	0x3baf66d7	0.0053528356
115	0x3d42c915	0.047555048
116	0x3c7aa34c	0.015297722
117	0x3d0ad429	0.033893738
118	0x3c7aa4dc	0.015298095
119	0x3c946131	0.01811275
120	0x3ced8c63	0.028997606
121	0xbcbbf852	-0.022945557
122	0x3c939caf	0.018019048
123	0xbd81c106	-0.063356444
124	0x3d3f422c	0.046693966
125	0xbc5b4b12	-0.013384597
126	0x3c113bc5	0.008864348
127	0xba5eb1f1	-0.0008495143
128	0xbcb85182	-0.022499803
129	0xbc1807aa	-0.009279171
130	0x3cee2d7b	0.029074421
131	0x3ce71f45	0.028213153
132	0x3cada4aa	0.021196682
133	0x3c9c78be	0.019100543
134	0x3ca8e67e	0.02061772
135	0xbc4d0c44	-0.012515131
136	0xbd155259	-0.036455486
137	0xbcf3503d	-0.029701347
138	0x3d3b4632	0.04572124
139	0x3cb984e3	0.022646373
140	0x3bc3e4ed	0.005978218
141	0xbcc6914a	-0.024239201
142	0xbcaf1736	-0.021373373
143	0x3b495d4b	0.0030725773
144	0x3d8365f4	0.064159304
145	0x3c6bc837	0.014390997
146	0x3d004eb1	0.031325046
147	0x3cb0c232	0.021576975
148	0x3ba023e9	0.0048870933
149	0xbc94f4ea	-0.01818319
150	0xbd5d7229	-0.05406395
151	0x3c888f9f	0.016670046
152	0x3d631f33	0.055449676
153	0x3ca497bb	0.020091882
154	0x3c417364	0.011807296
155	0xbd0f107d	-0.034927834
156	0xbbc59000	-0.006029129
157	0xbc5a1c67	-0.013312436
158	0xbb980bab	-0.004640063
159	0x3d88c078	0.066773355
160	0x3ca6490c	0.020298503
161	0x3b8175b0	0.003950797
162	0x3d45a04d	0.048248578
163	0xbc99a5ce	-0.01875582
164	0xbd3aa078	-0.04556319
165	0xbcab41e4	-0.020905443
166	0x3c098baa	0.008395115
167	0x3d2bf3d7	0.04198059
168	0x3cbaa6c2	0.022784594
169	0xbd16aace	-0.036783986
170	0x3cc39863	0.023876375
171	0x3bf7b080	0.0075588822
172	0x3dc7024c	0.09717235
173	0x3d6e253c	0.05814098
174	0xbba33fa3	-0.0049819513
175	0x3d13419a	0.035951234
176	0xbc09d714	-0.008413095
177	0xbc948fe4	-0.018135019
178	0x3cf93db8	0.030424938
179	0x3ba4090c	0.0050059613
180	0x39e3e91f	0.00043470503
181	0x3c7382db	0.014862741
182	0x3c0112f7	0.007878057
183	0x3b6dd5d9	0.0036290793
184	0x3c4026a8	0.011727966
185	0x3ca74e44	0.020423062
186	0x3c918b3e	0.017766591
187	0x3b432f79	0.0029782935
188	0xbc743a2f	-0.01490645
189	0x3d60b4ab	0.0548598
190	0x3d092539	0.033482764
191	0xbbbe8d47	-0.0058151814
192	0xbc1067d6	-0.008813819
193	0x3d0b8d97	0.034070577
194	0xbc5cd187	-0.01347769
195	0x3c92855c	0.017885856
196	0xbc824136	-0.015900236
197	0x3c22612a	0.009910861
198	0x3c59a11c	0.01328304
199	0xbc63b52b	-0.013898174
200	0x3d96b12d	0.07358012
201	0x3cf30830	0.02966699
202	0xbcf2aa80	-0.029622316
203	0x3b01221d	0.001970417
204	0x3bc0dad4	0.0058854613
205	0x3d0b0709	0.033942256
206	0x3d43aee8	0.047774225
207	0xbd0fa4aa	-0.035069145
208	0xbd36ac69	-0.044598017
209	0x3be02e12	0.0068414295
210	0xbcf39cd3	-0.029737866
211	0x3c157c15	0.009123822
212	0x3d0db572	0.034596868
213	0xbd0304d8	-0.03198704
214	0x3b91f143	0.0044538095
215	0x3b56e9e0	0.003279321
216	0xbda90def	-0.08254611
217	0x3b2f0edb	0.0026711735
218	0xbd086f0c	-0.033309028
219	0x3ce9f241	0.028557898
220	0xbc2afb22	-0.010435851
221	0x3c073ee7	0.008254743
222	0xbc32943e	-0.0108996015
223	0xbc99ce92	-0.018775258
224	0xbbd24d4d	-0.0064179064
225	0xbd468c0e	-0.04847341
226	0x3c3d4a75	0.0115533965
227	0xbbff08bb	-0.007783023
228	0xbd1f999e	-0.03896486
229	0xbd829fd4	-0.06378141
230	0xbd5b6c32	-0.05356998
231	0x3c8366fa	0.016040314
232	0xbd9f5a23	-0.07780864
233	0x3cc284af	0.02374491
234	0x3c062abb	0.008188899
235	0x3bb0abe0	0.005391583
236	0x3c02d125	0.007984434
237	0x3d036caa	0.032086052
238	0xbcaf7e1f	-0.021422444
239	0xbd5e7e60	-0.05431974
240	0x3d123dd5	0.0357035
241	0xbbfc1a40	-0.007693559
242	0xbc4368f6	-0.01192688
243	0xbda115fc	-0.07865521
244	0xbce8c26d	-0.028413022
245	0xbd28b4db	-0.041188102
246	0xbb061a91	-0.0020462612
247	0xbb321a4c	-0.0027176319
248	0x3ca71870	0.020397395
249	0x3cd30394	0.025758542
250	0x3cd8fe0b	0.026488325
251	0xbcaee92a	-0.021351416
252	0x3b9c4f25	0.004770177
253	0xb8a7f1e0	-8.008233e-05
254	0x3d4e7873	0.050407838
255	0x3d47a83e	0.048744433

fc1.bias f4 [100]
0	0xbca2ebc0	-0.019887805
1	0x3bad8daa	0.0052964287
2	0xbca38507	-0.019960893
3	0x3ca8274c	0.02052655
4	0x3c5f7230	0.013638064
5	0xbb1e526c	-0.0024158014
6	0xbc41df0d	-0.011832965
7	0xbc31f19f	-0.01086083
8	0x3be4a28e	0.006977386
9	0xbc376980	-0.011194587
10	0xbcf80c9e	-0.030279454
11	0x3c12efb5	0.008968283
12	0xbd0aa18e	-0.033845477
13	0x3cbafb72	0.022824977
14	0xbc083493	-0.008313316
15	0x3b8694fa	0.004107115
16	0x3c66c5a4	0.014085207
17	0x3c7d2c72	0.015452491
18	0x3cfea13e	0.031082746
19	0xbc0237b6	-0.007947853
20	0x3ce452ef	0.027871577
21	0x3ca961b6	0.020676475
22	0xbc8af00e	-0.01696017
23	0xbb1dce11	-0.0024079124
24	0xbb8fdfba	-0.004390684
25	0xbd05e3c6	-0.032687925
26	0xbc019685	-0.007909422
27	0x3c8f32a4	0.017480202
28	0xbc57d3b2	-0.013173031
29	0x3ba54104	0.005043151
30	0xbcb53eeb	-0.022124728
31	0x3cc934e2	0.02456135
32	0xbd10196b	-0.03518049
33	0xbcdab425	-0.026697228
34	0xbd07830f	-0.03308397
35	0xbb35c40e	-0.0027735266
36	0xbca92f73	-0.020652508
37	0xbcf8326c	-0.03029748
38	0x3bb55a12	0.005534419
39	0xbce92ce3	-0.028463786
40	0xbcfcd3c5	-0.030862698
41	0xbc0dff38	-0.008666806
42	0xbc1f9c6b	-0.009741883
43	0xbaf31995	-0.0018547053
44	0xbcc773fa	-0.024347294
45	0x3cb83ef8	0.022490963
46	0xbc948e75	-0.018134335
47	0x3c947dc2	0.018126372
48	0xbcc6ed87	-0.024283184
49	0x3d020b1b	0.031748872
50	0x3ca01c86	0.019544851
51	0xbca6a7ea	-0.02034374
52	0xbcbbf085	-0.022941837
53	0xbd09f184	-0.033677593
54	0x3c539942	0.0129149575
55	0xbcc95a98	-0.024579331
56	0xbcacb465	-0.021082113
57	0xbcf6a3c5	-0.030107388
58	0xbafacaec	-0.0019133962
59	0x3bf6512d	0.007517001
60	0x3d039437	0.03212377
61	0xbce2dfd8	-0.027694628
62	0x3c31829b	0.010834361
63	0x3c9023ee	0.017595258
64	0x3d01650f	0.031590518
65	0xbd0b0950	-0.033944428
66	0x3c8c1d90	0.01710394
67	0xbcf5ff19	-0.030028867
68	0xbcf7964e	-0.030223038
69	0x3cbbefd7	0.022941513
70	0x3c9eb8d2	0.019375239
71	0x3cf081f2	0.029358838
72	0xbcce964c	-0.025218152
73	0x3ca86b9a	0.02055912
74	0xbd00f8cc	-0.03148727
75	0x3c726819	0.014795327
76	0x3b673427	0.0035278888
77	0xbced898a	-0.028996248
78	0x3ca27d8c	0.019835256
79	0x3c77ace7	0.015116907
80	0xbcf23be4	-0.029569574
81	0xbc994187	-0.018708004
82	0x3d0779cb	0.033075135
83	0x3b6ead1c	0.00364191
84	0x3a4f51ec	0.00079086307
85	0x3ba99a7b	0.005175886
86	0x3bbb5f59	0.0057181534
87	0x3d058a5b	0.03260265
88	0xbc93d647	-0.018046511
89	0xbc8bfa22	-0.017087046
90	0x3ceacb66	0.028661441
91	0x3aa9dc1e	0.0012959277
92	0x3aeceea6	0.0018076494
93	0xbce1c008	-0.027557388
94	0xbc868a0e	-0.016423251
95	0xbc8519a4	-0.016247578
96	0xbd05f86c	-0.032707617
97	0xba7645fd	-0.00093945843
98	0xbca195c0	-0.019724727
99	0x3cc50aa0	0.024052918

fc2.weight f4 [10, 100]
0	0x3de5983b	0.11210676
1	0x3cc7b426	0.024377894
2	0xbb9fe066	-0.0048790453
3	0x3e8afefe	0.2714767
4	0xbe51d85b	-0.2049269
5	0x3e9df279	0.30849054
6	0xbd87c181	-0.06628705
7	0xbc80d1ca	-0.015725035
8	0xbe3b06ba	-0.18264285
9	0x3e885c3e	0.26632875
10	0x3ebffc40	0.3749714
11	0xbded647d	-0.11591432
12	0xbe5c0111	-0.21484782
13	0x3ea3d4c4	0.31998265
14	0xbe0139a8	-0.1261965
15	0x3e249983	0.16074185
16	0xbda7c796	-0.08192365
17	0x3e81517d	0.25257483
18	0x3eab917f	0.33509442
19	0x3ee8a9ed	0.45442143
20	0x3e8699ed	0.2628931
21	0x3d91087a	0.07081695
22	0xbe00e417	-0.1258701
23	0x3aa6fd2d	0.0012740247
24	0x3c1c4e5a	0.009540165
25	0x3e12072f	0.14260553
26	0x3e89502a	0.26818973
27	0xbe785483	-0.24250989
28	0x3e842eae	0.25816864
29	0xbe78d95d	-0.24301668
30	0xbe7edc4d	-0.24888726
31	0x3c3dd2bf	0.01158589
32	0xbe69a0ab	-0.22815196
33	0x3e5473aa	0.20747247
34	0xbe66ff95	-0.22558434
35	0x3dde30d5	0.10849158
36	0x3e01ab95	0.1266311
37	0x3e6738c2	0.22580245
38	0xbe922480	-0.28543472
39	0x3dac7950	0.08421576
40	0x3cffc0e7	0.031219913
41	0x3e5d8c83	0.21635632
42	0xbdd20ada	-0.10255976
43	0x3e58fd2d	0.21190329
44	0xbe82e3ad	-0.25564328
45	0x3da59f90	0.08087075
46	0x3d9b0814	0.075699
47	0xbdfec4dc	-0.12439892
48	0x3db39d65	0.08770255
49	0x3ea5fdaa	0.32420093
50	0xbe954d5f	-0.29160592
51	0x3dbf979e	0.093550906
52	0xbd050647	-0.03247669
53	0x3e928f3b	0.286249
54	0x3eba26a8	0.36357617
55	0xbe7f24db	-0.24916403
56	0xbc146f1c	-0.009059694
57	0xbe057865	-0.13034208
58	0xbd978e2e	-0.074001655
59	0x3cf1800d	0.029480005
60	0x3e96abe5	0.2942802
61	0xbd4c572d	-0.049887825
62	0x3e6d1f98	0.23156583
63	0x3e9c25e6	0.30497664
64	0x3e4822f9	0.19544591
65	0xbd853aee	-0.065053806
66	0xbd2c6118	-0.042084783
67	0xbe1f97ea	-0.15585294
68	0xbe4a018d	-0.19727154
69	0xbdbf283e	-0.093338475
70	0xbe1c4bbe	-0.15263268
71	0xbe2d128a	-0.16901603
72	0xbdcf3085	-0.10116676
73	0xbe4db247	-0.20087539
74	0xbd0da156	-0.03457769
75	0xbd114af6	-0.03547188
76	0x3e3a3aef	0.18186544
77	0x3ec49b65	0.38399807
78	0xbdd4a634	-0.10383263
79	0xbe12e828	-0.14346373
80	0x3e575ac0	0.21030712
81	0xbdd01a76	-0.10161297
82	0xbe03dd94	-0.12877494
83	0x3e4c492a	0.19949785
84	0x3d076518	0.033055395
85	0xbe5fe0c0	-0.21863079
86	0xbdd5e5c4	-0.10444215
87	0xbdc5b7ce	-0.096541986
88	0xbe020b7c	-0.12699693
89	0x3cec8a17	0.02887444
90	0x3ea74913	0.3267294
91	0xbe51f475	-0.20503409
92	0xbe0818b9	-0.13290681
93	0xbe3c3073	-0.18377857
94	0xbe940be6	-0.28915328
95	0x3e96067d	0.29301825
96	0xbe51cc41	-0.20488073
97	0xbdd4c5b2	-0.1038927
98	0xbd7889de	-0.060678355
99	0xbdfb864f	-0.12281477
100	0x3dd1277c	0.10212609
101	0x3ead5955	0.33857217
102	0x3e575957	0.21030174
103	0xbe15aeac	-0.14617413
104	0xbd97ab8d	-0.074057676
105	0x3e880fdb	0.26574597
106	0x3e205a41	0.15659429
107	0x3d32ebd0	0.04368192
108	0x3d8e0f0d	0.069364645
109	0xbea68e5f	-0.32530496
110	0x3ea66c4f	0.32504508
111	0x3d870dc8	0.065944254
112	0xbe0230a3	-0.12713866
113	0xbcd7f041	-0.02635968
114	0xbd2c346b	-0.042042177
115	0x3eaa82f0	0.33303022
116	0xbd3b1c53	-0.04568131
117	0xbdf67e18	-0.12035769
118	0xbe8adca7	-0.2712147
119	0xbe602ebd	-0.21892829
120	0xbea98e46	-0.3311636
121	0xbdba9e40	-0.09112215
122	0xbe72c4bd	-0.23707862
123	0x3e9e632a	0.3093503
124	0xbe403329	-0.18769516
125	0xbe28b03b	-0.16473477
126	0xbe926580	-0.28593063
127	0xbe620e83	-0.22075848
128	0x3ea3dd0d	0.32004586
129	0xbe8460af	-0.25855014
130	0x3effcfe6	0.499633
131	0xbe032e11	-0.12810542
132	0xbe273911	-0.16330363
133	0xbe4fa339	-0.20277108
134	0xbe6ee5ef	-0.233299
135	0x3ca0e885	0.019642124
136	0x3d8fb26c	0.07016453
137	0xbe12954b	-0.14314763
138	0xbdc18137	-0.09448474
139	0xbe3176e0	-0.17330503
140	0xbe29a524	-0.16566902
141	0xbce13c0c	-0.027494453
142	0x3ea4fd11	0.32224324
143	0xbd840798	-0.06446761
144	0xbe660685	-0.22463425
145	0xbe6bd767	-0.23031388
146	0xbe2ee1bf	-0.17078303
147	0xbe0036f6	-0.12520966
148	0xbde5c113	-0.112184666
149	0xbe087153	-0.1332448
150	0x3eae2456	0.34012097
151	0xbe75a82c	-0.23989934
152	0xbe8b61a2	-0.27222925
153	0xbe6aacb0	-0.22917438
154	0xbe658dfb	-0.22417443
155	0xbc92fa20	-0.017941535
156	0xbe10dea2	-0.14147428
157	0xbd9ab18d	-0.075533964
158	0xbe29a498	-0.16566694
159	0xbe3ce34a	-0.18446079
160	0x3e6f3205	0.23358925
161	0x3eb349c0	0.35017204
162	0x3e5e6d17	0.21721302
163	0xbe88a573	-0.26688728
164	0x3ed06896	0.40704793
165	0xbe66149a	-0.22468796
166	0xbe6815db	-0.22664587
167	0xbe8007af	-0.25005862
168	0x3d2408bc	0.040047392
169	0xbded2601	-0.11579514
170	0x3eb2a275	0.3488957
171	0xbe3241d2	-0.17407921
172	0xbe373030	-0.17889476
173	0x3e72101f	0.23638962
174	0xbd277fe4	-0.04089345
175	0x3e936b43	0.28792772
176	0x3ce92a3d	0.028462524
177	0xbe45d3d2	-0.19319084
178	0xbe61b186	-0.22040376
179	0xbe4df47f	-0.20112799
180	0x3db5549b	0.08854028
181	0x3e9cbc7d	0.30612555
182	0xbe6f546c	-0.23372048
183	0xbe4e9471	-0.20173813
184	0x3eea0cfd	0.45713034
185	0x3e423701	0.18966295
186	0xbe7d3184	-0.2472592
187	0xbda30b3f	-0.079611294
188	0x3ec7adc0	0.38999748
189	0xbc8d0ceb	-0.017218074
190	0xbe8be073	-0.2731968
191	0xbe8ffde6	-0.28123397
192	0x3cfc7c9c	0.030821137
193	0x3e5cc4cd	0.21559449
194	0x3e558a10	0.20853448
195	0x3e40a86f	0.18814252
196	0x3eaa4242	0.33253676
197	0x3ecf3854	0.40472662
198	0x3edff0d4	0.43738425
199	0xbe69b110	-0.2282145
200	0x3e06374e	0.13107035
201	0x3d41bb33	0.047297668
202	0x3e63ca68	0.2224518
203	0x3eba0d9a	0.36338502
204	0x3cb35c22	0.021894518
205	0x3d4f2ef0	0.050581872
206	0xbdbe28ff	-0.09285163
207	0x3df797b2	0.120894805
208	0xbe2ae374	-0.16688329
209	0x3e268660	0.16262197
210	0xbe84b873	-0.25921974
211	0xbe1026ea	-0.14077345
212	0x3ead98c9	0.33905628
213	0xbe5e5e6f	-0.21715711
214	0xbe4362b3	-0.1908062
215	0x3e94b8a9	0.29047135
216	0xbe7fe637	-0.24990164
217	0x3eae402c	0.34033334
218	0xbe641b6c	-0.22276086
219	0xbccc177d	-0.024913544
220	0x3eb5e244	0.3552419
221	0x3c3a58ac	0.01137368
222	0x3e4f40f6	0.20239624
223	0xbdfcdfc4	-0.123473674
224	0x3e27e94e	0.16397592
225	0xbe496fcd	-0.19671555
226	0x3cd3e27a	0.025864828
227	0x3d1587a0	0.036506295
228	0xbe0805c1	-0.13283445
229	0x3e99372f	0.29924914
230	0xbcd6389c	-0.02615004
231	0xbdd84c97	-0.10561483
232	0xbe7ab05f	-0.24481343
233	0xbdcd92b1	-0.10037745
234	0x3e996bb5	0.29964986
235	0x3dc5a4fa	0.096506074
236	0x3d117161	0.035508517
237	0xbe62cc3d	-0.22148223
238	0xbe61bf6f	-0.22045682
239	0xbe91bb2f	-0.28463122
240	0xbb90192f	-0.0043975334
241	0x3dea708f	0.1144725
242	0x3e6a447d	0.22877689
243	0x3d8ffa18	0.070301235
244	0xbe3e7a1b	-0.18601267
245	0x3e7b9f17	0.24572407
246	0x3d45cfd3	0.0482939
247	0xbe9d8a7f	-0.30769727
248	0x3c1ef132	0.00970106
249	0x3e8fcb19	0.2808464
250	0x3ea04c0b	0.31308016
251	0xbddb8047	-0.10717826
252	0x3ec5b6ee	0.38616127
253	0xbe8b371c	-0.27190483
254	0x3e6428c8	0.22281182
255	0xbe5baed7	-0.21453415

fc2.bias f4 [10]
0	0x3d629e90	0.055327
1	0xbe39a802	-0.18130496
2	0x3d31401c	0.04327403
3	0x3e445b15	0.1917537
4	0x3e112f97	0.1417831
5	0xbd404f6b	-0.04695074
6	0x3daf1c86	0.08550362
7	0xbe28e220	-0.1649251
8	0xbd82327f	-0.063572876
9	0xbe2602cf	-0.16212009

fc3.weight f4 [10, 100]
0	0xb9dd9300	-0.00042261928
1	0x3d77b1ae	0.060472183
2	0x39c24000	0.00037050247
3	0x3c9b92c0	0.018990874
4	0x3d9432d3	0.072362565
5	0x3dbb97bd	0.09159801
6	0xbca65074	-0.020302035
7	0xbd834782	-0.064101234
8	0xbc90f348	-0.01769413
9	0xbdc6d612	-0.097087994
10	0x3da6caf9	0.08144183
11	0xbcc23a28	-0.023709372
12	0x3c6b5730	0.014364049
13	0xbd1302c4	-0.03589131
14	0x3d38f56e	0.045155935
15	0x3daf01d7	0.08545273
16	0x3dcc54a9	0.09977085
17	0xbd278e90	-0.040907443
18	0x3d492946	0.049111627
19	0x3cb76d20	0.022390902
20	0xbd89f84a	-0.067368105
21	0xbdbff613	-0.09373107
22	0x3d69c306	0.057070754
23	0xbd8bce52	-0.06826462
24	0xbd9734bb	-0.073831044
25	0xbbf12de0	-0.007360205
26	0x3d87d08b	0.06631573
27	0x3d26d1ca	0.040727414
28	0xbd686c73	-0.05674405
29	0xbdb06db7	-0.086146764
30	0xbac3b6c0	-0.0014931783
31	0xbd12d21c	-0.035844907
32	0xbc13c1d8	-0.009018384
33	0xbda9e350	-0.082953095
34	0x3d81ee59	0.06344289
35	0x3db180db	0.08667155
36	0xbd60634a	-0.05478219
37	0xbd73c667	-0.059515383
38	0xbd83cc1c	-0.06435415
39	0x3d9d39bb	0.07677027
40	0x3cedac14	0.029012717
41	0x3c558db0	0.013034269
42	0x3ce18244	0.027527936
43	0xbd5dfa0d	-0.054193545
44	0xbd8663f5	-0.06562034
45	0xbc36ac90	-0.011149541
46	0x3db1cdcd	0.086818315
47	0xbce09088	-0.027412668
48	0xbdc45733	-0.095869444
49	0xbd7c4473	-0.061588716
50	0xbdb0e500	-0.08637428
51	0xbdb6f3d2	-0.08933224
52	0x3dbf8a59	0.093525596
53	0x3d15f5e2	0.036611445
54	0xbd2baa73	-0.0419106
55	0xbd46407d	-0.048401345
56	0xbd889bc0	-0.06670332
57	0xbd18f086	-0.037338756
58	0xbd9ac345	-0.07556776
59	0x3d9e6e9f	0.07735943
60	0xbc229730	-0.009923741
61	0xbdada70d	-0.08479128
62	0xbca10ee8	-0.019660428
63	0xbbe6ba20	-0.007041231
64	0x3c9da638	0.019244298
65	0x3dc55d11	0.09636892
66	0x3dc0e881	0.094193466
67	0x3d44d9b2	0.048059173
68	0x3d2ff8b2	0.042961784
69	0x3cd02e7c	0.02541279
70	0x3cc13ba0	0.023588002
71	0x3d9a4ea7	0.07534533
72	0xbc34a8d0	-0.011026576
73	0x3cabb4f8	0.020960316
74	0x3c86eecc	0.01647129
75	0x3daf851d	0.08570311
76	0xbdca09d8	-0.09865159
77	0xbd979482	-0.074013725
78	0x3ba4eb00	0.005032897
79	0xbd87925c	-0.06619713
80	0x3d9e40b9	0.077271886
81	0xbd95dbc8	-0.073173106
82	0x3c351bc0	0.011053979
83	0x3da40be3	0.0801008
84	0x38311000	4.221499e-05
85	0x3ba84300	0.00513494
86	0x3ce7f5c4	0.028315432
87	0xbd915a25	-0.07097272
88	0xbd5b64b7	-0.053562846
89	0x3bdbdb30	0.006709479
90	0x3da67d55	0.08129374
91	0xbc236a10	-0.009974018
92	0x3b2f8440	0.0026781708
93	0xbcc29988	-0.02375485
94	0xbd9ecb53	-0.07753625
95	0xbd8879d4	-0.06663862
96	0xbdca0950	-0.098650575
97	0x3db84be7	0.08998852
98	0xbd809655	-0.062786736
99	0xbd16db66	-0.03683033
100	0xbd456560	-0.04819238
101	0xbd9d1b95	-0.076712765
102	0xbbae61d0	-0.0053217188
103	0xbd630a8a	-0.055429973
104	0xbcccad18	-0.024984881
105	0x3d95c663	0.0731323
106	0xbbc9a560	-0.0061537474
107	0x3d72f8ae	0.05931919
108	0xbd7025e3	-0.05862988
109	0xbd82e39d	-0.0639107
110	0x3d0ce48e	0.034397654
111	0xbd7e8d47	-0.06214645
112	0xbda19f56	-0.07891719
113	0x3dade971	0.08491791
114	0x3d84fcbd	0.064935185
115	0xbc47dd40	-0.012198746
116	0xbd69218d	-0.056916762
117	0xbd26c017	-0.040710535
118	0xbd4fb630	-0.050710857
119	0x3d11b382	0.035571583
120	0xbc41c698	-0.011827134
121	0x3cde3754	0.027125992
122	0x3c807258	0.015679523
123	0x3d87c087	0.066285186
124	0xbdccc067	-0.09997635
125	0x3d22fd56	0.03979238
126	0xbda508c3	-0.08058312
127	0x3cfb9d44	0.030714639
128	0x3d17583a	0.036949374
129	0x3d0dceda	0.034621097
130	0xbd1d0f87	-0.038344886
131	0x3d988615	0.07447449
132	0xbd11c706	-0.035590194
133	0xbd3bbdfa	-0.045835473
134	0x3d33ae4e	0.0438674
135	0x3d5f4906	0.054513
136	0xbbc8c580	-0.0061270595
137	0x3cbd2cb8	0.023092613
138	0x3c772068	0.01508341
139	0x3dc5e771	0.096632846
140	0x3d853b85	0.06505493
141	0xbd6aecba	-0.057354666
142	0xbd9db0a6	-0.07699709
143	0xbcf7bf88	-0.030242696
144	0x3d5618c2	0.052269705
145	0x3c8e7af8	0.01739262
146	0xbd59063a	-0.052984454
147	0xbc2f8790	-0.010713473
148	0x3d426136	0.04745599
149	0xbd844fe2	-0.06460549
150	0xbbe27b00	-0.0069116354
151	0x3d5fbabe	0.05462145
152	0xbc1ecf50	-0.009692982
153	0x3cdd7d6c	0.027037345
154	0x3d473b16	0.048640333
155	0x3d3ede56	0.046598755
156	0x3d6372e2	0.055529483
157	0xbb5680c0	-0.003273055
158	0xbd1464cc	-0.03622894
159	0xbc12fd50	-0.008971527
160	0xbd8c2c55	-0.06844393
161	0xbb11ae00	-0.0022228956
162	0xbca4780c	-0.020076774
163	0x3d9043c5	0.07044176
164	0x3db329a9	0.087481804
165	0xbda42505	-0.080148734
166	0xbd5fcab7	-0.054636683
167	0x3dc1dc2f	0.09465825
168	0xbcdef108	-0.027214542
169	0xbdcab35a	-0.0989749
170	0x3c5be0d0	0.013420299
171	0xbdb7c32f	-0.08972775
172	0x3c5d27d8	0.013498269
173	0x3d313a22	0.04326833
174	0x3ca0e980	0.019642591
175	0xbc031958	-0.008001648
176	0x3d5d92a2	0.054094918
177	0xbdb0a00f	-0.08624279
178	0x3cfa6bbc	0.03056895
179	0xbd1d2360	-0.038363814
180	0x3d229c6a	0.03969995
181	0xbd9ff25d	-0.07809899
182	0x3d44beae	0.04803341
183	0xbd90bbf2	-0.07067098
184	0x3d95a559	0.07306928
185	0xbda4eb66	-0.08052711
186	0xbd5defb0	-0.054183662
187	0x3d46fde6	0.04858198
188	0xbd50f29d	-0.051012624
189	0xbd9d2a2b	-0.076740585
190	0x3c6db680	0.014508843
191	0x3d60a596	0.054845415
192	0x3c395800	0.011312485
193	0x3d5a6dd2	0.05332739
194	0x3c81f574	0.015864111
195	0xbd29b17a	-0.04142902
196	0xba597700	-0.00082956254
197	0xbc44d300	-0.012013197
198	0x3da23cc3	0.07921746
199	0xbcc49d74	-0.02400086
200	0xbd8c3458	-0.06845921
201	0x3da9f601	0.08298875
202	0xbdc982a0	-0.09839368
203	0xbd38bfb7	-0.04510471
204	0xbd9a578a	-0.07536228
205	0xbcbe7d98	-0.023253247
206	0xbd255300	-0.040362358
207	0x3c9ef0ec	0.01940199
208	0x3d217a56	0.03942331
209	0x3d1f07ee	0.03882592
210	0x3d620ee2	0.055189975
211	0xbd782e77	-0.060591187
212	0xbda9a958	-0.08284253
213	0xbbe10a20	-0.006867662
214	0x3d780796	0.06055411
215	0x3d723cd6	0.05914005
216	0x3cfd6c34	0.030935384
217	0xbd890fe0	-0.06692481
218	0xbcbad818	-0.02280812
219	0xbdc93803	-0.098251365
220	0xbdc2a442	-0.09503986
221	0x3d0d5b8a	0.034511127
222	0x3dbf6525	0.09345464
223	0x3d1c0a6e	0.038095884
224	0x3ccc2f80	0.024924994
225	0x3d8bc029	0.06823761
226	0x3cdcd79c	0.02695828
227	0xbd44d7a7	-0.048057225
228	0xbd9f72e2	-0.07785584
229	0x3d47aa82	0.048746593
230	0xbd73e88a	-0.05954794
231	0x3db7fee5	0.08984164
232	0xbd1a4fd7	-0.037673797
233	0x3d208242	0.039186724
234	0xbc846460	-0.016161144
235	0x3d6df22a	0.058092274
236	0x3d8d4989	0.06898791
237	0xbca3a798	-0.019977376
238	0x3d146542	0.03622938
239	0xbd3c29ca	-0.04593829
240	0x3da83781	0.082137115
241	0xbdc35e55	-0.09539477
242	0xbd30b57d	-0.04314183
243	0xbce1bd98	-0.027556226
244	0x3c66a398	0.01407709
245	0x3d7565d2	0.059911557
246	0x3c9a7000	0.018852234
247	0x3cc73c6c	0.024320804
248	0x3cffa40c	0.031206153
249	0xbd96f348	-0.07370621
250	0xbd1de527	-0.038548615
251	0xbc7c9ea8	-0.015418686
252	0xbb2db540	-0.0026505738
253	0xbdadbb5f	-0.08483004
254	0xbc8ea4d4	-0.01741258
255	0xbc536a90	-0.012903824

fc3.bias f4 [10]
0	0x3d295ebe	0.04135012
1	0x3d4804de	0.048832767
2	0x3dc86171	0.097842105
3	0xbdb5d79a	-0.08879013
4	0xbc0a4140	-0.008438408
5	0xbdb6913b	-0.08914419
6	0x3db8571b	0.09000989
7	0x3db662d1	0.089055665
8	0xbd8e0eea	-0.069364384
9	0x3da9c559	0.08289594

conv1.weight f4 [4, 1, 3, 3]
0	0x3f086282	0.5327531
1	0xbed74f27	-0.42052576
2	0xbdd03d74	-0.10167971
3	0x3e93a3c1	0.28835872
4	0x3ea9efc2	0.33190733
5	0xbf2b32e6	-0.6687454
6	0xbe7dfc02	-0.24803165
7	0x3f2b8cc2	0.67011654
8	0xbed9d4f9	-0.42545298
9	0xbf200390	-0.62505436
10	0xbf2a01f5	-0.66409236
11	0x3e7dfa29	0.2480246
12	0x3e5592c4	0.20856768
13	0xbd6c54e4	-0.057698146
14	0xbf0d3778	-0.55162764
15	0xbecc722b	-0.39930853
16	0x3f0ca949	0.5494581
17	0x3ec4895a	0.3838604
18	0xbe76719f	-0.2406678
19	0x3eaf3e46	0.34227198
20	0xbd280e14	-0.04102905
21	0xbf3c6a6c	-0.73599887
22	0xbcc870d0	-0.024467856
23	0x3f2ea914	0.6822674
24	0x3f066f7d	0.5251387
25	0xbf3e6da1	-0.7438603
26	0x3e492b99	0.19645537
27	0xbd2fa0e6	-0.042878054
28	0xbec2115e	-0.37903875
29	0xbde5c2dd	-0.11218808
30	0xbeb281ab	-0.34864554
31	0xbec051eb	-0.37562498
32	0xbe7988bb	-0.24368565
33	0x3e1352b9	0.14387025
34	0xbe8361a0	-0.2566042
35	0x3cde791b	0.027157357

conv1.bias f4 [4]
0	0xbdc60d03	-0.096704505
1	0x3e352c4d	0.1769268
2	0xbe1e7476	-0.15474114
3	0x3dd4d30f	0.10391819

conv1_bn.weight f4 [4]
0	0x3ec112dc	0.377097
1	0x3f59b05d	0.85034734
2	0x3ed033cd	0.4066452
3	0x3fcbe7fb	1.593017

conv1_bn.bias f4 [4]
0	0x3ae1fc1f	0.0017241276
1	0xbf17800f	-0.59179777
2	0xbd29bdf4	-0.04144092
3	0xbf7fd5dc	-0.999357

conv1_bn.running_mean f4 [4]
0	0xbdf0acec	-0.11751732
1	0x3f01e7c7	0.5074429
2	0xbe1963d8	-0.14979494
3	0x3f3e76de	0.74400127

conv1_bn.running_var f4 [4]
0	0x3e918207	0.28419515
1	0x3ef20b02	0.47274023
2	0x3e3c13be	0.18366906
3	0x3f82af3c	1.0209727

fc1_bn.weight f4 [100]
0	0x3f96a918	1.1770353
1	0x3f96a9c2	1.1770556
2	0x3f8f7a0f	1.1209124
3	0x3f94dd49	1.1630031
4	0x3f91c1b0	1.1387234
5	0x3f961336	1.1724613
6	0x3f9ee82e	1.2414606
7	0x3f8c69e6	1.0969818
8	0x3f9ad5fe	1.2096555
9	0x3f930330	1.1485348
10	0x3f93dd2a	1.1551869
11	0x3f9f2b74	1.2435136
12	0x3f947897	1.1599301
13	0x3fa23f41	1.2675554
14	0x3f94f794	1.1638055
15	0x3f932428	1.1495409
16	0x3f93d112	1.1548178
17	0x3f91bb73	1.138533
18	0x3f95803c	1.1679759
19	0x3fa0b420	1.255497
20	0x3f9bfd68	1.2186708
21	0x3f9f2987	1.2434548
22	0x3f97efbc	1.1870036
23	0x3f9a1fae	1.2040918
24	0x3f974a35	1.1819521
25	0x3f97dbb0	1.1863918
26	0x3f9b9ded	1.215757
27	0x3f944b26	1.1585433
28	0x3f9a3256	1.2046611
29	0x3f9d3926	1.2283065
30	0x3f972a24	1.1809735
31	0x3f91dcf3	1.1395553
32	0x3f976c40	1.182991
33	0x3f8c34e1	1.0953637
34	0x3f950b9e	1.164417
35	0x3f8b4ecf	1.0883425
36	0x3f98a70e	1.1925981
37	0x3f98f8ae	1.1950891
38	0x3f93a138	1.1533575
39	0x3f9869b2	1.1907256
40	0x3f909478	1.1295309
41	0x3f9e5352	1.2369177
42	0x3f965d7b	1.1747278
43	0x3f8ec169	1.1152774
44	0x3f9d5608	1.229188
45	0x3f995c88	1.1981363
46	0x3f8b8475	1.0899798
47	0x3f91febe	1.1405866
48	0x3f9da66c	1.2316413
49	0x3f983855	1.1892191
50	0x3f98c41b	1.1934847
51	0x3fa056b2	1.2526457
52	0x3f900d66	1.1254089
53	0x3f959f16	1.1689174
54	0x3f938f2b	1.1528066
55	0x3fa52561	1.2902032
56	0x3f96e387	1.1788186
57	0x3f86a10c	1.0517898
58	0x3f946a5f	1.1594962
59	0x3f92a7e6	1.1457489
60	0x3f922947	1.1418847
61	0x3f940d4b	1.1566557
62	0x3f974880	1.1819
63	0x3f9f5164	1.2446713
64	0x3f9bc774	1.2170243
65	0x3f9cb6ad	1.2243248
66	0x3f9160c8	1.135766
67	0x3f974648	1.1818323
68	0x3f8e15aa	1.1100361
69	0x3f8ef15d	1.1167408
70	0x3f9a7413	1.2066673
71	0x3fa1d192	1.2642081
72	0x3f94097c	1.1565394
73	0x3f9583da	1.1680863
74	0x3f9a9fe8	1.208005
75	0x3f9ca9e8	1.2239351
76	0x3f93d8b6	1.155051
77	0x3f9f84c2	1.246239
78	0x3f93dcec	1.1551795
79	0x3f943d67	1.1581239
80	0x3f8f99bd	1.1218792
81	0x3f9b9ac1	1.2156602
82	0x3f91aa9f	1.1380194
83	0x3f91b292	1.138262
84	0x3f9a91bc	1.2075725
85	0x3f97fc8a	1.1873944
86	0x3f973c4a	1.1815274
87	0x3f952774	1.1652665
88	0x3f9e5439	1.2369453
89	0x3f9970f3	1.1987594
90	0x3f9495f1	1.1608258
91	0x3f9fe007	1.2490243
92	0x3f91f835	1.1403872
93	0x3f8c9530	1.0983028
94	0x3f9e5dbf	1.2372359
95	0x3f95b6dd	1.169643
96	0x3f931136	1.1489627
97	0x3f976f86	1.1830909
98	0x3f928d69	1.1449405
99	0x3f9f7017	1.2456082

fc1_bn.bias f4 [100]
0	0x3e065c59	0.13121165
1	0x3d92137c	0.071326226
2	0x3d5ea3a7	0.05435529
3	0x3d4040e7	0.046936896
4	0x3d271a30	0.04079646
5	0x3cc7a3ca	0.024370093
6	0x3d8acc69	0.067772694
7	0x3d171fb6	0.036895476
8	0xbc98ba75	-0.018643597
9	0xbcb46a09	-0.022023218
10	0x3d6dd046	0.058059953
11	0x3e1696fc	0.14706033
12	0x3ddf788e	0.10911666
13	0x3d6e6216	0.05819901
14	0x3cc68f0b	0.02423813
15	0x3cd99f65	0.026565263
16	0xbb3502bc	-0.0027620038
17	0xbd734083	-0.059387695
18	0xbc2b9199	-0.010471725
19	0xbc9e3ff9	-0.019317614
20	0x3dd604bb	0.10450121
21	0x3d64409e	0.055725686
22	0xbd61e111	-0.05514628
23	0x3d276235	0.040865142
24	0x3db183ef	0.086677425
25	0x3ca78679	0.020449864
26	0x3da8d6e3	0.082441114
27	0x3c8d74e7	0.017267657
28	0x3d515830	0.051109493
29	0x3e022c5b	0.12712233
30	0x3cbf559b	0.02335625
31	0xbb5fe714	-0.0034164833
32	0xbcfa6e05	-0.03057004
33	0x3d1b696b	0.03794233
34	0x3dc6e6c0	0.09711981
35	0x3d626673	0.055273484
36	0x3d9921f4	0.07477179
37	0x3cfbe2a2	0.030747715
38	0x3dd09989	0.101855345
39	0x3c435690	0.011922494
40	0xbc7b7475	-0.01534759
41	0x3c7b04ea	0.015320996
42	0x3d53ca53	0.051706623
43	0x3d141b4d	0.03615885
44	0x3de1f263	0.1103256
45	0x3dea5ed0	0.11443865
46	0xbd5e5f53	-0.054290127
47	0x3cab3da7	0.020903422
48	0x3cc8596c	0.024456702
49	0x3e54ba27	0.20774136
50	0x3e04d458	0.12971628
51	0x3e1e88cb	0.1548187
52	0xbc63db47	-0.01390726
53	0x3d1e1134	0.038590625
54	0x3b0567aa	0.0020355978
55	0x3e2a9984	0.16660124
56	0x3d997005	0.07492069
57	0xbc4b2efc	-0.012401339
58	0x3c360e7e	0.011111854
59	0x3daf8098	0.08569449
60	0x3d5c3a4c	0.053766534
61	0x3d336ccf	0.04380494
62	0x3c09260e	0.008370889
63	0x3e3f1129	0.1865889
64	0x3dd9319d	0.10605166
65	0x3dc0da52	0.09416641
66	0x3c73990b	0.014868031
67	0xbd28a5d3	-0.041173767
68	0x3d73afd2	0.059493847
69	0x3d3f1cd9	0.04665837
70	0x3db2ff22	0.08740069
71	0x3d87cc69	0.06630785
72	0x3b21ee5e	0.0024708728
73	0x3cd3e58c	0.025866292
74	0xbb47fb3f	-0.0030514745
75	0x3da36d75	0.07979862
76	0x3dc29609	0.09501273
77	0x3d115157	0.035477962
78	0x3c85344a	0.016260285
79	0x3d9fde56	0.07806079
80	0x3caadf08	0.020858303
81	0x3d8c4440	0.06848955
82	0xbd680eda	-0.05665479
83	0x3ce781a3	0.028260058
84	0x3d29452e	0.04132574
85	0xbc04beed	-0.008102161
86	0x3d981f1c	0.07427809
87	0x3c858975	0.016300896
88	0x3d4a4892	0.049385615
89	0x3d3ecba8	0.04658094
90	0x3d169025	0.03675856
91	0x3e5c8205	0.21533974
92	0x3d437f42	0.047728784
93	0x3d3703dc	0.044681415
94	0x3cdf238e	0.027238633
95	0x3d2a1cb3	0.041531276
96	0x3dd05ab3	0.101735495
97	0x3b8b9e2b	0.0042607985
98	0x3c74badf	0.014937132
99	0x3e208e1a	0.15679207

fc1_bn.running_mean f4 [100]
0	0x3eb74d06	0.35800952
1	0xbe77e315	-0.24207719
2	0xbef0e5b7	-0.4705026
3	0xbe36da54	-0.17856723
4	0x3e5a38df	0.21310757
5	0xbd7b6287	-0.06137326
6	0xbe6d312f	-0.23163293
7	0x3ee924dd	0.45535937
8	0xbe4c5678	-0.1995486
9	0x3ce25cd2	0.02763215
10	0xb9daece6	-0.00041756703
11	0xbd86a2ce	-0.06574021
12	0x3d8af16a	0.06784327
13	0x3e8a0cca	0.26962882
14	0x3e93a194	0.28834212
15	0xbf176e58	-0.59152746
16	0xbe57b691	-0.21065737
17	0xbef982f7	-0.4873273
18	0xbebc0bbc	-0.36727703
19	0xbe1700fe	-0.14746472
20	0xbf5d59d8	-0.86465216
21	0xbe151735	-0.14559634
22	0x3c143de1	0.009047956
23	0xbe831a12	-0.25605828
24	0xbea6c3fd	-0.32571402
25	0xbe3dbae0	-0.18528318
26	0x3ef24d49	0.4732459
27	0xbf04f3bc	-0.5193441
28	0x3e1281bd	0.14307304
29	0xbea96013	-0.3308111
30	0xbf66dac5	-0.90177566
31	0xbec97151	-0.39344266
32	0x3ed7eccf	0.42172858
33	0x3cad4ace	0.021153834
34	0x3dab9af8	0.08379167
35	0x3f31b04a	0.6940962
36	0xbdf36b20	-0.11885667
37	0x3e9492fd	0.29018393
38	0xbdc8fb39	-0.09813542
39	0xbe9f467d	-0.31108466
40	0xbed7ef4a	-0.4217475
41	0xbe2630e5	-0.1622959
42	0xbe61b70f	-0.22042488
43	0x3db5e09f	0.08880734
44	0x3e3008bf	0.17190836
45	0xbeb32c73	-0.3499485
46	0x3d83ee98	0.064419925
47	0xbe551163	-0.20807414
48	0xbf72a4fc	-0.94782996
49	0x3dfa3510	0.12217152
50	0x3e645f3d	0.22301956
51	0xbd8ce150	-0.068789124
52	0xbd493cde	-0.049130313
53	0xbe169976	-0.14706978
54	0xbe148dab	-0.14507167
55	0xbe467f79	-0.19384564
56	0xbed30c4e	-0.41220325
57	0xbe3f50d8	-0.18683183
58	0x3d518f4a	0.05116204
59	0xbeb3e54b	-0.35135874
60	0x3eb42b83	0.35189447
61	0x3e3de532	0.18544462
62	0xbe319245	-0.17340954
63	0xbdc567de	-0.09638952
64	0x3d330a4d	0.043710995
65	0xbd39c2c9	-0.045351777
66	0xbe221316	-0.15827593
67	0xbf23a5dc	-0.63924956
68	0xbee0aa98	-0.43880153
69	0x3ec08a95	0.3760573
70	0xbe2b759d	-0.16744085
71	0x3e954a75	0.2915837
72	0xbf3d838d	-0.74028856
73	0x3d8e86f0	0.06959331
74	0xbf14adff	-0.58077997
75	0xbe693f3f	-0.22778033
76	0x3c1c8ca5	0.009555017
77	0x3de6c2aa	0.11267598
78	0xbee24255	-0.44191232
79	0xbe628d2a	-0.22124162
80	0xbf62b7d4	-0.8856175
81	0x3dafd284	0.085850745
82	0xbfab481e	-1.3381383
83	0xbf133a14	-0.57510495
84	0xbeb9895c	-0.3623761
85	0x3edfd85a	0.4371975
86	0xbefaa7a8	-0.48956037
87	0x3e607695	0.21920235
88	0xbf0708bc	-0.527477
89	0x3ea01f23	0.31273755
90	0xbee388e8	-0.4444039
91	0xbe5a4b9b	-0.21317904
92	0xbe7cf347	-0.24702178
93	0x3d8b821a	0.06811924
94	0xbd96ef9f	-0.07369923
95	0xbf144205	-0.5791324
96	0xbf39bba3	-0.72551936
97	0xbe3f5cd2	-0.18687752
98	0xbef277eb	-0.47357115
99	0xbd81e1b2	-0.06341876

fc1_bn.running_var f4 [100]
0	0x3e406363	0.18787913
1	0x3e40a57e	0.1881313
2	0x3e546550	0.20741773
3	0x3e3d3c50	0.18480039
4	0x3e6914ef	0.22761892
5	0x3e838fa9	0.25695542
6	0x3e4b04ca	0.19826046
7	0x3e3c800f	0.18408225
8	0x3e7b0aaa	0.24515787
9	0x3e494e6a	0.19658819
10	0x3e442cf7	0.19157778
11	0x3e152ed4	0.14568645
12	0x3e1b486f	0.1516435
13	0x3e7a1c66	0.24424896
14	0x3e8c4911	0.27399495
15	0x3e4f59d9	0.20249118
16	0x3e686953	0.22696428
17	0x3e93459d	0.28764048
18	0x3e61563d	0.22005554
19	0x3e982cad	0.29721585
20	0x3e94f791	0.29095128
21	0x3e373c26	0.17894039
22	0x3e58c62a	0.21169344
23	0x3e1e8633	0.1548088
24	0x3e67b812	0.22628811
25	0x3e4905c5	0.19631107
26	0x3e52fc7a	0.20604125
27	0x3e53f68b	0.20699517
28	0x3e685046	0.22686872
29	0x3e79b354	0.24384815
30	0x3e1e52ff	0.15461348
31	0x3e07e403	0.13270573
32	0x3e8c7957	0.27436325
33	0x3e20b7f5	0.15695174
34	0x3e4d311f	0.2003827
35	0x3e196f30	0.14983821
36	0x3e91b258	0.28456378
37	0x3e4b93f3	0.19880657
38	0x3e1e2934	0.15445405
39	0x3e4ec23f	0.20191287
40	0x3e6cecc9	0.23137201
41	0x3e524e1f	0.20537613
42	0x3e728845	0.23684795
43	0x3e344f7a	0.17608443
44	0x3e15e411	0.14637782
45	0x3e9ccc7c	0.3062476
46	0x3e37e5fb	0.17958824
47	0x3ea04962	0.31305987
48	0x3e890b7a	0.26766568
49	0x3e9ae038	0.3024919
50	0x3e270e97	0.1631416
51	0x3e13cbd6	0.14433226
52	0x3e3d5b36	0.18491825
53	0x3e895a97	0.26826927
54	0x3e359f1c	0.17736477
55	0x3e447165	0.19183882
56	0x3e0fb3c9	0.14033426
57	0x3e4cc4e5	0.19996984
58	0x3e186dfc	0.14885706
59	0x3dcddbfb	0.100517236
60	0x3e3dab9e	0.18522498
61	0x3dde7479	0.10862059
62	0x3e55725e	0.20844409
63	0x3e5a1462	0.21296838
64	0x3e8a2ca3	0.2698718
65	0x3e5c7463	0.21528773
66	0x3e660c4e	0.22465631
67	0x3e4fb677	0.20284449
68	0x3e3372ea	0.17524305
69	0x3e745072	0.23858812
70	0x3e62b0a0	0.2213769
71	0x3e411be7	0.188583
72	0x3e6eee87	0.23333178
73	0x3e8092a6	0.25111884
74	0x3e38b55d	0.18037935
75	0x3e147c94	0.14500648
76	0x3e5bca1f	0.21463822
77	0x3e7825d8	0.24233186
78	0x3e54ab0f	0.20768379
79	0x3e4685dc	0.19387001
80	0x3e2a6eba	0.16643801
81	0x3e47c4a3	0.19508605
82	0x3e78c78c	0.24294871
83	0x3e22a13d	0.1588182
84	0x3e2420ed	0.16028185
85	0x3e6b333a	0.2296876
86	0x3e4fa56a	0.20277944
87	0x3e838075	0.25683942
88	0x3e5ef339	0.2177247
89	0x3e157bde	0.14598033
90	0x3e64c3a8	0.22340262
91	0x3e63dc7f	0.22252081
92	0x3e47b6cf	0.1950333
93	0x3e005eb6	0.1253613
94	0x3e9d5940	0.30732155
95	0x3e88a9ad	0.26691952
96	0x3e4d7122	0.20062688
97	0x3e9572e0	0.29189205
98	0x3e2509ec	0.16117066
99	0x3e70fc2e	0.23533699
