Topic 2.1/4.2 Cross-validation methods/lightning_logs/version_2/checkpoints/epoch=9-step=1340.ckpt (torch, 8754 bytes, 9 tensors)

net.0.weight f4 [10, 10]
000000 e7 a1 d8 be 65 3d 44 3f 3f d6 c8 3e ac 78 24 be
       -0.42311022 0.7665618 0.39225957 -0.16061658
000010 8c 72 27 3e 4d 38 13 c0 22 b4 29 bf 28 47 e5 3f
       0.1635229 -2.3003113 -0.66290486 1.791234
000020 de 1a 56 bf 4f 67 ed be b6 28 6f bf 88 e9 7c bf
       -0.83634746 -0.4636788 -0.93421495 -0.9879384
000030 ad 43 17 be 88 17 1f bf 36 15 0b bf 0a 48 ed 3d
       -0.1477191 -0.6214528 -0.5432924 0.11586006
000040 d6 34 95 3d d6 0f 94 bc 03 a1 27 c0 71 55 ee 3e
       0.07285468 -0.018073957 -2.6192024 0.46549562
000050 76 0b c0 bf 5f cc 13 bf 09 f6 ee 3c 6b 42 82 bf
       -1.5003498 -0.5773372 0.029170053 -1.0176519
000060 34 08 8e bf ec ae b2 3f ad bc b8 3e ad 8a 24 bf
       -1.1096253 1.3959632 0.36081448 -0.642741
000070 15 6a 5f bf 77 d4 29 c0 dd b5 d6 be 40 1d e9 bd
       -0.87271243 -2.6535928 -0.41935626 -0.11382532
000080 cc d9 cd 3d 8a 71 fb 3e 6a 1c f7 3e 37 9e 3f c0
       0.10051307 0.4911006 0.48263866 -2.9940317
000090 8f 31 e1 3f 90 43 33 40 e5 38 de be fa 19 f0 3e
       1.7593249 2.8009987 -0.43402782 0.4689482
0000a0 a6 12 52 40 7d ba 89 3e 3e 84 2e bf f2 a1 9a be
       3.2823882 0.26900092 -0.68170536 -0.3020168
0000b0 9f f4 34 3e 40 0a 0b 3e 48 05 9e bf 6f 6d 06 bf
       0.1767144 0.13578129 -1.2345362 -0.5251073
0000c0 1a cd 28 40 cc dc e2 be 09 eb 10 bf 7d cc 68 be
       2.6375184 -0.4430908 -0.56608635 -0.22734256
0000d0 75 57 f9 be 08 83 27 3f 5e 0b 5d 3f 4e 82 14 c0
       -0.48699537 0.6543431 0.8634547 -2.3204532
0000e0 a2 ca 70 bf 3c 5b 96 3e ab da d2 be d2 8f 95 3f
       -0.94059193 0.2936648 -0.41182455 1.1684515
0000f0 96 b5 ce 3f 74 00 3d 3f 43 16 fd 3e 1e 43 ab 3f
       1.6149166 0.73828816 0.49431047 1.3379858
000100 22 3e ad 3f 70 dd 2a c0 23 28 02 c0 fe f7 ee 3f
       1.3534586 -2.6697655 -2.0336998 1.8669431
000110 61 7b a4 3e d1 b5 07 40 d1 f5 44 be 46 28 f5 be
       0.3212538 2.1204722 -0.19234397 -0.4788229
000120 74 ef c5 3f 0e 14 a7 be a2 65 36 be 4c 8f 08 3f
       1.54637 -0.32632488 -0.17812207 0.53343654
000130 59 f4 23 40 8b 3f 3e bf 9a 5a 89 be e5 59 c4 3f
       2.5617888 -0.7431571 -0.26826936 1.5339934
000140 a1 a7 47 3f 93 78 83 bf 4b 8e 43 bf c2 c6 8c be
       0.77990156 -1.0271171 -0.76388997 -0.2749539
000150 2e 1e df bd 90 77 ab be f2 d4 d1 bf 09 0e b1 bf
       -0.10894428 -0.33489656 -1.6393111 -1.3832408
000160 bf dc 18 3f 4a 4f 8e bd 77 f9 fd bf b1 16 30 3f
       0.5971183 -0.06948717 -1.9841756 0.68784624
000170 a8 a5 22 c0 44 7a 9d bf 5a c2 9c bf f0 9b ed 3e
       -2.5413609 -1.2302938 -1.2246811 0.46408033
000180 a4 b5 d3 bf 05 3c 47 3f f2 fc 7d bf 7e 0f 74 c0
       -1.6539807 0.7782596 -0.9921409 -3.8134456

net.0.bias f4 [10]
000000 a5 f5 50 bf 11 ef 15 c0 f0 cc c9 be 5e 61 40 3e
       -0.81624824 -2.3427165 -0.39414167 0.18787143
000010 21 7b f5 be 53 57 90 3f d6 30 3e 3e 19 25 c6 be
       -0.47945502 1.1276649 0.18573317 -0.38700178
000020 ba 7b 98 3f 6e 03 cb 3c
       1.1912758 0.024781909

net.2.weight f4 [1, 10]
000000 09 3c 08 3f 76 ba 09 40 db d0 3c 3e b5 8c 8a be
       0.53216606 2.1520057 0.18439047 -0.27060476
000010 4b 93 06 bf 3c f6 33 bf a9 5b 9c 3e 5d b2 a0 3d
       -0.525685 -0.702976 0.3053868 0.0784652
000020 c6 0a f7 be 82 fb e8 3d
       -0.48250407 0.11376096

exp_avg f4 [10, 10]
000000 3e 5b 41 bb ec 26 37 ba 19 7c 93 b9 04 f7 53 39
       -0.0029503847 -0.0006986696 -0.00028130485 0.00020214549
000010 a8 f2 5e 39 9e 64 25 ba 67 d4 23 3a db e2 02 3b
       0.00021261966 -0.00063092436 0.0006249607 0.0019971642
000020 47 db b7 bb 78 1f a2 39 0f c5 94 3b 44 cb 23 bc
       -0.0056108567 0.00030922494 0.004540093 -0.009997193
000030 91 37 37 3c 6d fe 9d bc c6 6c ad bc 0a 56 87 bb
       0.011182682 -0.019286359 -0.021170031 -0.0041301297
000040 d9 2e 0b 3d 3b f4 a7 bb 04 0d 99 bd 0c 98 15 3d
       0.033980224 -0.00512555 -0.07473186 0.036521956
000050 52 1c e7 b9 48 e3 41 ba f7 90 c7 b9 71 9f 8b 38
       -0.00044080854 -0.0007396233 -0.00038064245 6.657735e-05
000060 e6 b8 3a 38 37 5a e6 3a c3 9f 72 3a 0a 3a 4e 3a
       4.4518056e-05 0.0017574494 0.0009255374 0.0007866925
000070 32 54 ce b9 a5 84 34 3a 61 ed 44 3a af 6a b0 3a
       -0.00039354112 0.00068862207 0.0007512179 0.0013459529
000080 6a 16 f6 38 fe 2a 81 b9 45 0f 9e b9 db ce d4 ba
       0.00011734369 -0.0002463683 -0.00030147485 -0.0016235964
000090 f7 c7 a8 ba 33 1d 7f b9 cb 10 ca 3a 8d db 13 ba
       -0.0012876977 -0.00024329573 0.0015416382 -0.00056403206
0000a0 45 e2 c2 bb 86 cc 3d bb 32 4c a6 bb 65 91 ba 3b
       -0.0059473836 -0.0028961017 -0.005075001 0.005693602
0000b0 47 b2 b4 3b 85 17 20 3a 7e b1 c4 bb f6 50 3b ba
       0.0055144164 0.00061070203 -0.006002604 -0.0007145548
0000c0 6d fd e2 ba 58 ec 80 bb c8 bd 13 3a 46 a2 63 ba
       -0.0017317958 -0.0039344244 0.00056358846 -0.00086835434
0000d0 76 63 61 bb 60 ce ab 3b 21 7d b0 3b 4c 7d 8c ba
       -0.0034391559 0.0052431077 0.0053860103 -0.0010718494
0000e0 25 60 8d bb 30 1d c9 ba 8b 2c 2a 3b b6 a6 0b b9
       -0.00431444 -0.0015343782 0.002596649 -0.00013318178
0000f0 c9 be 4c ba 2d 34 a6 b9 18 08 dd 38 d8 2b a5 b9
       -0.00078104116 -0.0003170086 0.00010539609 -0.0003150392
000100 e0 8e 71 b9 ce 27 2a 3a 92 24 c5 3a b8 4d 43 3a
       -0.00023036776 0.0006490917 0.0015040806 0.00074502407
000110 54 ca 9b ba 77 17 dc 3a 1d 70 da b9 f5 e4 08 b9
       -0.001188586 0.0016791661 -0.0004166373 -0.00013055264
000120 a8 26 ab b8 4a 43 16 39 3c ad f0 38 df 41 54 39
       -8.161116e-05 0.00014330182 0.00011476359 0.00020242434
000130 3c 04 a1 38 e8 1c f6 39 af 20 5f ba 0e f9 d2 39
       7.677867e-05 0.00046942313 -0.0008511645 0.00040239881
000140 78 46 96 b8 41 84 27 3b 97 1e 00 bb 7b 05 f3 3a
       -7.165683e-05 0.0025561007 -0.0019549483 0.0018541062
000150 ee 7e d0 3a 5a e8 23 bb 74 a2 15 bc ce db 07 ba
       0.0015906969 -0.0025010318 -0.00913297 -0.0005182595
000160 7a 49 02 3c 2f 61 8d bb a4 af a0 b9 69 b2 b4 b9
       0.0079520885 -0.0043145637 -0.0003064844 -0.000344652
000170 a9 2c 5a b9 a8 e1 7c 39 4e fb 8d 39 c8 e6 49 3a
       -0.00020806737 0.00024116656 0.00027080852 0.00077019306
000180 27 a4 51 39 84 86 ab 39 ca a2 5a 38 4b dc af 39
       0.00019992945 0.00032715884 5.212686e-05 0.00033542732

exp_avg_sq f4 [10, 10]
000000 4d 0b d5 37 6c d7 e7 37 50 72 e9 37 df 29 77 38
       2.5396841e-05 2.763766e-05 2.7828995e-05 5.8928385e-05
000010 38 3b 7e 38 50 b4 94 37 c1 11 49 37 cf 48 44 37
       6.061347e-05 1.772694e-05 1.1984667e-05 1.1699462e-05
000020 e7 7e 8a 39 d6 e7 be 37 1b 6e d2 39 05 7e a3 39
       0.0002641596 2.2757722e-05 0.00040136356 0.00031183675
000030 b9 e6 ff 39 c8 ce 00 3a 70 9c f8 39 d2 30 99 39
       0.00048809292 0.00049136253 0.000474188 0.00029218808
000040 29 5a 2a 3a da cd 97 39 fe 4e 3e 3b 9c 4b 69 3a
       0.000649842 0.00028954336 0.0029038782 0.00088995113
000050 ed ec a0 38 5a 14 5f 38 58 a4 33 38 d5 3c 81 38
       7.6735254e-05 5.3186297e-05 4.2829983e-05 6.16253e-05
000060 70 ef 82 38 e4 a1 e2 37 85 9a dc 37 19 fd 97 37
       6.243482e-05 2.7016686e-05 2.6297997e-05 1.811846e-05
000070 23 08 5a 39 ad 44 4c 38 a8 c1 f6 37 06 0b 01 38
       0.00020793131 4.870135e-05 2.9415663e-05 3.0766263e-05
000080 9f a2 0a 38 72 81 96 38 62 98 a0 38 fb 4c 32 37
       3.3053217e-05 7.1766684e-05 7.657778e-05 1.062755e-05
000090 5f 51 b0 37 d7 13 80 37 80 1a 41 39 73 80 dc 37
       2.1018726e-05 1.5268028e-05 0.00018415786 2.6285858e-05
0000a0 8c 04 34 39 bc 26 45 39 12 6a 82 39 95 41 8e 39
       0.00017167832 0.00018801814 0.0002487456 0.00027133213
0000b0 1c cc 88 39 1e db 33 39 2e 28 34 39 f0 8a 13 39
       0.00026092015 0.00017152398 0.00017181106 0.0001407077
0000c0 de 54 07 3b 83 53 8a 39 80 c0 dd 37 7c 8e 04 38
       0.002064995 0.00026383632 2.6434893e-05 3.160395e-05
0000d0 3e 3e 0c 38 94 bf 57 38 39 71 59 38 ef f1 14 37
       3.343657e-05 5.1438416e-05 5.184228e-05 8.877817e-06
0000e0 b8 39 c0 36 64 0c 6d 36 14 c7 62 38 2f 62 a0 37
       5.7287652e-06 3.5322964e-06 5.4068005e-05 1.9119207e-05
0000f0 49 06 1b 38 ec 59 f0 37 43 27 fe 37 72 54 1d 38
       3.6960733e-05 2.8652103e-05 3.0297442e-05 3.7510363e-05
000100 df 6e 1c 38 d2 34 09 37 fa 27 2a 37 93 60 f3 36
       3.7296555e-05 8.1781345e-06 1.0142097e-05 7.253207e-06
000110 ae 8e 95 38 5b 04 9d 37 76 f1 7b 38 ca 83 1a 38
       7.13145e-05 1.8717887e-05 6.006794e-05 3.68392e-05
000120 24 d1 1a 38 9f 1d 74 38 0d 5c 7e 38 cf 1b ad 37
       3.691124e-05 5.820172e-05 6.0644048e-05 2.0636156e-05
000130 ea 95 fe 37 eb 5f 61 37 a8 54 f6 38 9b 2b ef 37
       3.0348969e-05 1.3433378e-05 0.000117459625 2.8511326e-05
000140 e0 5a 0e 38 74 c3 04 38 1c bf 34 38 9c 41 84 38
       3.3940072e-05 3.1653282e-05 4.309333e-05 6.306471e-05
000150 9c b9 87 38 20 9e bc 37 0d 46 4e 38 50 c8 94 37
       6.471874e-05 2.248498e-05 4.9179467e-05 1.7736253e-05
000160 8c ba a7 39 1a 63 4c 38 bd 37 51 38 e2 95 25 38
       0.0003199171 4.8729686e-05 4.9881393e-05 3.9478655e-05
000170 19 d3 28 38 83 8e 57 38 0e a6 5d 38 81 a5 9f 37
       4.025092e-05 5.139272e-05 5.2845156e-05 1.9031346e-05
000180 10 7b 29 37 d9 a6 f2 36 9e 0c 87 38 8b 78 c0 37
       1.0101838e-05 7.2315856e-06 6.439652e-05 2.2944316e-05

exp_avg f4 [10]
000000 75 f3 93 3c 66 53 02 3e 28 0e a1 3b e4 1c ea bb
       0.018060425 0.12727126 0.0049150176 -0.0071445573
000010 8e e9 b2 bc 41 a7 a5 bc d5 45 d5 3b 0a 84 36 3b
       -0.021839883 -0.020221354 0.006508569 0.0027849698
000020 4e d9 cc bc 10 a2 24 3b
       -0.025005963 0.002512101

exp_avg_sq f4 [10]
000000 bb b9 37 3a 6a 38 45 3c 5d 38 74 3a d2 d9 0f 3a
       0.0007008572 0.012037376 0.000931626 0.0005487475
000010 2a 4d 96 3b fa f4 9a 39 f7 68 f7 39 bc 5c f4 39
       0.0045868354 0.0002955569 0.00047189716 0.000466084
000020 cf 97 75 3a ec 1c c7 39
       0.00093686295 0.00037977786

exp_avg f4 [1, 10]
000000 f7 9d 0b bd 5d ee 33 bd b0 ce 2e bc 20 82 9d 3c
       -0.034086194 -0.043928493 -0.010669395 0.019227087
000010 f0 4f 8d bd 4f 6f e5 3c ec fd 10 bc 61 03 6e 3c
       -0.069000125 0.028007178 -0.008849602 0.014527173
000020 e0 2c ce 3c 4f 2d 7c bc
       0.025167882 -0.015391662

exp_avg_sq f4 [1, 10]
000000 cc 42 17 3c 43 cc bb 3b 1b b7 3f 3b 52 d6 b1 3b
       0.009232234 0.005731137 0.0029253426 0.0054271603
000010 ab ab 34 3c 0c 9e 85 3b d1 03 7c 3b b5 4d cd 3b
       0.011027257 0.0040776785 0.0038454423 0.006265367
000020 21 a3 d1 3b a3 ea 84 3b
       0.0063976203 0.004056291
