Topic 2/4.2 Cross-validation methods/lightning_logs/version_6/checkpoints/epoch=9-step=1340.ckpt (torch, 8754 bytes, 9 tensors)

net.0.weight f4 [10, 10]
000000 e7 4c 36 40 9d b2 a6 3f 8f 01 d1 3f 0a 47 18 bf
       2.8484437 1.3023258 1.6328601 -0.59483397
000010 6a da 66 bd b5 52 09 bc 2f 62 dc 3e 91 2b 36 3f
       -0.05636064 -0.008381535 0.43043658 0.7116023
000020 4f 18 9d 3f 9b 3f 1b 3f a4 fa c7 3f bb f1 a9 be
       1.2273043 0.6064393 1.5623364 -0.33192238
000030 dc 08 73 3f fa d8 70 3f 62 7f 59 3f 2e 5b 0a c0
       0.94935393 0.9408108 0.84959996 -2.1618152
000040 4d 92 39 bf b1 09 e6 bf 5a 41 56 3f 14 9d 24 40
       -0.7248886 -1.7971708 0.8369347 2.5720873
000050 73 60 32 c0 39 84 1a bf 06 82 cb bc 3c a7 61 bf
       -2.7871368 -0.60358006 -0.024842273 -0.88145804
000060 6a a7 b9 bf d0 d1 8c 3f 0a 47 f0 3f 3b 21 d5 bf
       -1.4504216 1.100153 1.8771679 -1.6650766
000070 d1 be 58 bf 7b 3b de bf 6b e9 bb 3f 57 dd b1 3c
       -0.8466616 -1.7361902 1.4680609 0.021711988
000080 1e 29 fb 3f 1c 42 78 3f a7 ff 90 3f 22 ba 2c 40
       1.9621923 0.96975875 1.1328019 2.6988606
000090 65 15 cd 3f 3a 5f d5 bd 93 e2 7f 3f ad 58 23 40
       1.6022154 -0.10418554 0.999551 2.5522873
0000a0 67 a9 14 c0 62 3e 20 bf 5d 46 70 3e b2 fb c4 be
       -2.3228395 -0.6259519 0.23464341 -0.38473278
0000b0 45 76 1c bf 96 03 d9 3c cd b9 70 3f f0 05 29 3d
       -0.61117965 0.026490968 0.9403351 0.041265428
0000c0 0c 91 34 c0 67 ab 53 3f ba cc a6 bf ae f9 8b bf
       -2.821353 0.82683414 -1.3031228 -1.0935571
0000d0 58 55 db bc 12 e4 17 bf 79 85 31 bf a5 99 4b 3e
       -0.026774094 -0.5933238 -0.6934429 0.1988283
0000e0 8c 13 85 3e ce 93 b6 3e a5 1e 2a c0 c1 d6 90 3e
       0.25991476 0.3565964 -2.6581204 0.28288844
0000f0 4f c7 1e bf 60 0a 03 3f 24 a2 45 3e 1a 94 fd bd
       -0.6202287 0.51187706 0.19300133 -0.12381764
000100 77 50 a5 3c 42 68 66 3d c0 68 08 bf 2a 6f b6 c0
       0.02017997 0.05625177 -0.53284836 -5.70107
000110 b0 4d 29 bf d1 05 1b bf 71 c4 9c be 69 f4 1b bf
       -0.66134167 -0.6055575 -0.30618623 -0.60919815
000120 10 d2 d5 be 00 ae 3e b7 a0 03 a6 bd e7 d4 7d bd
       -0.41761827 -1.1365395e-05 -0.0810616 -0.061970618
000130 6c ea b0 3e eb 30 c5 40 9e dd d4 be 4b 61 3f 3f
       0.3455385 6.1622214 -0.4157533 0.7475783
000140 fc fb 6a 3f 9e 8d 14 3f cc 8d c3 be ba 33 00 be
       0.9179075 0.5802859 -0.3819412 -0.12519732
000150 a0 61 b2 be ab 0d 65 bf cd f3 e5 3f ca 8a 73 40
       -0.34840107 -0.8947398 1.7965027 3.805346
000160 83 2d 43 3f 44 1b f9 be 05 01 ce 3d c6 0b ad bc
       0.7624132 -0.48653615 0.10058788 -0.021123778
000170 ee 2b a1 be c7 05 73 be dc 47 0d 3e a0 7e cb bf
       -0.31478828 -0.23732673 0.13796943 -1.5898018
000180 ae 69 c5 bf e7 0d 70 c0 aa 7d 07 3e d4 f1 c7 be
       -1.5422876 -3.7508485 0.13231531 -0.39051688

net.0.bias f4 [10]
000000 41 59 6b bd 30 d6 cb bd 8d e4 35 be a1 48 94 3e
       -0.057458166 -0.099529624 -0.17762966 0.2896166
000010 57 4b 0c 3e 20 07 2c c0 9a 2e e5 bc 98 d3 85 3c
       0.13700615 -2.6879349 -0.027976323 0.016336247
000020 f8 cf 46 bd df bf 67 3e
       -0.04853818 0.22631787

net.2.weight f4 [1, 10]
000000 0e 80 6a 3e 09 6f fa 3d 77 2c 08 be 6e ae ff bd
       0.22900411 0.122282095 -0.13298212 -0.12484442
000010 b8 bd 04 3f 8f c6 15 40 7d c8 28 3c 5a 9a 8d be
       0.5185199 2.340244 0.010301706 -0.27656823
000020 19 81 29 3e a3 29 b2 bd
       0.16553153 -0.08699348

exp_avg f4 [10, 10]
000000 49 a0 08 b9 3c 92 a2 ba f5 f9 9d 39 3b e0 a9 ba
       -0.00013029682 -0.00124032 0.00030131606 -0.0012960503
000010 fe 6c aa ba 03 18 48 3a 21 fa 1a 3a 0a 63 af b9
       -0.0013002453 0.00076329726 0.0005911906 -0.0003345239
000020 b3 69 c8 39 67 37 24 3a 14 fc 34 b9 2e 9e 81 b8
       0.00038225725 0.0006264359 -0.00017260044 -6.1806626e-05
000030 25 f8 08 b9 46 bc 92 38 3c a2 8b 37 f6 1e 80 39
       -0.00013062412 6.996891e-05 1.6645638e-05 0.0002443713
000040 18 37 77 39 a2 11 dd 39 6e a8 3e b9 72 dc b7 39
       0.0002357628 0.00042165542 -0.00018182557 0.00035068725
000050 5c 34 27 3a 2f a9 6f 3a ae 81 a5 39 22 33 11 ba
       0.00063783466 0.0009142337 0.0003156787 -0.00055389304
000060 6a ef 0f ba 92 ba c3 b9 7d 8c 95 ba 3f 1f e4 38
       -0.00054906926 -0.00037332304 -0.0011409667 0.00010877707
000070 82 16 f3 38 94 55 aa ba 56 b3 8a 39 cc 52 ca 39
       0.00011591335 -0.0012995475 0.00026455027 0.0003859013
000080 5d c3 d3 39 4f ea 66 ba c8 76 71 ba e3 24 da 3a
       0.00040390613 -0.00088087184 -0.000921112 0.0016643073
000090 5e 20 04 38 58 37 b1 b9 0d 2b ce b9 e0 7b d6 ba
       3.1501397e-05 -0.00033801305 -0.00039323457 -0.0016363822
0000a0 9a 25 29 3b 24 f3 66 3a 27 e2 10 3b 11 72 9b ba
       0.0025809766 0.00088100345 0.0022107454 -0.0011859556
0000b0 5f fd 42 ba 7e 51 14 bb 50 e8 10 3b 02 56 e4 38
       -0.0007438268 -0.002263158 0.0022111125 0.000108879074
0000c0 f5 d2 26 3a cc 5d 1a 3b 13 85 e8 3a 0a 01 82 bc
       0.00063638325 0.0023554442 0.0017739855 -0.015869636
0000d0 dc 9d 46 3c cb 33 ac bc 68 85 c2 bc 64 8b 5d 3a
       0.012122598 -0.02102079 -0.023745254 0.0008451252
0000e0 73 14 12 3d 7c ce b3 ba 9f 24 a9 bd 1d a1 1f 3d
       0.035664033 -0.0013718153 -0.08258938 0.03897201
0000f0 2e d2 2b b9 56 0d 44 b9 51 a4 31 b9 af d2 76 39
       -0.00016386129 -0.00018696985 -0.00016941248 0.00023538874
000100 4a a0 79 39 b4 cb 7b 38 5c 42 96 b7 a7 b2 4e 38
       0.00023806203 6.0032777e-05 -1.7912294e-05 4.928061e-05
000110 32 1d a5 38 7f 0d f4 b8 36 ed 8e 3a f4 5b 13 3b
       7.873251e-05 -0.000116373405 0.0010904435 0.0022485228
000120 96 9d 8d 3a 0f 85 d0 ba 35 b3 ba ba 52 07 e6 b9
       0.001080441 -0.0015908795 -0.0014244082 -0.00043874473
000130 51 4d 0c b9 89 bc b2 39 d6 58 24 3a f9 62 3e b9
       -0.00013380243 0.00034091275 0.0006269341 -0.00018156682
000140 ac e0 86 ba 72 dc 04 bb b3 74 78 ba a2 0a 97 3a
       -0.0010290346 -0.0020272997 -0.0009477839 0.0011523555
000150 55 19 91 3a 62 84 9e 39 cc 8d 3d 3a 8f c3 bf 39
       0.0011070172 0.0003023474 0.0007230907 0.0003657606
000160 a0 0f 84 b9 18 3e 61 39 19 aa 98 39 33 82 70 3a
       -0.00025188643 0.00021480804 0.00029118432 0.00091746746
000170 dd ca a4 39 d6 c7 cb b9 fa 86 bb b9 68 70 96 38
       0.00031431663 -0.00038868067 -0.00035767985 7.173495e-05
000180 43 09 47 b9 2c 06 00 b9 a4 95 03 38 2a a6 12 b8
       -0.00018981569 -0.0001220933 3.1372198e-05 -3.4963865e-05

exp_avg_sq f4 [10, 10]
000000 eb 50 b8 38 61 e7 ab 38 27 d3 ac 38 3b b7 bd 38
       8.788876e-05 8.197013e-05 8.240929e-05 9.0463516e-05
000010 ad f5 bc 38 6b da 2c 38 ed 2e 3e 38 50 6e e2 37
       9.010299e-05 4.1211413e-05 4.5343233e-05 2.6992668e-05
000020 92 9e 0a 3a e4 da 87 38 80 34 25 38 0a 15 1d 38
       0.0005287911 6.478073e-05 3.938796e-05 3.745131e-05
000030 44 01 24 38 23 7c 9b 38 85 67 a9 38 0a d4 99 37
       3.9101826e-05 7.414098e-05 8.07783e-05 1.833776e-05
000040 4f ef 2b 38 94 43 7b 37 e9 9d 8f 39 40 36 0a 38
       4.099245e-05 1.49765e-05 0.00027392738 3.2952288e-05
000050 45 8a a5 38 ed 86 94 38 76 f6 b0 38 b9 39 eb 38
       7.893568e-05 7.082322e-05 8.438241e-05 0.00011216425
000060 e3 65 fc 38 6a 6c e3 37 66 99 13 38 85 de f1 37
       0.00012035274 2.7110993e-05 3.5190395e-05 2.8833058e-05
000070 58 51 8d 39 29 87 86 38 9e 11 92 38 eb 36 72 38
       0.00026954222 6.4147935e-05 6.965104e-05 5.7748442e-05
000080 03 76 ba 38 b9 1d c3 38 79 3f cf 38 7f 53 c9 37
       8.8911525e-05 9.303861e-05 9.882352e-05 2.3999948e-05
000090 8c bb 88 37 1b 0e 3e 37 4d 2d ac 38 23 cb 06 38
       1.6299797e-05 1.1328167e-05 8.210037e-05 3.2137275e-05
0000a0 cb 06 3a 39 a3 15 25 39 52 cb 43 39 10 87 60 39
       0.00017740873 0.00015743687 0.00018672392 0.0002141262
0000b0 c7 23 64 39 0d c4 d1 38 54 f2 d4 38 a5 4c ac 38
       0.00021757103 0.00010002414 0.00010154085 8.215875e-05
0000c0 88 43 ab 3a ae 22 5a 39 a7 37 8b 39 56 c3 78 39
       0.001306639 0.0002080302 0.0002655361 0.00023723891
0000d0 1d 9c de 39 47 eb 23 3a 8a 98 23 3a 06 00 99 39
       0.00042459453 0.00062530156 0.00062406866 0.00029182452
0000e0 bf dd 25 3a 77 75 55 39 a0 dd 56 3b c7 5d 81 3a
       0.0006327293 0.00020357022 0.0032785907 0.0009869867
0000f0 b2 4b 01 38 e3 3d 1d 38 80 77 f1 37 ea 91 3c 38
       3.0826493e-05 3.7489353e-05 2.8785085e-05 4.4958586e-05
000100 45 ca 40 38 88 31 26 37 f1 9d 1a 37 a6 e5 41 37
       4.5964745e-05 9.905903e-06 9.215889e-06 1.1557166e-05
000110 8a dc fd 38 cb a7 b8 37 0a a5 cc 37 d8 d2 fc 37
       0.00012105059 2.2012644e-05 2.4395547e-05 3.0138923e-05
000120 01 74 e3 37 68 89 2a 38 9c fd 2c 38 69 8f d5 36
       2.7114527e-05 4.0659128e-05 4.1244188e-05 6.36459e-06
000130 5c b6 8c 36 ef 95 3a 37 16 c8 7a 38 5b 8a 99 37
       4.1935546e-06 1.1121373e-05 5.979099e-05 1.8303448e-05
000140 b5 8d 82 38 55 a8 24 38 6a 6d 1a 38 6e 9c 63 38
       6.225278e-05 3.925742e-05 3.681836e-05 5.4266704e-05
000150 99 57 6b 38 fc f1 93 37 b5 f4 83 37 ac 80 aa 37
       5.6109948e-05 1.7636448e-05 1.5730368e-05 2.0325497e-05
000160 df 07 2a 39 0b d4 c9 37 1a a9 0a 38 a7 1a 28 38
       0.00016215396 2.4059807e-05 3.3059252e-05 4.0079143e-05
000170 a2 60 55 38 b4 96 b5 38 4a 29 c2 38 46 f5 1b 37
       5.0873154e-05 8.658823e-05 9.2583316e-05 9.295827e-06
000180 e4 f9 87 37 7e 7b 29 37 a2 19 0b 39 fe 5b b2 37
       1.6209618e-05 1.0101938e-05 0.00013265622 2.126209e-05

exp_avg f4 [10]
000000 36 84 a0 3b 44 61 e8 3a 86 52 99 bb 77 b9 e1 bb
       0.0048985733 0.0017729183 -0.004679027 -0.006888564
000010 2c be b7 3c 04 67 0d 3e f8 88 b4 39 0a 3e 93 bb
       0.022429548 0.13808829 0.00034434325 -0.0044934796
000020 a6 79 ca 3b b1 d4 6d bb
       0.0061790524 -0.0036290104

exp_avg_sq f4 [10]
000000 0a 02 f4 3a e3 c3 36 3a 00 69 bd 3a 02 92 1a 3a
       0.001861633 0.00069719384 0.0014450848 0.00058963906
000010 96 49 4e 3b 50 1c 28 3c 6f 3a e1 39 51 08 79 39
       0.0031476966 0.0102606565 0.0004295888 0.00023749589
000020 a0 2d 1b 3a 3f ee f6 39
       0.00059195794 0.00047098284

exp_avg f4 [1, 10]
000000 23 81 8a 3b f8 17 eb 39 34 61 da bb 66 ad 30 3c
       0.00422682 0.0004484055 -0.0066644195 0.010783529
000010 a9 a3 2c 3d 7f 30 c1 bd b8 90 b0 bb 21 97 55 3c
       0.042148266 -0.09433078 -0.0053883456 0.01303652
000020 7a 75 08 bc 8c 18 83 b9
       -0.00832879 -0.00025004556

exp_avg_sq f4 [1, 10]
000000 3e cc af 3b 3c 93 b2 3b 86 d7 89 3b f7 6b 98 3b
       0.0053649237 0.0054496806 0.0042066006 0.0046515423
000010 25 b2 30 3c 40 e3 20 3c 4c 7a 76 3b 85 0c 6e 3b
       0.0107846605 0.009819806 0.0037609516 0.003632338
000020 63 a3 f0 3b 5a c4 96 3b
       0.007343696 0.0046010436
