Topic 2/4.3 Quality metric uncertainty estimation/lightning_logs/version_1/checkpoints/epoch=9-step=750.ckpt (torch, 8818 bytes, 9 tensors)

net.0.weight f4 [10, 10]
-1.0425392 1.7234516 -0.32644343 0.4803753 0.54086983 -0.26434997 0.6661034 -0.1531991
-1.2556826 0.5258156 1.06369 -2.1237905 1.7638768 0.39083824 0.39957374 -1.0602847
0.19512798 -0.02835021 -0.029037591 0.44226345 0.4011005 -0.6862091 -0.045623675 -0.6733448
0.14907654 0.17524384 -0.030110542 -0.007906161 -1.6717736 0.6586583 0.7307612 0.3026377
-0.82674 1.243843 0.17630227 0.08986212 0.17806864 0.12093416 0.44560406 0.6756983
0.119981766 0.6438347 -0.5019513 0.8160408 0.031132633 -0.20513386 -0.05353169 0.027967634
1.6611046 -0.35311922 0.54786706 -2.789253 1.498147 0.26401758 0.11574643 0.13688879
0.03151576 0.2668143 0.8638647 0.40362042 -0.588948 -0.06844999 2.7902162 0.2846773
0.04483999 0.15553908 0.15233126 -0.0992901 0.15804969 -0.22559586 -0.13264173 0.32536632
-1.4003623 -0.5315883 -0.07773607 -1.0672612 -0.6352496 -0.19702204 -0.39880005 -1.7575109
-1.9278827 0.6073344 0.7525857 0.54552746 0.5966374 0.10836771 0.5984336 0.0020450596
-0.49101505 0.24196048 -0.7282529 2.1321936 -0.30736956 -0.5787307 -0.2619042 -0.50681204
-0.2921196 -0.058379732 -0.2827885 -0.07565821
00000000: ed71 85bf 109a dc3f 9823 a7be c0f3 f53e
00000010: 7276 0a3f e158 87be c185 2a3f 3ae0 1cbe
00000020: 35ba a0bf da9b 063f fe26 883f 2fec 07c0
00000030: b7c6 e13f f31b c83e ee94 cc3e 69b7 87bf
00000040: a1cf 473e b33e e8bc 3ee0 edbc 5b70 e23e
00000050: 0b5d cd3e 66ab 2fbf e4df 3abd 5360 2cbf
00000060: 85a7 183e 1f73 333e 62aa f6bc d888 01bc
00000070: adfc d5bf d59d 283f 2a13 3b3f 54f3 9a3e
00000080: 3ca5 53bf 3f36 9f3f 9588 343e a209 b83d
00000090: a057 363e 54ac f73d 3726 e43e 90fa 2c3f
000000a0: 00b9 f53d 5ad2 243f e17f 00bf 0de8 503f
000000b0: dd09 ff3c 9c0e 52be 0c44 5bbd 611c e53c
000000c0: 139f d43f 0bcc b4be 0441 0c3f 1f83 32c0
000000d0: 48c3 bf3f 502d 873e 770c ed3d 932c 0c3e
000000e0: ab16 013d e29b 883e 3d26 5d3f 56a7 ce3e
000000f0: 4cc5 16bf 822f 8cbd e792 3240 39c1 913e
00000100: 23aa 373d a345 1f3e bafc 1b3e 9c58 cbbd
00000110: c7d7 213e 9a02 67be 3cd3 07be 6a96 a63e
00000120: 123f b3bf 2c16 08bf 1734 9fbd 049c 88bf
00000130: b89f 22bf 25c0 49be 852f ccbe 1ef6 e0bf
00000140: dcc4 f6bf 447a 1b3f 75a9 403f b0a7 0b3f
00000150: 3bbd 183f e4ef dd3d f232 193f 6806 063b
00000160: 5366 fbbe 7dc4 773e c86e 3abf dc75 0840
00000170: 8b5f 9dbe b227 14bf 4f18 86be 6fbe 01bf
00000180: b390 95be 961f 6fbd a7c9 90be b1f2 9abd

net.0.bias f4 [10]
0.5629079 0.04759738 -1.8919926 0.6941022 2.1309927 1.5412519 0.99199843 0.4189468
1.0032628 0.7816269
00000000: bb1a 103f 78f5 423d d02c f2bf afb0 313f
00000010: 2f62 0840 be47 c53f 9cf3 7d3f 3280 d63e
00000020: ea6a 803f b318 483f

net.2.weight f4 [1, 10]
0.8152811 -0.9554883 1.4370632 -1.4312342 -1.5465692 1.7201805 -1.3953757 0.740513
1.2255667 0.44979113
00000000: 43b6 503f e29a 74bf b0f1 b73f af32 b7bf
00000010: fbf5 c5bf e02e dc3f ac9b b2bf 4392 3d3f
00000020: 5fdf 9c3f 064b e63e

exp_avg f4 [10, 10]
0.001769819 0.0006672251 0.00011738087 0.0008830528 0.0016712876 -0.0013301555 -9.3071314e-05 -0.00031679444
0.00135178 0.00017570704 -0.0044171214 -0.002584329 -0.0030598375 0.0011450471 0.0017079853 0.0014529064
-0.0022702573 0.0005992395 -0.007584217 0.0024713168 0.0014104766 0.0012637962 0.0016438079 -0.0012240733
-0.001377451 -0.00022230131 0.0021631664 -0.0010548522 0.0066233156 -0.0034542903 -0.005876983 -0.004299256
-0.0021219663 0.0034368434 0.0038452249 -0.0022779633 -0.0047777914 -0.0025056293 -0.0068084365 0.003601474
-0.000874312 -0.0012176632 -0.0011033404 -0.0006996998 -0.00024142757 -0.0013570874 -0.0035263542 0.0006636937
-0.0059990743 0.001860593 -0.0031168445 -0.0019000699 -0.008437132 0.004723727 0.0031211716 0.0040406417
-0.00057142135 -0.0019349712 0.0032691173 -0.009231649 -0.0032478333 -0.0028100135 -0.0016020017 -0.0006419262
-0.0017881782 -1.719169e-05 -0.004054653 -0.0018010769 -0.0076069687 0.004391171 0.0031733897 0.0024618548
0.0026524556 -0.0033962307 -0.003045089 0.0007509827 0.0011764828 -1.574462e-05 0.0032332921 -0.0013709468
1.902759e-05 0.00089754426 0.0010786374 -0.0002355394 4.9934024e-05 0.0012712209 0.000360818 0.0049722977
0.0050689355 -0.00093048083 0.0012485266 0.00043634462 -0.00053608447 0.00037757697 4.973373e-05 -0.00027219148
0.00056860567 -0.00024147061 0.0024376197 -0.0006162033
00000000: 45f9 e73a b8e8 2e3a 602a f638 ac7c 673a
00000010: 1b0f db3a 9d58 aeba 482f c3b8 6e17 a6b9
00000020: 362e b13a 003e 3839 80bd 90bb d95d 29bb
00000030: 8e87 48bb 6815 963a 7ade df3a 736f be3a
00000040: 99c8 14bb 4816 1d3a 0685 f8bb d1f5 213b
00000050: bedf b83a f7a5 a53a 0a75 d73a 1671 a0ba
00000060: 968b b4ba 8e19 69b9 e9c3 0d3b f742 8aba
00000070: 6608 d93b 6061 62bb b593 c0bb c6e0 8cbb
00000080: b010 0bbb aa3c 613b 2b00 7c3b e249 15bb
00000090: 058f 9cbb 7c35 24bb 4e19 dfbb b506 6c3b
000000a0: 1632 65ba ff99 9fba f69d 90ba 0f6c 37ba
000000b0: b827 7db9 4ce0 b1ba 681a 67bb bbfb 2d3a
000000c0: e293 c4bb 24df f33a f943 4cbb c40b f9ba
000000d0: e63b 0abc 7ec9 9a3b 928c 4c3b 5c67 843b
000000e0: 70cb 15ba dc9e fdba b03e 563b 5840 17bc
000000f0: 9ad9 54bb 3428 38bb 42fa d1ba f046 28ba
00000100: 4e61 eaba e036 90b7 e5dc 84bb 1d12 ecba
00000110: e143 f9bb d0e3 8f3b a5f8 4f3b 1257 213b
00000120: d2d4 2d3b 4c93 5ebb 1e90 47bb 99dd 443a
00000130: 3634 9a3a 5013 84b7 a4e5 533b 57b1 b3ba
00000140: 709d 9f37 2d49 6b3a 1161 8d3a 20fb 76b9
00000150: 4070 5138 189f a63a 2c2c bd39 a8ee a23b
00000160: 5019 a63b 83eb 73ba 9aa5 a33a 2fc5 e439
00000170: 0588 0cba 86f5 c539 3099 5038 ecb4 8eb9
00000180: 7b0e 153a 4633 7db9 79c0 1f3b b488 21ba

exp_avg_sq f4 [10, 10]
6.2145285e-05 3.464693e-05 6.710963e-05 8.625656e-05 8.69839e-05 4.164758e-05 3.294974e-05 2.5887035e-05
8.9703164e-05 0.000105833096 0.00013318045 8.869212e-05 0.00018075529 0.00034016388 0.00037568822 4.8517275e-05
5.8131638e-05 3.678758e-05 0.00015058675 0.00013754441 5.950437e-05 4.29295e-05 8.045698e-05 8.628469e-05
8.130116e-05 0.00012339142 9.31738e-05 8.041925e-05 8.817711e-05 9.01472e-05 8.1534796e-05 8.225341e-05
8.351927e-05 5.6904802e-05 5.2936575e-05 0.00011669461 7.250742e-05 8.256802e-05 0.00018240348 0.00023050918
5.159912e-05 3.8256494e-05 6.9616355e-05 6.5299355e-05 6.0792318e-05 0.0001472104 0.000107672044 8.893806e-05
8.933842e-05 0.00012496534 6.016724e-05 4.140941e-05 9.149159e-05 7.9459445e-05 7.548672e-05 8.93033e-05
7.292919e-05 7.4661286e-05 8.748769e-05 0.00015057676 0.0002237598 0.00013315436 0.00026671035 0.00048783713
0.0005546073 0.00010222823 8.751525e-05 5.8828995e-05 0.0003491652 0.0003787414 4.261087e-05 3.1399995e-05
6.031471e-05 0.00010552278 0.00011736153 2.9710096e-05 2.2631322e-05 2.2564742e-05 7.1318456e-05 2.9244033e-05
5.246009e-05 5.7355483e-05 8.190473e-05 5.5123182e-05 4.8142443e-05 6.89408e-05 5.284243e-05 8.0001875e-05
0.00017051236 0.00015516867 6.120043e-06 3.227519e-06 6.7847577e-06 8.610724e-06 8.643331e-06 2.437527e-06
2.7039366e-06 1.3949792e-06 9.728493e-06 1.0790918e-05
00000000: ff53 8238 dc51 1138 35bd 8c38 a3e4 b438
00000010: 206b b638 c0ae 2e38 8433 0a38 fc27 d937
00000020: 051f bc38 b6f2 dd38 5ba6 0b39 3800 ba38
00000030: 2189 3d39 0658 b239 05f8 c439 077f 4b38
00000040: 5fd2 7338 5d4c 1a38 d3e6 1d39 cc39 1039
00000050: 5594 7938 330f 3438 03bb a838 bdf3 b438
00000060: 3a80 aa38 a262 0139 4e66 c338 c2a6 a838
00000070: baeb b838 690d bd38 a9fd aa38 777f ac38
00000080: 1127 af38 11ad 6e38 3708 5e38 f1b9 f438
00000090: 200f 9838 5e28 ad38 9043 3f39 d6b4 7139
000000a0: 226c 5838 9975 2038 fffe 9138 53f1 8838
000000b0: 41fb 7e38 7e5c 1a39 fdcd e138 4284 ba38
000000c0: 335b bb38 2109 0339 155c 7c38 04af 2d38
000000d0: 2cdf bf38 77a3 a638 a04e 9e38 5848 bb38
000000e0: 90f1 9838 7993 9c38 9979 b738 24e4 1d39
000000f0: 10a1 6a39 5a9f 0b39 42d5 8b39 64c4 ff39
00000100: 1163 113a 5d63 d638 6488 b738 27bf 7638
00000110: 2910 b739 cf91 c639 13b9 3238 7db3 0338
00000120: 6dfa 7c38 1c4c dd38 fe1f f638 f239 f937
00000130: 65d8 bd37 6a49 bd37 ce90 9538 1551 f537
00000140: 9808 5c38 fb90 7038 44c4 ab38 1134 6738
00000150: 8eec 4938 4f94 9038 21a3 5d38 aec6 a738
00000160: 90cb 3239 c6b4 2239 c55a cd36 5b98 5836
00000170: a0a8 e336 c776 1037 d302 1137 6594 2336
00000180: 4775 3536 1f3b bb35 8f37 2337 a40a 3537

exp_avg f4 [10]
-0.003290703 0.006671399 -0.008075958 0.0064533837 0.007488343 -0.0004057259 0.007546421 -0.005735741
-0.0017536222 -0.0031022306
00000000: d6a8 57bb c09b da3b 0651 04bc e876 d33b
00000010: c660 f53b 9cb7 d4b9 f847 f73b e2f2 bbbb
00000020: ccd9 e5ba cb4e 4bbb

exp_avg_sq f4 [10]
9.031772e-05 0.00026828493 0.00014888398 0.0001766345 0.00014751976 0.00012213776 0.00049425283 9.459082e-05
7.6784236e-05 1.1457195e-05
00000000: f568 bd38 98a8 8c39 bd1d 1c39 f636 3939
00000010: 89af 1a39 1b12 0039 bf90 013a 0f5f c638
00000020: 3907 a138 4738 4037

exp_avg f4 [1, 10]
-0.008006464 -0.00014648557 0.0016994523 -0.002040318 -0.0036714864 -0.008184321 -0.005995247 -0.0045713317
-0.008766238 -0.0060667205
00000000: 8b2d 03bc ec99 19b9 28c0 de3a dbb6 05bb
00000010: 529d 70bb 8817 06bc c773 c4bb 1ccb 95bb
00000020: 44a0 0fbc 57cb c6bb

exp_avg_sq f4 [1, 10]
0.00035724422 0.00025776942 0.0006573569 0.0005089012 0.00073149503 0.00061237556 0.00023552358 0.00043404655
0.0006981742 0.00018596157
00000000: 824c bb39 3a25 8739 7a52 2c3a c867 053a
00000010: cdc1 3f3a d487 203a e1f6 7639 be90 e339
00000020: ad05 373a aefe 4239
